reconstruction.pth (torch, 716370 bytes, 56 tensors)

enc_1.0.weight f4 [3, 3, 3, 3]
0.06273112 -0.028562695 0.08942244 0.020859582 0.16506305 0.04011031 0.18136643 0.19729911
-0.019141255 -0.041025244 0.113379374 0.10547247 0.09157836 0.00087397604 0.096539326 -0.04856009
0.20525001 0.0753326 -0.03193614 -0.0020685028 -0.18562496 -0.03396238 0.02793453 0.06213333
0.23726262 0.14824298 -0.12953447 -0.25017583 0.006026575 -0.22177604 0.07487806 -0.16932078
-0.068810806 -0.017913997 0.1222835 -0.17295432 -0.11610516 -0.077075675 -0.04374994 -0.008199401
0.043295786 -0.005182794 -0.07531415 0.24531446 -0.093623556 -0.12588081 -0.103319116 0.10339017
-0.076382615 0.06763454 0.13765608 0.19717668 0.14632012 -0.19967702 0.036235165 -0.17974764
0.0289439 0.071134545 0.08873074 0.11223468 -0.1350331 -0.1623742 -0.046147157 -0.13098921
0.19284788 -0.1407459 -0.07280891 0.042432565 0.019931471 0.058284186 0.09673276 0.07256756
0.25643674 -0.07792073 -0.06775025 0.24068709 0.060391694 0.106220156 0.14602329 -0.15812849
0.012851013
00000000: 2c79 803d 50fc e9bc 1d23 b73d b7e1 aa3c
00000010: 4a06 293e b54a 243d 1fb8 393e c708 4a3e
00000020: 1fce 9cbc 160a 28bd 7233 e83d f301 d83d
00000030: 6f8d bb3d 8a1b 653a 69b6 c53d f2e6 46bd
00000040: 0f2d 523e fa47 9a3d 78cf 02bd b88f 07bb
00000050: 7814 3ebe 231c 0bbd f5d6 e43c 857f 7e3d
00000060: f9f4 723e 02cd 173e afa4 04be 0c17 80be
00000070: 937a c53b 4219 63be ab59 993d 6d62 2dbe
00000080: aeec 8cbd 60c0 92bc c66f fa3d f01a 31be
00000090: 8bc8 edbd dad9 9dbd 2333 33bd c856 06bc
000000a0: ec56 313d 6dd4 a9bb 4e3e 9abd b733 7b3e
000000b0: b5bd bfbd e6e6 00be f998 d3bd 3abe d33d
000000c0: 7d6e 9cbd fa83 8a3d b7f5 0c3e afe8 493e
000000d0: f1d4 153e 2278 4cbe 536b 143d c40f 38be
000000e0: c21b ed3c fdae 913d 76b8 b53d 4cdb e53d
000000f0: 1e46 0abe 6c45 26be cd04 3dbd 0922 06be
00000100: ea79 453e b11f 10be d61c 95bd c5cd 2d3d
00000110: 5347 a33c 66bb 6e3d d31b c63d 4d9e 943d
00000120: ad4b 833e e794 9fbd a5c0 8abd ad76 763e
00000130: 485d 773d f489 d93d 2187 153e 6fec 21be
00000140: 0e8d 523c

enc_1.0.bias f4 [3]
-0.12252237 0.1160675 0.3432724
00000000: 02ed fabd ccb4 ed3d 66c1 af3e

enc_1.1.weight f4 [3, 3, 3, 3]
0.06414642 0.0916843 -0.13507314 -0.0016759672 0.051587343 -0.011289335 -0.11836154 0.077274665
-0.2053136 0.21877334 -0.030292029 -0.03433625 0.104024835 0.20591539 0.024603555 -0.14603038
0.16226012 -0.095395505 -0.064241365 -0.062171716 0.15275154 0.10296519 0.23347577 0.06293954
0.087958135 0.1392333 0.14463256 0.0065805125 0.05035389 0.11215049 0.17249727 0.07856576
0.18857868 -0.022743737 -0.06512932 0.06278455 -0.15148999 -0.017987711 0.17572898 0.07489478
-0.1774086 -0.17499726 -0.0728502 0.14670315 -0.08479976 -0.030857328 0.028548075 0.1586335
0.18034711 0.05694055 0.18018919 0.047306266 0.012075511 0.11701134 -0.230183 0.17433202
0.046120998 -0.114857025 0.07131464 0.08179129 0.13637073 0.014611425 -0.10224445 -0.18864049
0.09367108 -0.15453444 0.17073342 -0.08192288 -0.024818424 0.31346595 -0.008923913 -0.23289755
-0.09484707 0.09046064 0.13207425 -0.20322162 0.17872562 0.13134387 -0.04643722 -0.0025201563
-0.050313912
00000000: 335f 833d fac4 bb3d 9d50 0abe 21ac dbba
00000010: 404d 533d e7f6 38bc 8967 f2bd 2e42 9e3d
00000020: ba3d 52be 1e06 603e fd26 f8bc 2ba4 0cbd
00000030: f90a d53d 7cdb 523e 658d c93c fd88 15be
00000040: 8427 263e b85e c3bd fa90 83bd c5a7 7ebd
00000050: e66a 1c3e 6adf d23d 4614 6f3e 72e6 803d
00000060: 6523 b43d 2d93 0e3e 8f1a 143e 57a1 d73b
00000070: e13f 4e3d 28af e53d 20a3 303e 16e7 a03d
00000080: c51a 413e 1351 babc 8562 85bd 3095 803d
00000090: 3120 1bbe f75a 93bc 4cf2 333e 6f62 993d
000000a0: 9aaa 35be 7b32 33be 7c32 95bd 5a39 163e
000000b0: 7fab adbd 82c8 fcbc a7dd e93c d270 223e
000000c0: eaac 383e 7f3a 693d 8483 383e 37c4 413d
000000d0: 5dd8 453c a4a3 ef3d 18b5 6bbe 1884 323e
000000e0: 5fe9 3c3d 293a ebbd 690d 923d 3182 a73d
000000f0: c5a4 0b3e c264 6f3c 8a65 d1bd f92a 41be
00000100: a0d6 bf3d 473e 1ebe bed4 2e3e 2fc7 a7bd
00000110: 0250 cbbc 9c7e a03e 9b35 12bc b27c 6ebe
00000120: 2e3f c2bd 6e43 b93d 793e 073e 5419 50be
00000130: d903 373e 027f 063e f434 3ebd 3529 25bb
00000140: f615 4ebd

enc_1.1.bias f4 [3]
0.48941123 0.0154814115 0.52408636
00000000: 1c94 fa3e bfa5 7d3c 862a 063f

enc_2.1.weight f4 [3, 3, 3, 3]
-0.17184728 -0.036135435 -0.028571589 -0.009127752 -0.07604287 -0.13306086 0.031537134 0.09321345
0.21595472 -0.0391783 0.054060757 -0.1620944 0.16805701 0.16880083 0.06667111 0.11702784
-0.042533964 -0.07537358 0.19626243 -0.026432278 -0.08394349 -0.06424706 -0.13021414 0.005511319
0.12894359 0.123310685 0.11205274 -0.12317164 -0.105145276 -0.010538821 0.029639177 -0.025892584
-0.04170616 -0.022839647 0.06625887 -0.10092678 0.004731075 0.0031466677 -0.06573776 -0.016279355
-0.18484439 -0.05305836 0.023076072 0.18329123 0.18595122 -0.15243249 -0.0146124065 -0.10400753
0.1510618 -0.08885653 0.038791247 -0.2713981 -0.20386285 -0.05336145 -0.0033950822 -0.17179792
-0.119497925 0.07905528 -0.16467401 -0.16176651 -0.034573764 0.080900714 0.13246152 -0.032615762
-0.1874093 -0.03503924 -0.18361464 -0.16722915 0.107913636 -0.16073614 -0.039781816 0.010422669
0.14183034 0.03634145 0.20359936 0.074981235 0.06512477 -0.09381102 0.035511762 0.11692506
0.08316244
00000000: bcf8 2fbe c002 14bd f70e eabc 918c 15bc
00000010: 5dbc 9bbd 1b41 08be 152d 013d b1e6 be3d
00000020: 3c23 5d3e 6d79 20bd d06e 5d3d 13fc 25be
00000030: 2317 2c3e 20da 2c3e dd8a 883d 4bac ef3d
00000040: 1838 2ebd 775d 9abd 05f9 483e 8188 d8bc
00000050: 91ea abbd f693 83bd db56 05be 4b98 b43b
00000060: ca09 043e 508a fc3d e87b e53d 6a41 fcbd
00000070: 6856 d7bd 05ab 2cbc dccd f23c af1c d4bc
00000080: 14d4 2abd 361a bbbc bbb2 873d b3b2 cebd
00000090: 2207 9b3b 5338 4e3b 85a1 86bd 485c 85bc
000000a0: d947 3dbe b953 59bd 080a bd3c b2b0 3b3e
000000b0: ff69 3e3e 4317 1cbe e068 6fbc e601 d5bd
000000c0: f2af 1a3e 6afa b5bd 92e3 1e3d b1f4 8abe
000000d0: 6cc1 50be 8991 5abd 0780 5ebb cbeb 2fbe
000000e0: 54bb f4bd bce7 a13d 4ea0 28be 1fa6 25be
000000f0: 389d 0dbd 46af a53d fea3 073e 1b98 05bd
00000100: 39e8 3fbe 4e85 0fbd 7a05 3cbe 1e3e 2bbe
00000110: d301 dd3d 0498 24be 42f2 22bd d8c3 2a3c
00000120: f93b 113e c6da 143d 5a7c 503e c38f 993d
00000130: 2360 853d fe1f c0bd c874 113d 6876 ef3d
00000140: 1251 aa3d

enc_2.1.bias f4 [3]
0.055092577 0.03956965 -0.016523888
00000000: c1a8 613d c913 223d 1b5d 87bc

enc_2.2.weight f4 [3, 3, 3, 3]
-0.14826295 0.065691784 0.08252618 -0.19045031 0.035842285 0.13006961 -0.14506584 0.123000555
-0.051002946 0.07605467 -0.12998523 -0.19309923 -0.08806493 -0.01960745 -0.097668014 0.07872702
-0.0051494106 -0.19633797 0.11401463 -0.09903819 0.021612821 0.11593313 0.15617031 0.11736886
0.10154017 0.05313708 0.09235714 0.13218458 0.16893929 -0.049243074 0.20162703 0.21054219
0.019647725 0.17526439 0.16503444 -0.11177805 0.114859276 0.008587645 -0.10621747 -0.16255398
0.13694152 0.017706513 -0.08265026 -0.054236703 0.014145773 0.05034204 -0.01571316 -0.19474553
0.02867015 -0.12677194 0.065352 0.06793294 -0.120592594 -0.031193303 0.023023859 0.11053477
0.19396779 -0.26220495 0.024827007 -0.13803741 -0.12588502 0.08590395 0.07631103 -0.15002587
0.06800792 -0.19296153 0.045639426 0.15236239 0.12733777 0.1698514 -0.050645124 -0.0294087
-0.15556948 0.015418852 -0.08371222 -0.1492013 0.12804085 -0.08712502 0.13985385 0.19976315
0.040171824
00000000: 3ed2 17be 6a89 863d 7c03 a93d 6805 43be
00000010: 5ccf 123d f830 053e 248c 14be b7e7 fb3d
00000020: 77e8 50bd 8dc2 9b3d d91a 05be cebb 45be
00000030: 635b b4bd ce9f a0bc 2b06 c8bd a23b a13d
00000040: 63bc a8bb d20c 49be 8180 e93d 89d4 cabd
00000050: 5f0d b13c 596e ed3d 1ceb 1f3e 165f f03d
00000060: 4bf4 cf3d 44a6 593d bd25 bd3d 655b 073e
00000070: 6cfe 2c3e 1bb3 49bd 5177 4e3e 5f98 573e
00000080: 44f4 a03c 8278 333e cafe 283e e4eb e4bd
00000090: 573b eb3d 32b3 0c3c 8b88 d9bd 8d74 26be
000000a0: 663a 0c3e 400d 913c 8a44 a9bd 4e27 5ebd
000000b0: acc3 673c 7433 4e3d e3b8 80bc 5f6b 47be
000000c0: aadd ea3c 81d0 01be 45d7 853d 6d20 8b3d
000000d0: 40f9 f6bd 1989 ffbc 889c bc3c 0e60 e23d
000000e0: 7e9f 463e ba3f 86be 0262 cb3c ae59 0dbe
000000f0: 01e8 00be 69ee af3d f548 9c3d 62a0 19be
00000100: bd47 8b3d b597 45be 68f0 3a3d e304 1c3e
00000110: d564 023e 87ed 2d3e 4371 4fbd 84ea f0bc
00000120: 9b4d 1fbe 5a9f 7c3c 5071 abbd 3ac8 18be
00000130: 241d 033e 9a6e b2bd d935 0f3e b68e 4c3e
00000140: 368b 243d

enc_2.2.bias f4 [3]
-0.032449618 0.22607666 -0.09645056
00000000: e4e9 04bd a480 673e df87 c5bd

enc_3.1.weight f4 [3, 3, 3, 3]
-0.08689588 0.08038492 0.01742014 -0.109227315 -0.17789021 0.05954022 0.15226188 -0.011491635
-0.09111239 0.033064008 0.21763152 -0.0031869593 0.035049085 0.07970592 0.09833585 0.10699775
0.06022524 0.041859027 -0.06080447 -0.19809589 -0.08398675 0.23439981 0.15281108 0.036302704
-0.05254114 0.16869296 -0.04292532 0.06677938 -0.1766142 -0.15016155 0.08768236 -0.09970707
-0.11586897 -0.124542385 0.031063177 0.1319694 0.025156718 -0.07232363 0.11461625 0.11193117
-0.0870029 0.09320829 -0.007018059 -0.1958736 -0.023708442 0.25978017 -0.12040306 0.16409138
-0.0605593 -0.044218015 0.027397064 0.19769217 0.034307078 -0.1245071 -0.12576464 0.07364223
-0.088372655 -0.07741805 0.15146314 -0.18207538 -0.030014977 -0.038199622 0.06935714 -0.047942583
-0.09535248 -0.08091078 0.055381663 -0.062373362 -0.035953593 0.18311872 0.056777697 -0.06199078
0.027671637 0.20030692 -0.061877698 -0.24051017 -0.20189857 -0.23546739 0.030422354 0.022268057
0.061682206
00000000: 78f6 b1bd d9a0 a43d aeb4 8e3c 92b2 dfbd
00000010: da28 36be 72e0 733d 8aea 1b3e 6947 3cbc
00000020: 2299 babd 206e 073d ccda 5e3e 4edc 50bb
00000030: a18f 0f3d db3c a33d 4e64 c93d a321 db3d
00000040: beae 763d 5f74 2b3d 1c0e 79bd a6d9 4abe
00000050: 3f01 acbd 8106 703e 827a 1c3e 25b2 143d
00000060: 6135 57bd d9bd 2c3e 76d2 2fbd a1c3 883d
00000070: 5ada 34be f3c3 19be cf92 b33d 3833 ccbd
00000080: b64c edbd 1410 ffbd 3478 fe3c fd22 073e
00000090: 7615 ce3c 691e 94bd edbb ea3d 2b3c e53d
000000a0: 942e b2bd fde3 be3d bff7 e5bb 1793 48be
000000b0: 3538 c2bc e801 853e e195 f6bd 9207 283e
000000c0: 070d 78bd f31d 35bd cf6f e03c d16f 4a3e
000000d0: 9485 0c3d 94fd febd 72c8 00be bdd1 963d
000000e0: b9fc b4bd 5b8d 9ebd 2719 1b3e f871 3abe
000000f0: f8e1 f5bc 3577 1cbd 1e0b 8e3d 715f 44bd
00000100: 2948 c3bd 8db4 a5bd e2d7 623d 367b 7fbd
00000110: 1344 13bd 7983 3b3e bb8f 683d 0bea 7dbd
00000120: a1af e23c 421d 4d3e 7873 7dbd 4c48 76be
00000130: 80be 4ebe 5d1e 71be 4d38 f93c 806b b63c
00000140: 7ba6 7c3d

enc_3.1.bias f4 [3]
0.14244013 0.016432263 -0.29139835
00000000: d3db 113e f49c 863c 2a32 95be

enc_3.2.weight f4 [3, 3, 3, 3]
0.060551427 0.10963043 -0.0033743854 0.18764797 -0.14646277 0.16614185 0.15403304 0.037241217
0.002652295 0.07312968 -0.1162104 0.078776136 0.048802435 0.17543548 0.1087023 0.076169044
0.09569016 0.059179816 0.06036406 -0.025781503 0.12186694 -0.0807479 0.05599957 -0.11930329
0.008057748 -0.04473026 0.12415733 0.07363326 0.16614501 -0.07826661 -0.16904293 -0.20159554
-0.19394687 -0.15007696 -0.00703173 -0.12916507 0.107555576 0.05547957 0.038104676 0.0027044197
0.23074088 0.030251049 0.11138968 0.027696185 -0.012866662 -0.123016156 0.016649185 -0.19125414
0.12339294 0.031514525 -0.02896467 -0.06385756 0.011141366 0.03916924 -0.09449912 -0.041536264
0.13354449 -0.024994645 0.070207365 0.049693618 0.005264208 -0.17893744 -0.17248207 0.040755693
0.17197287 0.087204866 0.011029621 0.18362235 0.1433767 0.055809863 0.094149105 -0.14095916
0.14273138 0.28458163 0.27027273 0.18908127 -0.22878999 -0.06889447 0.17730816 0.123524785
-0.062074378
00000000: c604 783d eb85 e03d cb24 5dbb ca26 403e
00000010: 56fa 15be 1721 2a3e d6ba 1d3e 3f8a 183d
00000020: 20d2 2d3b 03c5 953d b8ff edbd 6255 a13d
00000030: 10e5 473d 5ca5 333e 509f de3d 84fe 9b3d
00000040: 34f9 c33d 8966 723d 4e40 773d bb33 d3bc
00000050: 6095 f93d 285f a5bd ce5f 653d 4955 f4bd
00000060: a504 043c 1437 37bd 3346 fe3d 09cd 963d
00000070: eb21 2a3e 3f4a a0bd 9719 2dbe 106f 4ebe
00000080: 029a 46be c6ad 19be 6d6a e6bb d943 04be
00000090: 1946 dc3d 8c3e 633d a613 1c3d a23c 313b
000000a0: 5647 6c3e 0cd1 f73c 4620 e43d 1ce3 e23c
000000b0: b1ce 52bc e5ef fbbd df63 883c 20d8 43be
000000c0: 70b5 fc3d 6015 013d 5147 edbc c1c7 82bd
000000d0: 478a 363c ed6f 203d c188 c1bd ee21 2abd
000000e0: e3bf 083e 92c1 ccbc e1c8 8f3d 898b 4b3d
000000f0: 617f ac3b 603b 37be 249f 30be 71ef 263d
00000100: a819 303e 7798 b23d 95b5 343c 7f07 3c3e
00000110: 57d1 123e e298 643d 3fd1 c03d 9957 10be
00000120: 2d28 123e afb4 913e 3061 8a3e 859e 413e
00000130: ec47 6abe 8b18 8dbd 4590 353e 90fa fc3d
00000140: b441 7ebd

enc_3.2.bias f4 [3]
0.13885227 -0.1283153 -0.10315692
00000000: 4a2f 0e3e 1665 03be ef43 d3bd

enc_4.1.weight f4 [16, 3, 3, 3]
-0.12925941 0.1644263 0.012295896 0.19705147 -0.13936278 -0.10365432 -0.09171593 -0.099626616
0.18729003 -0.03208789 -0.06472857 0.15848419 0.09125813 -0.2042505 0.22151113 -0.1061329
-0.03181447 0.012761378 -0.012077939 0.09962516 -0.10558159 0.0021904027 -0.091120504 0.25957367
0.14824727 -0.13034905 0.19222471 0.054676536 0.012011441 -0.13752776 -0.04048655 0.20241223
0.16388617 -0.101865135 -0.0007699101 -0.07527631 -0.03477619 0.040020723 -0.16685642 0.17431813
0.09375514 -0.015324541 -0.10787453 0.22103617 0.007705388 -0.25913626 0.029408384 0.027411658
0.027230421 -0.1154691 -0.1438756 0.092560604 0.2800612 0.16243608 -0.052405324 0.06577969
-0.12011552 0.12870295 -0.055562705 -0.08382756 -0.13802275 -0.05296978 -0.14612429 -0.05635489
-0.17170344 0.107090406 -0.16245104 -0.18717359 0.06866348 -0.14732857 -0.14356324 -0.087611794
-0.058447275 0.05789654 -0.06933654 -0.09593318 -0.039315514 0.08999543 -0.05968343 -0.045420043
-0.11365102 0.0793461 0.13246731 -0.13674109 0.07576177 0.0013903874 0.09105281 0.21079104
-0.0807314 -0.16574612 0.17680022 -0.13437384 0.12854648 -0.07504951 0.026140066 0.19603647
0.025576904 0.01527348 0.03472223 0.019483918 -0.15062366 0.08668387 -0.008760171 -0.037897352
0.09891113 -0.11864233 0.15639669 -0.15003157 0.13950948 -0.14849983 0.08549851 -0.121953964
-0.038970064 0.1102151 0.16871732 -0.019097993 0.0385767 0.11294666 0.08462515 0.16667037
0.0030713829 0.06718944 0.21619709 -0.16672719 0.14358626 0.111128695 0.053672135 -0.13812253
-0.0247441 0.022970773 0.21046753 -0.08445679 0.009433815 0.16826299 -0.06315577 0.17147245
0.039019737 -0.008496948 0.08332714 0.05817724 -0.12514463 -0.04783912 -0.13750426 0.02703507
0.20381357 -0.09561779 0.07576913 0.0639208 -0.024497412 -0.16830683 -0.16636841 -0.018853636
0.10682652 0.17363435 -0.005288558 -0.22197972 -0.027062388 0.18574953 -0.17964739 -0.13701433
0.17718728 -0.25144848 0.097492255 -0.16545956 0.020392913 -0.016940758 0.07014346 0.042569898
-0.026593985 0.10589719 0.11773683 0.062693216 0.13788226 0.11507701 0.17334472 0.12924579
-0.029537408 -0.13271576 0.020777432 -0.07370394 0.15110366 0.22282101 0.020908216 0.11936523
-0.09846233 0.046981145 0.14024034 -0.15872188 0.083571024 -0.06758456 -0.08808135 -0.15715349
-0.027084796 0.055691436 -0.08297988 -0.019776301 0.13129775 0.10703455 -0.010455074 -0.04124829
0.114659905 0.06448402 -0.060544007 -0.19514512 -0.02065727 -0.17463885 0.0717959 0.010978627
-0.06332886 0.09133267 0.014129703 -0.07930054 0.006330014 -0.053447194 -0.052278757 0.15927917
0.0447288 -0.0814892 -0.017926127 -0.08491419 0.033180233 -0.10199179 0.12595925 -0.020382958
-0.14558019 0.12889108 0.020729162 0.031952783 0.06377248 0.06071337 -0.12672861 0.12357222
0.12156755 0.10011965 0.16865498 0.12686926 -0.019104954 -0.07217126 0.10701458 0.023026709
0.08796571 0.10517937 0.098170474 0.011571224 0.07694815 0.14559723 -0.08957641 0.083113454
-0.14580461 0.09471467 -0.19648486 -0.22041342 -0.069577694 -0.18720114 0.10597981 0.09738807
00000000: 945c 04be 5e5f 283e ba74 493c dcc7 493e
00000010: 1eb5 0ebe b748 d4bd 90d5 bbbd 0a09 ccbd
00000020: f5c8 3f3e 976e 03bd 6a90 84bd ae49 223e
00000030: 8be5 ba3d 0b27 51be d0d3 623e 355c d9bd
00000040: e44f 02bd 1915 513c 8ce2 45bc 4708 cc3d
00000050: 293b d8bd dc8c 0f3b 639d babd d7e6 843e
00000060: 22ce 173e 397a 05be 8ed6 443e 81f4 5f3d
00000070: a3cb 443c 14d4 0cbe 3ad5 25bd 2745 4f3e
00000080: c7d1 273e ab9e d0bd cbd3 49ba 772a 9abd
00000090: 7a71 0ebd c5ec 233d 69dc 2abe 7480 323e
000000a0: b202 c03d c913 7bbc 52ed dcbd 4e57 623e
000000b0: 7b7d fc3b 82ad 84be dae9 f03c 6a8e e03c
000000c0: 5512 df3c 107b ecbd 2054 13be 6a90 bd3d
000000d0: 2e64 8f3e a555 263e f7a6 56bd 81b7 863d
000000e0: 20ff f5bd b5ca 033e b895 63bd c9ad abbd
000000f0: d655 0dbe d7f6 58bd 9ba1 15be 63d4 66bd
00000100: 07d3 2fbe 3752 db3d 9159 26be 6faa 3fbe
00000110: 709f 8c3d 4ddd 16be 3e02 13be d06d b3bd
00000120: 6966 6fbd ec24 6d3d 5100 8ebd 9d78 c4bd
00000130: 4e09 21bd 864f b83d 9d76 74bd 5e0a 3abd
00000140: dec1 e8bd 3580 a23d 83a5 073e db05 0cbe
00000150: fd28 9b3d a93d b63a e579 ba3d 9bd9 573e
00000160: 8156 a5bd 5ab9 29be 1e0b 353e 4c99 09be
00000170: b0a1 033e 8fb3 99bd b123 d63c c9bd 483e
00000180: a886 d13c 9e3d 7a3c e638 0e3d bd9c 9f3c
00000190: 173d 1abe 5087 b13d d286 0fbc 413a 1bbd
000001a0: eb91 ca3d c0fa f2bd 7426 203e e0a1 19be
000001b0: 93db 0e3e 5710 18be d819 af3d 00c3 f9bd
000001c0: 139f 1fbd 74b8 e13d 3cc4 2c3e 6573 9cbc
000001d0: 9a02 1e3d 9450 e73d f34f ad3d a3ab 2a3e
000001e0: 4149 493b 9e9a 893d c562 5d3e 88ba 2abe
000001f0: 4708 133e 7197 e33d 50d7 5b3d fe6f 0dbe
00000200: 24b4 cabc 342d bc3c cd84 573e aef7 acbd
00000210: 4a90 1a3c 224d 2c3e d057 81bd 7996 2f3e
00000220: 29d3 1f3d c836 0bbc 6ba7 aa3d 424b 6e3d
00000230: ea25 00be f4f2 43bd ebcd 0cbe a778 dd3c
00000240: 81b4 503e 43d3 c3bd d82c 9b3d e9e8 823d
00000250: ccae c8bc a058 2cbe 7b5c 2abe f172 9abc
00000260: ddc7 da3d 34cd 313e a44b adbb a74e 63be
00000270: f1b1 ddbc 2035 3e3e 7cf5 37be 7c4d 0cbe
00000280: 9570 353e dbbd 80be 05aa c73d 3b6e 29be
00000290: 0a0f a73c 58c7 8abc 60a7 8f3d c65d 2e3d
000002a0: a1db d9bc a0e0 d83d 0220 f13d 4d65 803d
000002b0: 0231 0d3e 7fad eb3d 4781 313e 0259 043e
000002c0: 6ff8 f1bc a4e6 07be 6f35 aa3c 17f2 96bd
000002d0: ebba 1a3e 312b 643e b547 ab3c c275 f43d
000002e0: 9ea6 c9bd 4d6f 403d 2a9b 0f3e fd87 22be
000002f0: 4927 ab3d c669 8abd ff63 b4bd d8ec 20be
00000300: efe0 ddbc b41c 643d 5bf1 a9bd e901 a2bc
00000310: eb72 063e ee34 db3d c24b 2bbc f8f3 28bd
00000320: d0d2 ea3d 3310 843d fefc 77bd 1fd4 47be
00000330: 6f39 a9bc 87d4 32be bb09 933d b3df 333c
00000340: 90b2 81bd 9f0c bb3d 4580 673c 5268 a2bd
00000350: 026c cf3b 72eb 5abd 4022 56bd 141a 233e
00000360: 8c35 373d cfe3 a6bd d0d9 92bc 7ee7 adbd
00000370: ffe7 073d 12e1 d0bd 76fb 003e 29fa a6bc
00000380: f912 15be 06fc 033e 34d0 a93c ece0 023d
00000390: 259b 823d 95ae 783d 25c5 01be 6f13 fd3d
000003a0: 68f8 f83d 880b cd3d e4b3 2c3e 04ea 013e
000003b0: fe81 9cbc 87ce 93bd 762a db3d 82a2 bc3c
000003c0: 5e27 b43d 4868 d73d 9a0d c93d 3b95 3d3c
000003d0: fe96 9d3d 7117 153e d673 b7bd 6337 aa3d
000003e0: ce4d 15be c4f9 c13d 5433 49be 0eb4 61be
000003f0: c07e 8ebd a8b1 3fbe f10b d93d 6573 c73d

enc_4.1.bias f4 [16]
-0.17142789 0.018566767 -0.14375678 0.067107655 -0.22808148 -0.096323974 -0.106471755 -0.19988926
-0.21472327 -0.018525884 -0.10291013 -0.02314304 -0.28313193 0.03348396 0.038452126 -0.014413076
00000000: cb8a 2fbe 5519 983c fa34 13be bd6f 893d
00000010: 318e 69be 8145 c5bd dd0d dabd c5af 4cbe
00000020: 6be0 5bbe 98c3 97bc 8cc2 d2bd 7996 bdbc
00000030: abf6 90be 7a26 093d fa7f 1d3d d324 6cbc

enc_4.2.weight f4 [16, 16, 3, 3]
0.0629161 0.13246773 0.043718092 -0.058115534 0.043791957 -0.015251139 -0.027106859 -0.02971085
-0.0661131 -0.050349824 0.059406225 0.15190755 -0.02418226 -0.13830331 0.066964634 0.017214606
-0.060121663 0.030068794 -0.030879913 -0.08242235 -0.08426471 0.0659025 0.03282133 -0.051583756
0.0423465 0.0391823 -0.0035156063 -0.044283 -0.010139453 -0.023712402 0.0219261 0.013421908
-0.03201988 -0.07606986 -0.01366922 -0.06435943 -0.012539553 0.14826243 0.058965158 -0.02955349
0.031237973 0.037808437 0.010761337 -0.03636422 -0.013993733 -0.012205777 -0.055367734 -0.022677746
-0.055487707 0.06000728 0.020832893 0.0009385334 -0.111139454 -0.14853732 -0.01998429 0.055064257
0.108091764 0.07655928 0.010753304 0.07060198 -0.0025385749 -0.08651758 -0.044704646 0.062006336
0.04553618 0.004520307 -0.022575723 -0.0022205752 -0.061421268 -0.040792543 -0.017746726 -0.079845846
0.0370993 0.006619187 -0.03556022 0.106599316 0.018201932 -0.031826813 -0.0033433465 0.059625324
0.053506307 0.08905738 0.15495981 -0.05017467 0.040846866 0.0040496583 -0.14821714 -0.052455444
0.084778756 -0.11715197 0.0733277 -0.06663652 -0.0020161439 0.061886624 -0.008186294 -0.055305663
0.0016526196 0.07249447 -0.006975841 -0.001103436 -0.00035833236 -0.009213686 -0.032587003 -0.014775156
-0.01930998 -0.030916262 0.07871332 0.081752256 -0.0057294434 -0.04865639 0.008854783 -0.07620274
0.036646046 -0.11705255 0.023503862 0.07837879 -0.00611893 -0.030917509 -0.09322833 0.052845642
-0.02477423 -0.052215174 -0.034144875 -0.072864555 -0.05342751 -0.06497909 0.08884229 0.039332837
0.045467004 0.11376582 0.11773408 0.036221504 0.030306749 0.09907122 0.110267 0.029107029
0.032292586 -0.0015090454 -0.03182981 0.032280643 0.029771525 0.022386935 0.08898202 -0.05136729
-0.017236514 -0.012092952 0.075394005 0.0025442662 0.053930275 -0.011148386 -0.0952665 -0.036040723
-0.114289664 0.052722335 0.11335936 0.08740694 -0.12577912 -0.10014304 0.03734225 -0.037362687
-0.013425084 0.0076716337 -0.035514556 -0.058516093 -0.07317795 0.016232463 0.07464478 -0.035218846
0.07454576 -0.042982753 -0.06927973 0.018592045 0.027775992 -0.08322554 -0.043366693 -0.0036709765
-0.115059406 -0.11636598 -0.033119414 -0.047848217 0.00053981645 0.014780291 0.056702178 -0.039539307
-0.020032939 0.09039876 -0.07432644 -0.039369892 0.12213624 -0.07055699 -0.051782783 -0.008498959
0.007201479 0.061135314 0.0075633368 -0.04562854 0.09388605 -0.06692367 0.022738695 0.0007590058
0.0087211775 0.07576097 -0.004272579 0.057295807 -0.05341573 -0.0114726145 0.008366891 0.0067334753
0.018139865 0.08511409 -0.06296367 0.03838414 -0.029481338 -0.01825032 -0.028221037 0.039699562
0.0025825624 -0.022599451 -0.07058387 0.05457772 0.08905733 -0.025837649 0.051897194 0.041069362
-0.044616204 -0.02401839 0.015537831 -0.071326 0.0018101622 0.032157086 -0.04749147 0.002729858
-0.057047874 -0.1224873 0.031266965 0.012665677 0.022073394 0.0181189 0.07116872 0.01019565
-0.070587166 0.028227698 0.04888435 -0.0537721 0.05093436 0.021274814 0.06888518 -0.06192796
-0.10564046 0.04977413 -0.0017403819 0.043622874 0.13294236 0.14916384 -0.0010586872 -0.037445184
00000000: 28da 803d 9fa5 073e be11 333d 8e0a 6ebd
00000010: 325f 333d eadf 79bc 340f debc 2b64 f3bc
00000020: 4e66 87bd 9e3b 4ebd f153 733d a78d 1b3e
00000030: e019 c6bc 629f 0dbe c124 893d a505 8d3c
00000040: 2242 76bd d552 f63c dff7 fcbc 0dcd a8bd
00000050: fa92 acbd e4f7 863d a96f 063d 7d49 53bd
00000060: 8673 2d3d 9f7d 203d 1666 66bb 1762 35bd
00000070: f31f 26bc 8340 c2bc 5d9e b33c 90e7 5b3c
00000080: 4727 03bd 84ca 9bbd ddf4 5fbc e0ce 83bd
00000090: b372 4dbc 1bd2 173e 7385 713d 291a f2bc
000000a0: c7e6 ff3c 05dd 1a3d 5250 303c a6f2 14bd
000000b0: f845 65bc bdfa 47bc 47c9 62bd aec6 b9bc
000000c0: 1447 63bd 32ca 753d bea9 aa3c e907 763a
000000d0: 159d e3bd 2b1a 18be 18b6 a3bc 0f8b 613d
000000e0: 375f dd3d 1dcb 9c3d a02e 303c c597 903d
000000f0: 385e 26bb 2130 b1bd 381c 37bd 5bfa 7d3d
00000100: 2584 3a3d 151f 943b b9f0 b8bc 1287 11bb
00000110: de94 7bbd 1516 27bd 9561 91bc 3886 a3bd
00000120: 70f5 173d c4e5 d83b 98a7 11bd be50 da3d
00000130: 381c 953c d55c 02bd 0c1c 5bbb af39 743d
00000140: 6e29 5b3d b763 b63d c9ad 1e3e f483 4dbd
00000150: 0b4f 273d ffb2 843b 3cc6 17be 85db 56bd
00000160: 7ca0 ad3d 5fed efbd d52c 963d ba78 88bd
00000170: 4821 04bb d47c 7d3d ce1f 06bc 3188 62bd
00000180: b69c d83a fb77 943d 9895 e4bb 2ba1 90ba
00000190: 8ede bbb9 00f5 16bc f379 05bd 7f13 72bc
000001a0: f72f 9ebc 1a44 fdbc 7334 a13d ba6d a73d
000001b0: 0ebe bbbb ec4b 47bd a713 113c 2f10 9cbd
000001c0: 2a1a 163d 3fb9 efbd 2c8b c03c 0f85 a03d
000001d0: 4e81 c8bb b746 fdbc 7fee bebd ac74 583d
000001e0: 53f3 cabc 94df 55bd 7fdb 0bbd 033a 95bd
000001f0: ced6 5abd c213 85bd f2f2 b53d 781b 213d
00000200: 9c3b 3a3d 0efe e83d 911e f13d 005d 143d
00000210: dc45 f83c dae5 ca3d aad3 e13d dd71 ee3c
00000220: 3b45 043d 29cb c5ba fa5f 02bd b538 043d
00000230: 6ae3 f33c ce64 b73c 353c b63d 8266 52bd
00000240: 9733 8dbc 8421 46bc 2c68 9a3d b4bd 263b
00000250: fee5 5c3d b8a7 36bc 151b c3bd 709f 13bd
00000260: b310 eabd 60f3 573d f428 e83d 6902 b33d
00000270: 3ecc 00be cb17 cdbd 30f4 183d 9e09 19bd
00000280: e2f4 5bbc 5462 fb3b b677 11bd 92ae 6fbd
00000290: 52de 95bd f1f9 843c 5ddf 983d a341 10bd
000002a0: 73ab 983d af0e 30bd 88e2 8dbd 584e 983c
000002b0: 7a8a e33c 2772 aabd 46a1 31bd c494 70bb
000002c0: 44a4 ebbd 4951 eebd 39a8 07bd 7efc 43bd
000002d0: 7882 0d3a 0929 723c 8b40 683d f8f3 21bd
000002e0: 1e1c a4bc fc22 b93d 7638 98bd 5342 21bd
000002f0: 9122 fa3d 2f80 90bd 2f1a 54bd 383f 0bbc
00000300: 62fa eb3b 0669 7a3d ded5 f73b fee4 3abd
00000310: 5447 c03d 470f 89bd 8046 ba3c 04f8 463a
00000320: 45e3 0e3c 9128 9b3d fe00 8cbb 02af 6a3d
00000330: 74ca 5abd a2f7 3bbc 4915 093c 7ca4 dc3b
00000340: 0e9a 943c 4c50 ae3d 19f3 80bd b038 1d3d
00000350: d982 f1bc b281 95bc ce2f e7bc 029c 223d
00000360: 3540 293b 7c22 b9bc 478e 90bd e38c 5f3d
00000370: b063 b63d 7aa9 d3bc 2792 543d 5938 283d
00000380: 7bbf 36bd 37c2 c4bc 6392 7e3c 5e13 92bd
00000390: f742 ed3a 26b7 033d 6a86 42bd 6be7 323b
000003a0: 08ab 69bd 9fda fabd ca11 003d b383 4f3c
000003b0: 43d3 b43c 166e 943c e8c0 913d a80b 273c
000003c0: 0190 90bd c63d e73c f53a 483d 2240 5cbd
000003d0: 8ca0 503d 8548 ae3c ac13 8d3d 2ca8 7dbd
000003e0: 075a d8bd f5df 4b3d 871d e4ba e6ad 323d
000003f0: 0b22 083e 68be 183e a6c3 8aba 1f60 19bd

enc_4.2.bias f4 [16]
-0.1836953 -0.14288048 0.033485863 -0.1065567 -0.059223723 -0.13641706 -0.057089828 -0.23359178
-0.035375316 -0.03264851 0.11796602 -0.1624946 0.030746281 -0.11356751 -0.02949751 -0.094503656
00000000: 9f1a 3cbe 434f 12be 7928 093d 663a dabd
00000010: 9394 72bd eab0 0bbe 06d7 69bd af32 6fbe
00000020: b5e5 10bd 72ba 05bd 2b98 f13d fc64 26be
00000030: a0df fb3c 1596 e8bd c3a4 f1bc 228b c1bd

enc_5.1.weight f4 [32, 16, 3, 3]
-0.04997025 -0.09656264 0.0040657897 0.032056108 -0.05289066 0.028061327 0.026580278 -0.0062844753
-0.089912966 0.052541897 0.07655234 0.0035872962 -0.097194485 0.056342747 -0.063909896 0.004215216
0.08388491 0.023922192 0.08512609 0.060175397 0.067569375 -0.032353442 0.018948264 0.12037203
-0.06893941 0.09433502 -0.006939708 0.023237167 0.0797359 -0.009563173 0.008110114 0.025208898
0.107120566 0.06954376 -0.04803295 -0.003415584 -0.0044743842 0.08287385 0.0662415 -0.098968506
-0.043389156 -0.094902396 -0.011314567 -0.00255773 -0.024524843 0.060819943 0.08678207 0.07107821
-0.03941684 -0.06589919 -0.032528475 -0.015349868 -0.09043158 -0.08058847 0.0021727863 -0.048351794
0.062876225 -0.111747876 0.04919557 -0.07835576 -0.0022875639 -0.06578593 -0.07348188 0.08352677
-0.083965085 -0.08042751 0.017367592 -0.031926706 -0.05378991 -0.07214802 -0.05991987 -0.036171805
0.045637675 0.013742134 -0.032471173 -0.049829233 -0.047680855 -0.0016703472 -0.115863875 -0.053702995
-0.07874486 -0.017690688 0.017577741 0.037495065 -0.086487144 -0.029952556 -0.030941064 0.00075325277
0.035998147 0.093415946 0.00656182 0.0062565454 0.07883444 -0.020668438 0.05134492 0.09582216
0.052545987 -0.0009277029 -0.068402834 -0.0011140077 -0.07925697 -0.041233953 -0.02865689 0.005723321
-0.06484896 -0.049227316 0.0048152045 0.071757175 0.02774122 0.02246387 -0.0033004049 -0.03225761
0.11791808 0.06724387 -0.06301721 -0.04220442 -0.0030583413 -0.04877538 0.02773087 -0.10476115
-0.11699214 -0.04931966 -0.06184153 0.06164157 0.0758143 0.07806915 0.062190678 -0.0018817966
0.033356894 0.07875115 -0.016629305 -0.052501902 0.047510054 0.0811632 -0.02070438 -0.0027042152
-0.04955396 -0.050692134 0.022457544 0.058047477 -0.027559087 -0.054068018 0.08970949 -0.017366761
-0.10127195 -0.1220539 -0.0933296 -0.030416004 0.0042827763 -0.122193515 -0.0037523129 0.012220526
-0.04093071 0.05916626 -0.015543367 0.04533199 0.045325812 -0.038328707 -0.045021623 0.01837605
-0.023885546 -0.057310924 -0.060291022 0.0023749166 0.036340527 -0.0450724 0.078398116 0.057971973
0.047806878 0.071362056 0.04885904 -0.07471534 0.03786011 -0.022226334 0.03292604 0.08870911
0.049156707 0.014616581 0.044349913 -0.0050301687 -0.018632438 -0.042124238 0.008094999 -0.084223725
-0.04839024 0.027454056 -0.05147353 -0.021247167 -0.0019351145 -0.007818763 -0.013062405 -0.011282923
-0.12225195 -0.039547954 -0.08366846 0.04093995 0.022602577 -0.10079928 -0.107620336 -0.028532583
-0.012820888 -0.014800208 0.02059552 -0.037637953 0.022226755 -0.0064266417 -0.0041921954 -0.005926176
-0.07156667 -0.08426736 -0.06275242 -0.08150545 -0.13092104 -0.108016655 0.018814674 -0.118793175
-0.11366395 -0.039878294 -0.0342591 0.019840483 -0.07342238 -0.06394946 -0.03450678 -0.04303006
0.013593074 -0.0029189307 -0.05783897 -0.062192958 -0.044988304 -0.0042393026 0.03464355 0.0015523317
-0.04499023 0.02750538 0.08579535 0.030351916 -0.010952159 0.026945513 0.008633008 0.023965603
0.057817746 -0.056900788 -0.02867575 -0.083293766 -0.081264876 -0.11150364 -0.017881107 0.035241358
-0.025005225 0.031041522 0.018172808 -0.07911377 0.033084337 0.028836189 -0.05194477 0.057508733
00000000: 9bad 4cbd a2c2 c5bd 513a 853b 444d 033d
00000010: e0a3 58bd dee0 e53c e2be d93c 00ee cdbb
00000020: 4a24 b8bd 2c36 573d 79c7 9c3d d818 6b3b
00000030: e70d c7bd a7c7 663d 31e3 82bd cb1f 8a3b
00000040: dacb ab3d 79f8 c33c 9656 ae3d 7a7a 763d
00000050: d061 8a3d 0b85 04bd 6439 9b3c 9c85 f63d
00000060: 1b30 8dbd b832 c13d 7d66 e3bb df5b be3c
00000070: 934c a33d dbae 1cbc 49e0 043c e482 ce3c
00000080: 0762 db3d f56c 8e3d 33be 44bd fed7 5fbb
00000090: db9d 92bb c4b9 a93d a0a9 873d 00b0 cabd
000000a0: d4b8 31bd 305c c2bd bc60 39bc 979f 27bb
000000b0: 53e8 c8bc 551e 793d ccba b13d 7491 913d
000000c0: 8d73 21bd 28f6 86bd 943c 05bd 037e 7bbc
000000d0: 3134 b9bd 910b a5bd 4e65 0e3b 880c 46bd
000000e0: 40c5 803d 12dc e4bd 4b81 493d fc78 a0bd
000000f0: f4ea 15bb c6ba 86bd ab7d 96bd 1510 ab3d
00000100: e3f5 abbd 2eb7 a4bd 7b46 8e3c 94c5 02bd
00000110: cf52 5cbd 57c2 93bd 8a6e 75bd e328 14bd
00000120: 92ee 3a3d b026 613c 7e00 05bd bd19 4cbd
00000130: 004d 43bd 8def daba 0a4a edbd acf7 5bbd
00000140: fc44 a1bd 10ec 90bc 32ff 8f3c 6d94 193d
00000150: 2c20 b1bd 105f f5bc 1d78 fdbc f075 453a
00000160: cb72 133d dc50 bf3d 8904 d73b b503 cd3b
00000170: f373 a13d db50 a9bc 0d4f 523d 693e c43d
00000180: 763a 573d 1631 73ba c916 8cbd e503 92ba
00000190: 7a51 a2bd efe4 28bd dbc1 eabc b28a bb3b
000001a0: 88cf 84bd 95a2 49bd ddc8 9d3b 6df5 923d
000001b0: 8e41 e33c 2606 b83c 9b4b 58bb 8e20 04bd
000001c0: 097f f13d 27b7 893d 2b0f 81bd 8bde 2cbd
000001d0: 746e 48bb b1c8 47bd d92b e33c 048d d6bd
000001e0: 9399 efbd 6903 4abd 8b4d 7dbd df7b 7c3d
000001f0: 8744 9b3d b8e2 9f3d a7bb 7e3d 9ea6 f6ba
00000200: 3da1 083d 4848 a13d 2e3a 88bc 3c0c 57bd
00000210: e799 423d e438 a63d 3b9c a9bc 3439 31bb
00000220: 18f9 4abd 8ea2 4fbd e2f8 b73c 31c3 6d3d
00000230: 98c3 e1bc 6d76 5dbd 9cb9 b73d bd44 8ebc
00000240: ab67 cfbd 65f7 f9bd 9723 bfbd fc2a f9bc
00000250: 8856 8c3b 9840 fabd 5de9 75bb 9a38 483c
00000260: f6a6 27bd 5258 723d 9ba9 7ebc 09ae 393d
00000270: 8fa7 393d 90fe 1cbd 9868 38bd 5f89 963c
00000280: 9fab c3bc dcbe 6abd b8f3 76bd 7da4 1b3b
00000290: ced9 143d d69d 38bd 318f a03d 0574 6d3d
000002a0: 25d1 433d 4526 923d 6b20 483d 5b04 99bd
000002b0: 3413 1b3d 0014 b6bc 75dd 063d 1fad b53d
000002c0: 8b58 493d 627a 6f3c 41a8 353d 1dd4 a4bb
000002d0: 0ea3 98bc 778a 2cbd e3a0 043c 7d7d acbd
000002e0: d834 46bd 54e7 e03c e8d5 52bd 8a0e aebc
000002f0: aba3 fdba 451a 00bc b303 56bc 02dc 38bc
00000300: 3b5f fabd 09fd 21bd 5f5a abbd a6b0 273d
00000310: 0a29 b93c da6f cebd 0d68 dcbd 2abd e9bc
00000320: b40e 52bc 927c 72bc f0b7 a83c 412a 1abd
00000330: e214 b63c 9496 d2bb af5e 89bb 5e30 c2bb
00000340: 8c91 92bd 5e94 acbd 5784 80bd 54ec a6bd
00000350: 2a10 06be d637 ddbd 3b21 9a3c d649 f3bd
00000360: a5c8 e8bd 6c57 23bd 4553 0cbd 8288 a23c
00000370: 795e 96bd eff7 82bd fb56 0dbd 4a40 30bd
00000380: 7cb5 5e3c 884b 3fbb 8ee8 6cbd 0bbe 7ebd
00000390: a845 38bd d9e9 8abb 65e6 0d3d 9c77 cb3a
000003a0: ad47 38bd f652 e13c 79b5 af3d 95a4 f83c
000003b0: af70 33bc d6bc dc3c 7671 0d3c 8353 c43c
000003c0: 4dd2 6c3d cd10 69bd 68e9 eabc ec95 aabd
000003d0: 336e a6bd 055c e4bd 667b 92bc 3e59 103d
000003e0: c2d7 ccbc ca4a fe3c 24df 943c 6606 a2bd
000003f0: 7183 073d df39 ec3c 0ac4 54bd 478e 6b3d

enc_5.1.bias f4 [32]
0.15751562 -0.008671063 0.05235459 -0.08277008 -0.08876189 -0.18934767 0.048002142 -0.099244624
-0.0036092128 -0.035423547 0.06815498 0.107394375 -0.1358353 -0.109483 0.02439908 0.024639692
0.07500331 -0.022740327 0.17072569 0.062347516 -0.09781264 -0.123559386 0.064546645 -0.17798255
-0.20240079 0.109271914 -0.070749134 -0.09002473 0.024551757 0.16972755 -0.004284484 0.06570192
00000000: c64b 213e 1311 0ebc c471 563d 5c83 a9bd
00000010: cbc8 b5bd 5be4 41be e59d 443d c440 cbbd
00000020: 8b88 6cbb 4818 11bd d794 8b3d 95f1 db3d
00000030: 6918 0bbe a038 e0bd 94e0 c73c 2ed9 c93c
00000040: 569b 993d ec49 babc b7d2 2e3e 1c60 7f3d
00000050: fe51 c8bd b40c fdbd 0831 843d 0f41 36be
00000060: 2742 4fbe f4c9 df3d ece4 90bd e35e b8bd
00000070: c420 c93c 0fcd 2d3e db64 8cbb ba8e 863d

enc_5.2.weight f4 [32, 32, 3, 3]
0.011704513 -0.042892933 0.059089772 0.068611965 -0.034107838 0.03626636 -0.018019134 -0.012514086
0.030865015 0.044565096 0.06933138 -0.06254512 0.05970951 -0.045315832 0.009395086 0.021771345
-0.022533732 -0.01453749 0.10213218 0.015239468 0.023434117 -0.012941154 0.044418544 -0.048748665
-0.028607327 0.0020979883 0.009351702 0.034137767 0.038774263 -0.04772487 -0.058196068 0.09118958
0.0047116703 0.011265655 0.11698278 0.053709395 0.031207656 0.05029775 -0.09216487 -0.035265826
0.032479532 0.047129303 -0.030183854 0.067634255 0.037959583 -0.072400466 -0.0302451 0.061143298
0.008362743 -0.031598095 0.0139463255 -0.03824384 0.031167297 -0.020761032 -0.08578328 -0.015806947
-0.07109947 -0.015930833 -0.011193013 0.016408527 -0.09235338 -0.02901359 0.047799736 -0.018463498
0.05541044 0.077065185 0.057035327 -0.03718764 0.067584634 0.043176483 -0.03672682 -0.05956638
-0.054881062 0.013713611 -0.0353981 -0.003219788 -0.008272611 -0.05684959 -0.11289274 -0.027825728
-0.055279482 -0.017438184 0.0061495397 0.03461819 -0.035216916 0.00074955384 0.023569679 0.047627706
-0.014578863 0.055829152 -0.006507505 -0.008794747 -0.07479464 0.026181238 -0.041833133 0.11519612
-0.0922551 0.06644937 -0.07783193 0.0009030642 0.020185186 0.06844338 0.040245377 0.04061498
-0.030762354 -0.008569819 -0.078993075 -0.047827236 0.09113036 -0.088636175 0.018752627 0.058291912
-0.0028446703 0.07465228 0.072865404 -0.038399767 -0.02824406 -0.033395596 0.026668476 0.040827885
-0.082194686 0.067440815 0.052182615 0.028534569 -0.11361394 -0.03623307 0.012773266 -0.05233098
-0.029798387 0.030488433 0.047753923 0.0015044168 0.048082985 0.03312799 -0.02765919 -0.06042589
0.030019632 -0.055723026 0.008868819 -0.04453152 -0.044815406 0.03892393 0.031928614 0.047520775
0.09185329 0.032687146 -0.011737204 0.042324793 -0.041508105 -0.115109995 -0.022568023 -0.0808154
0.048509702 -0.036364544 0.09498162 -0.07391825 -0.05178416 0.039277587 -0.038723044 -0.031237671
0.025309667 0.08655866 0.021789493 -0.038795527 0.008251262 0.0026237974 -0.0099144615 -0.094930276
-0.009506928 0.060866985 -0.059123445 0.07024947 0.08177042 0.111983374 -0.1405002 -0.08356298
-0.046778522 -0.08860109 -0.023515465 0.037174463 -0.0071988595 -0.0041602375 0.09129153 -0.060160797
0.06674096 0.0674705 -0.06258518 0.0070541734 0.034738205 0.09079126 0.0474714 -0.035340667
0.010342132 -0.06203281 -0.00070020027 -0.032392442 0.04115784 0.07411821 -0.023933584 -0.0098826
-0.0514895 -0.03762755 -0.05027082 0.008078434 -0.059122086 -0.028400997 0.04990118 -0.040782236
-0.02413853 -0.0019732881 -0.118361585 -0.08896687 -0.053742815 -0.009599602 0.0019511426 0.012390835
-0.04752834 0.042559244 0.059024446 0.06694208 0.023016823 -0.05805599 0.0376832 -0.023409681
0.050074097 0.022340339 0.059530187 0.091973886 0.031229049 0.046631068 -0.0551761 0.0025432054
0.05894764 -0.10438442 0.026909467 0.10414873 0.00820427 -0.016868232 -0.025871627 0.040190622
-0.031246826 -0.00077051565 0.026689243 0.022626042 0.055503767 -0.029553501 0.07261737 0.0052521317
-0.11110339 -0.021475526 -0.032420162 0.016419 -0.005670704 -0.00459152 -0.12627633 0.047412094
00000000: 49c4 3f3c 80b0 2fbd 1e08 723d 6e84 8c3d
00000010: a9b4 0bbd 098c 143d dd9c 93bc e207 4dbc
00000020: a1d8 fc3c e489 363d 9cfd 8d3d a817 80bd
00000030: f691 743d 189d 39bd d9ed 193c d259 b23c
00000040: a998 b8bc a72e 6ebc ad2a d13d f6ae 793c
00000050: e8f8 bf3c 2207 54bc 38f0 353d aeac 47bd
00000060: ea59 eabc 677e 093b e237 193c 0bd4 0b3d
00000070: c3d1 1e3d 277b 43bd 005f 6ebd 9ac1 ba3d
00000080: 5b64 9a3b 9593 383c ab94 ef3d 62fe 5b3d
00000090: 33a7 ff3c 0305 4e3d efc0 bcbd e672 10bd
000000a0: 4209 053d a80a 413d 2144 f7bc d483 8a3d
000000b0: 827b 1b3d b246 94bd 92c4 f7bc 6571 7a3d
000000c0: e303 093c 016d 01bd 217f 643c 93a5 1cbd
000000d0: 8f52 ff3c 0a13 aabc 25af afbd 927d 81bc
000000e0: 999c 91bd 6181 82bc e662 37bc 2d6b 863c
000000f0: c523 bdbd e9ad edbc a8c9 433d c340 97bc
00000100: 0ff6 623d 5ad4 9d3d e09d 693d 1152 18bd
00000110: d069 8a3d d3d9 303d dd6e 16bd e0fb 73bd
00000120: f7ca 60bd 0eaf 603c 99fd 10bd 1403 53bb
00000130: d889 07bc 1edb 68bd 4f34 e7bd c8f2 e3bc
00000140: bd6c 62bd 86da 8ebc 1482 c93b cecb 0d3d
00000150: 9d3f 10bd b57d 443a 3315 c13c 4515 433d
00000160: 2fdc 6ebc 1cad 643d e93c d5bb d817 10bc
00000170: ef2d 99bd 097a d63c 3859 2bbd f2eb eb3d
00000180: 3ef0 bcbd 9b16 883d 5966 9fbd 9dbb 6c3a
00000190: 675b a53c 0b2c 8c3d 56d8 243d e55b 263d
000001a0: 5501 fcbc 6d68 0cbc 1fc7 a1bd 7ee6 43bd
000001b0: 8ea2 ba3d e286 b5bd 1c9f 993c 80c3 6e3d
000001c0: a66d 3abb 4be3 983d 753a 953d 1349 1dbd
000001d0: 1660 e7bc d2c9 08bd d977 da3c 243b 273d
000001e0: b055 a8bd 691e 8a3d 70bd 553d 54c1 e93c
000001f0: 6dae e8bd 2169 14bd f646 513c 0259 56bd
00000200: bf1b f4bc e1c2 f93c 9e99 433d da2f c53a
00000210: aaf2 443d 37b1 073d 8795 e2bc 2381 77bd
00000220: bbeb f53c d43d 64bd 864e 113c af66 36bd
00000230: 5c90 37bd b36e 1f3d 94c7 023d 25a5 423d
00000240: 941d bc3d f5e2 053d 674d 40bc c35c 2d3d
00000250: 6704 2abd cabe ebbd 93e0 b8bc 8b82 a5bd
00000260: 1cb2 463d fdf2 14bd b985 c23d 7462 97bd
00000270: a11b 54bd 89e1 203d 0e9c 1ebd 25e6 ffbc
00000280: 3856 cf3c ab45 b13d e17f b23c 0fe8 1ebd
00000290: 4d30 073c 04f4 2b3b 4470 22bc ce6a c2bd
000002a0: f2c2 1bbc a94f 793d 6d2b 72bd f4de 8f3d
000002b0: 4077 a73d 8a57 e53d 49df 0fbe 1123 abbd
000002c0: d69a 3fbd 7d74 b5bd 81a3 c0bc 4044 183d
000002d0: 69e4 ebbb 9a52 88bb 0ef7 ba3d 2b6b 76bd
000002e0: 7caf 883d f92d 8a3d a92c 80bd b226 e73b
000002f0: a649 0e3d c5f0 b93d 5f71 423d 60c1 10bd
00000300: 0c72 293c 1e16 7ebd a58d 37ba f0ad 04bd
00000310: 2095 283d 4acb 973d 5d10 c4bc a1ea 21bc
00000320: a7e6 52bd 591f 1abd c6e8 4dbd 685b 043c
00000330: 002a 72bd 35a9 e8bc 2e65 4c3d 460b 27bd
00000340: 2bbe c5bc 4852 01bb 8f67 f2bd 4334 b6bd
00000350: 6d21 5cbd a647 1dbc 7bbd ff3a ee02 4b3c
00000360: 14ad 42bd 9a52 2e3d 9ec3 713d ee18 893d
00000370: c78d bc3c 1ecc 6dbd b359 1a3d a9c5 bfbc
00000380: 7f1a 4d3d 1603 b73c edd5 733d ce5c bc3d
00000390: 10d4 ff3c 3800 3f3d 5600 62bd e8ab 263b
000003a0: 1573 713d 80c7 d5bd 3e71 dc3c ee4b d53d
000003b0: 346b 063c 3f2f 8abc bcf0 d3bc ec9e 243d
000003c0: 58f9 ffbc 6efc 49ba 66a3 da3c 405a b93c
000003d0: eb57 633d 2f1a f2bc 6ab8 943d 131a ac3b
000003e0: 2d8a e3bd 71ed afbc 01cb 04bd 2481 863c
000003f0: 50d1 b9bb 7674 96bb 954e 01be 2f33 423d

enc_5.2.bias f4 [32]
-0.18793212 0.1837198 0.10553034 -0.07196917 -0.03783396 -0.16095537 -0.041902073 -0.034529112
-0.19036162 0.12210843 0.07107492 -0.07198157 0.0028280476 0.013613791 -0.119963236 0.06151123
-0.00051134644 0.07849328 -0.15523206 0.073764086 -0.08100288 -0.04442186 0.056597773 -0.01327036
-0.14834958 0.15598367 0.061504636 -0.061583705 -0.017131884 -0.13593985 -0.22733076 -0.15304258
00000000: 4771 40be 0b21 3c3e 4a20 d83d 9264 93bd
00000010: c8f7 1abd 7cd1 24be 82a1 2bbd 666e 0dbd
00000020: 28ee 42be fc13 fa3d ba8f 913d 136b 93bd
00000030: c456 393b 610c 5f3c 49af f5bd 33f3 7b3d
00000040: e10b 06ba 16c1 a03d 27f5 1ebe a011 973d
00000050: d7e4 a5bd b2f3 35bd 11d3 673d ed6b 59bc
00000060: f4e8 17be 2fba 1f3e 49ec 7b3d 323f 7cbd
00000070: 2a58 8cbc d133 0bbe 65c9 68be 32b7 1cbe

enc_6.1.weight f4 [64, 32, 3, 3]
0.018034438 0.009844681 0.024459977 0.011747692 -0.006797114 0.018884558 0.028853953 0.06541764
0.0808464 -0.040666565 -0.029683573 -0.0037830186 -0.087463014 0.062662296 -0.063477725 -0.013889712
0.020252518 -0.07385215 0.019734897 -0.017621396 -0.034774132 0.028993256 -0.029766973 0.016032914
-0.08109314 -0.067336455 0.03176296 -0.0015315063 0.045615975 -0.007172133 -0.044583593 -0.017160729
0.0033840055 -0.012920195 0.064317234 0.042675097 0.008382257 -0.054059144 0.033059437 0.038320966
0.00955623 0.015671762 -0.0701992 -0.07163363 -0.032399707 -0.005286173 0.06799648 -0.0681142
-0.020383604 0.056317378 -0.06301187 0.01859715 -0.025975915 0.0013520811 -0.120323464 -0.017078433
0.017076004 -0.06561955 -0.018683234 0.013625202 -0.058674723 0.029927667 -0.009285316 -0.019228643
-0.002954703 -0.063592955 -0.024392743 -0.060856592 -0.016110089 0.0656247 0.007919665 0.0025349865
0.0071058325 -0.04079758 -0.029968616 -0.028217431 0.033814993 0.023865892 0.018510612 0.038778525
-0.036625117 -0.023497418 0.043365553 0.016762616 -0.015091577 -0.025533315 -0.032238573 0.0026793997
0.015645923 -0.056296714 0.057138056 0.0051779347 0.00074166054 0.012299185 0.007465851 0.019878788
0.03163602 -0.04702207 -0.052532047 -0.014282785 0.05231244 -0.08695058 -0.062383257 0.055523865
0.011184902 -0.018052299 0.019043166 0.084676474 0.09751202 0.0562944 -0.041926797 0.028210457
0.038752966 -0.09799667 0.060506057 0.008595852 0.025341798 -0.04526969 -0.011809376 0.02583145
-0.043100126 -0.104577534 0.044008933 0.028882008 -0.04081077 -0.06579841 0.024469243 0.048624903
-0.024307387 -0.016628059 -0.036559697 0.042025026 0.018020254 0.036376365 -0.0050393036 -0.034021553
-0.027702847 0.030663002 0.053968046 -0.005035713 0.02468409 0.11479755 -0.04980812 -0.00079273985
-0.045698 0.050857265 0.023714254 0.043315947 -0.015363271 -0.035089355 0.050756328 0.043221753
0.022873247 0.07116794 -0.05190411 -0.13750589 0.06939071 -0.01640163 -0.05908122 0.034505576
-0.0030636904 0.015744042 -0.0015026483 0.104343876 0.04730486 -0.04595317 0.01832188 -0.017970843
0.013309098 -0.016218454 0.053262632 0.0622434 -0.030821407 0.08386056 0.012579591 0.057345144
0.0875113 -0.06700872 -0.05856407 0.09922769 0.007929188 -0.04226831 0.01598571 -0.0044048443
-0.019019708 0.08215423 0.06494344 0.070272155 0.015587239 -0.043138042 0.009383492 -0.0917381
-0.040315546 -0.057883274 0.019844167 -0.009992811 -0.06866611 0.0795502 0.0034518773 0.029408244
0.047188744 0.026589172 0.031589106 -0.03555728 0.038798116 0.055434216 -0.033354618 -0.04995554
0.0042425664 0.018062167 -0.060029224 -0.0611842 0.050063122 0.012142382 -0.014026107 0.035697926
-0.0107807 -0.027529951 0.011059765 -0.08019813 -0.011567483 -0.044378575 -0.07123114 -0.0024724277
-0.05323718 -0.026002366 0.002965721 0.00810069 -0.022746563 0.05147916 0.0174253 0.0471356
-0.053121366 0.05599635 0.0014563409 0.039695017 -0.032590043 -0.055026967 -0.01573464 0.041932277
-0.05345284 -0.012612139 -0.015431469 0.051307715 -0.015162923 0.055426825 0.032398883 0.0048449407
-0.02510725 -0.0521226 -0.033588294 -0.023265334 0.083852805 -0.023993297 0.005746752 -0.06641353
00000000: f5bc 933c 964b 213c 4a60 c83c 6479 403c
00000010: 53ba debb cab3 9a3c 205f ec3c aff9 853d
00000020: cc92 a53d fc91 26bd f72a f3bc 85ec 77bb
00000030: cf1f b3bd 1755 803d 9c00 82bd ad91 63bc
00000040: 9ce8 a53c cc3f 97bd 14ab a13c bf5a 90bc
00000050: 526f 0ebd 4483 ed3c ded9 f3bc 7557 833c
00000060: 2914 a6bd b2e7 89bd e119 023d d3bc c8ba
00000070: d1d7 3a3d 3604 ebbb 499d 36bd a894 8cbc
00000080: 31c6 5d3b 3aaf 53bc c1b8 833d 15cc 2e3d
00000090: bc55 093c 1f6d 5dbd 5569 073d 72f6 1c3d
000000a0: bc91 1c3c 1162 803c 99c4 8fbd a7b4 92bd
000000b0: 8eb5 04bd a237 adbb bd41 8b3d 757f 8bbd
000000c0: 84fb a6bc 0dad 663d 5e0c 81bd 0d59 983c
000000d0: 71cb d4bc 5038 b13a 266c f6bd 12e8 8bbc
000000e0: fae2 8b3c 8b63 86bd 950d 99bc 3d3c 5f3c
000000f0: e854 70bd de2a f53c 7021 18bc 6385 9dbc
00000100: b1a3 41bb 063d 82bd 4ad3 c7bc c344 79bd
00000110: 4ef9 83bc 3e66 863d 7cc1 013c 0422 263b
00000120: 0bd8 e83b 5d1b 27bd be80 f5bc 3e28 e7bc
00000130: 9781 0a3d 6782 c33c 91a3 973c 3bd6 1e3d
00000140: 3804 16bd a87d c0bc 14a0 313d c151 893c
00000150: a942 77bc 3e2b d1bc 980c 04bd de98 2f3b
00000160: e12b 803c 6297 66bd 9809 6a3d aaab a93b
00000170: ff6b 423a 8582 493c 19a4 f43b d7d8 a23c
00000180: c594 013d 379a 40bd d82b 57bd 5802 6abc
00000190: 9245 563d 2513 b2bd 9685 7fbd fe6c 633d
000001a0: e140 373c 6ae2 93bc 6a00 9c3c dc6a ad3d
000001b0: 62b4 c73d f594 663d 6fbb 2bbd 9e19 e73c
000001c0: 6ebb 1e3d 7ab2 c8bd 33d5 773d 9ed5 0c3c
000001d0: 9a99 cf3c b66c 39bd 1d7c 41bc 7a9c d33c
000001e0: c289 30bd bf2c d6bd b642 343d f699 ec3c
000001f0: 3229 27bd 51c1 86bd b973 c83c e82a 473d
00000200: 4920 c7bc 9137 88bc 9fbf 15bd 6f22 2c3d
00000210: 369f 933c 62ff 143d be20 a5bb 2f5a 0bbd
00000220: 15f1 e2bc fa30 fb3c 990d 5d3d 9f02 a5bb
00000230: 4a36 ca3c fa1a eb3d 9903 4cbd dfcf 4fba
00000240: d32d 3bbd b54f 503d 6544 c23c 106c 313d
00000250: 3bb6 7bbc dbb9 0fbd dee5 4f3d 4b09 313d
00000260: ad60 bb3c 7fc0 913d 6799 54bd 58ce 0cbe
00000270: b71c 8e3d b65c 86bc 26ff 71bd b855 0d3d
00000280: 32c8 48bb a6f9 803c 83f4 c4ba 3eb2 d53d
00000290: bec2 413d 6439 3cbd c417 963c 9737 93bc
000002a0: 670e 5a3c 90dc 84bc eb29 5a3d eff2 7e3d
000002b0: 2d7d fcbc 16bf ab3d a11a 4e3c bee2 6a3d
000002c0: 2039 b33d de3b 89bd e1e0 6fbd e337 cb3d
000002d0: 6de9 013c 8921 2dbd 77f4 823c 8356 90bb
000002e0: 38cf 9bbc 7a40 a83d 1101 853d d9ea 8f3d
000002f0: 9e61 7f3c 84b1 30bd 38bd 193c 2fe1 bbbd
00000300: ea21 25bd 0317 6dbd 3c90 a23c e3b8 23bc
00000310: d1a0 8cbd 37eb a23d e438 623b 8fe9 f03c
00000320: fc48 413d 89d1 d93c 9463 013d 83a4 11bd
00000330: c6ea 1e3d fd0e 633d da9e 08bd 2e9e 4cbd
00000340: 3a05 8b3b 1cf7 933c 34e1 75bd 499c 7abd
00000350: fd0e 4d3d d7f0 463c c2cd 65bc fd37 123d
00000360: 88a1 30bc 7e86 e1bc 0434 353c eb3e a4bd
00000370: 8a85 3dbc 4fc6 35bd a2e1 91bd 7408 22bb
00000380: 3b0f 5abd ea02 d5bc 8b5c 423b c2b8 043c
00000390: 0057 babc d0db 523d 81bf 8e3c 4211 413d
000003a0: ca95 59bd 6e5c 653d b1e2 be3a 3e97 223d
000003b0: 237d 05bd f563 61bd efe5 80bc 2ec1 2b3d
000003c0: 5df1 5abd 25a3 4ebc 46d4 7cbc 0a28 523d
000003d0: e96d 78bc 3d07 633d b1b4 043d 4fc2 9e3b
000003e0: b8ad cdbc 827e 55bd e193 09bd f196 bebc
000003f0: 05bb ab3d 978d c4bc 404f bc3b d103 88bd

enc_6.1.bias f4 [64]
0.0880127 -0.1532369 0.16558002 -0.013632238 -0.021284921 -0.010990574 -0.029196097 0.014745774
0.04700639 0.0006041763 0.010527601 0.115724884 0.013413419 0.0045679496 0.079948366 0.07979591
-0.05113502 0.017690554 -0.025690248 -0.17222272 0.08065026 0.112601385 0.018579582 -0.019335382
-0.08521137 -0.01594695 -0.16806908 0.17796998 0.031062925 0.0659822 0.07223433 -0.12876877
0.013757116 0.15464565 0.10592457 0.08065911 0.14329332 -0.08661571 0.08139404 -0.15428904
0.050531425 -0.022546392 -0.19564962 -0.14447391 -0.030602364 -0.026695713 0.08910706 -0.1582915
0.0540258 -0.04336017 0.043367863 0.17894416 -0.009673119 0.11371229 -0.051849727 0.050978914
0.043406103 0.1576919 -0.03574565 -0.20047803 -0.16701263 0.06199848 0.15766455 -0.042508796
00000000: 0140 b43d 22ea 1cbe cf8d 293e c059 5fbc
00000010: b75d aebc cf11 34bc a72c efbc 4298 713c
00000020: c689 403d 9661 1e3a f67b 2c3c 2b01 ed3d
00000030: f5c3 5b3c bdae 953b f8bb a33d 0a6c a33d
00000040: f472 51bd c8eb 903c 5b74 d2bc 275b 30be
00000050: f72b a53d 8e9b e63d 3534 983c 3c65 9ebc
00000060: 4c83 aebd 2ea3 82bc 4d1a 2cbe c33d 363e
00000070: ad77 fe3c ad21 873d 98ef 933d f6db 03be
00000080: 8765 613c 6e5b 1e3e fbee d83d 9a30 a53d
00000090: 7cbb 123e 9463 b1bd ebb1 a63d f2fd 1dbe
000000a0: 0afa 4e3d 36b3 b8bc 6058 48be f8f0 13be
000000b0: cfb1 fabc f8b0 dabc c37d b63d 2b17 22be
000000c0: 284a 5d3d 6f9a 31bd 80a2 313d 233d 373e
000000d0: 007c 1ebc fde1 e83d 6160 54bd 44cf 503d
000000e0: 99ca 313d fc79 213e 086a 12bd 1d4a 4dbe
000000f0: 5c05 2bbe 1ef2 7d3d d172 213e b41d 2ebd
