reconstruction.pth (torch, 716370 bytes, 56 tensors)

enc_1.0.weight f4 [3, 3, 3, 3]
00000000: d683 9e3d a122 cebc 66e0 ba3d 2554 153c
00000010: cddc 163e bbe1 1f3d c5cc 2b3e fe79 313e
00000020: 7c3c a83b 5011 d8bc ca6e 053e 98e7 073e
00000030: 8987 9c3d 22b7 29bc 3ef9 ee3d eaee 83bd
00000040: f194 3d3e 4b2f f33d 5476 c2bc fb10 513c
00000050: ea1b 21be 58ca 60bd 4c96 313c 9562 a23d
00000060: 080f 5d3e 3872 f93d 78a1 bbbd 431c 6ebe
00000070: 8232 c13c 538a 68be 3d3d a63d 7336 1cbe
00000080: 43f6 cebd e566 3bbd 7495 c53d 0eda 3cbe
00000090: e769 f5bd cb3e acbd ca91 c1bd b657 cbbc
000000a0: 0613 393d 4276 89bd 49eb f8bd 9397 503e
000000b0: 721e eebd f272 f8bd d05c cfbd 71c2 723d
000000c0: 731b 9cbd bef5 a23d 1ece b03d df01 383e
000000d0: ffae f63d 0c8a 53be 435d 2d3d 719f 36be
000000e0: 7e66 f03c 4498 6e3d b580 973d e535 dc3d
000000f0: 09be 0dbe e100 31be 878d 2bbd f107 0abe
00000100: 72dd 423e f457 10be cec3 b7bd 9194 ef3c
00000110: ad84 b33c 20f1 753d 540f c53d 9f66 bc3d
00000120: 4137 823e 46fb a4bd 6a6c 8dbd f4d5 693e
00000130: 1f41 473d 8c7e dd3d fae4 1b3e 4a16 20be
00000140: 2950 053d
0.077399895 -0.025162997 0.09124832 0.0091143 0.14732666 0.039033633 0.16777332 0.17331693
0.0051341634 -0.026375443 0.13030544 0.1327194 0.07643039 -0.010358604 0.11668633 -0.064420536
0.18513848 0.11874255 -0.023738064 0.012760396 -0.15733305 -0.05488047 0.010839056 0.07928959
0.21587765 0.121799886 -0.09161657 -0.23252968 0.023583654 -0.22709017 0.08117149 -0.15255146
-0.101055644 -0.045752425 0.096476465 -0.18442556 -0.1198309 -0.08410414 -0.09451635 -0.024822097
0.045184158 -0.06712009 -0.12154252 0.20370321 -0.11626901 -0.12131299 -0.101251245 0.059267465
-0.07622423 0.07957028 0.08633064 0.17969464 0.120450966 -0.2065813 0.04232527 -0.1783426
0.029345747 0.05825068 0.07397596 0.10752467 -0.13842024 -0.17285492 -0.041883018 -0.13479592
0.19029787 -0.14096051 -0.08972894 0.029245647 0.02191385 0.060044408 0.09622064 0.09199261
0.2543278 -0.08055739 -0.06905444 0.22835523 0.04864609 0.108151525 0.15224066 -0.15633503
0.03254715

enc_1.0.bias f4 [3]
00000000: 5788 eebd f047 263d e447 813e
-0.116470985 0.04059595 0.2525016

enc_1.1.weight f4 [3, 3, 3, 3]
00000000: 2822 663d a2f2 c13d df09 00be 9ddf ffbb
00000010: 98bb 473d bc74 5ebb ef05 dabd c04b c83d
00000020: 832a 39be e04b 5f3e 587b 21bd 5267 11bd
00000030: 81d1 c63d 0a29 443e 63f8 233d d9d6 0abe
00000040: 37a9 383e 7662 59bd 91a8 81bd 43b0 a7bd
00000050: 1821 173e 7301 eb3d 91ff 653e 1635 623d
00000060: 6d69 fa3d 8182 213e 111e 323e c3e8 693c
00000070: a0c5 343d 5e14 e03d c986 353e 7250 993d
00000080: 52c6 423e 6c66 e0bb 07e8 62bd cff3 9d3d
00000090: 3b44 2fbe 2c6f 30bd 80fc 1e3e 2582 753d
000000a0: ef0b 3fbe 5421 39be 6997 a4bd 6c6a 1a3e
000000b0: d264 a8bd 056a 80bc b278 3d3d 20c6 2e3e
000000c0: 0d9b 363e 4003 573d e995 343e 0774 833d
000000d0: 883d ad3c 4fa0 fd3d e983 4dbe 508b 1a3e
000000e0: 721b 0d3c 743c e2bd 249a 2e3d 0d0a 583d
000000f0: 9930 0e3e ea59 8f3b a91d b8bd ac47 3bbe
00000100: 7ecc 813d 17b2 2dbe 8875 163e 4e83 ddbd
00000110: 36e2 4dbd 7d32 8a3e ac49 9ebc b348 5bbe
00000120: 89e9 d0bd e63e df3d 8651 ed3d 98a7 6cbe
00000130: e9e2 203e ee73 a93d bb94 59bd 99d2 a1bc
00000140: 3abd c8bd
0.056184918 0.09470107 -0.12503766 -0.007808639 0.048762888 -0.003394409 -0.10645663 0.09780073
-0.18082623 0.21806288 -0.03942427 -0.035498925 0.097079284 0.1915628 0.040031802 -0.1355852
0.180333 -0.053072415 -0.063309796 -0.08187916 0.14758718 0.11474886 0.22460772 0.055226408
0.122271396 0.1577244 0.17394282 0.014276686 0.044133782 0.10941385 0.17727198 0.07486047
0.19020966 -0.006848147 -0.05539706 0.077125184 -0.17115872 -0.04307477 0.15526009 0.05993857
-0.18656896 -0.1807912 -0.08036692 0.15079659 -0.08222355 -0.015675554 0.046257682 0.17067766
0.17832585 0.052493334 0.17635311 0.06418615 0.021147504 0.12384092 -0.20069851 0.15092206
0.0086125005 -0.11046687 0.04262747 0.05274396 0.13885726 0.0043747323 -0.08990032 -0.1828906
0.06337832 -0.16962467 0.14693272 -0.1081606 -0.05026456 0.26991645 -0.019322239 -0.21414451
-0.10200793 0.10900669 0.11587815 -0.23110807 0.1571156 0.08274065 -0.053120356 -0.019753741
-0.09801717

enc_1.1.bias f4 [3]
00000000: b9f1 b13e 8ebc 19bc 790b c93e
0.34754732 -0.009383334 0.39266565

enc_2.1.weight f4 [3, 3, 3, 3]
00000000: ac02 21be e3cf 5bbd 6fe7 8cbd 1666 e73c
00000010: 751f 9cbd e78f 1cbe 449d 9b3d e4ee cc3d
00000020: 2682 4e3e a5a8 c9bc e76e 723d 223b 1dbe
00000030: cec3 2c3e b7ef 273e 99ab 823d 1f4b fd3d
00000040: bc89 2bbd 1e21 8dbd 1826 4b3e 54cc ddbc
00000050: 7265 b0bd 62b3 58bd a32b e8bd 704a 743c
00000060: 7f95 ee3d 1269 023e b260 e33d 6b50 1dbe
00000070: eddf 31be 0645 84bd 604d cabc 892b dcbd
00000080: dd3b cfbd 2bd3 aabd 2d96 15bd f588 3cbe
00000090: 53e7 2fbc cf04 03bc a3ad 94bd 86a8 0ebc
000000a0: 78f5 2dbe ce88 09bd 2bd8 813b 5d44 2e3e
000000b0: a7ad 303e 354d 41be 24b3 15bd 7251 0fbe
000000c0: 85ba 003e ffcf 01be 78c1 263b c60a 76be
000000d0: eba4 48be 2f9b acbd 1031 16bb 6f89 16be
000000e0: 45d1 06be 9507 933d b42f 1abe 043a 43be
000000f0: c577 39bd f543 c03d 3465 b93d a57b 0cbd
00000100: b37e 48be 58c2 1fbd e1ac 40be 18b9 34be
00000110: db0a d23d 50b4 2fbe 1fb7 5cbd 0e47 6cba
00000120: 3d69 863d 03cd cabc ac29 283e 0a38 573d
00000130: 545b 383d b4e5 cabd ce24 ad3c c72d d23d
00000140: b4f3 ab3d
-0.15723675 -0.053665053 -0.0688008 0.02824692 -0.076231875 -0.1528927 0.075983554 0.10006502
0.20166835 -0.024616549 0.059187796 -0.15354589 0.16871569 0.16400038 0.06380386 0.12367844
-0.0418794 -0.06891082 0.1983875 -0.02707497 -0.08613099 -0.052905448 -0.11336448 0.014910325
0.11649608 0.12735394 0.111024275 -0.15362708 -0.17370577 -0.06458478 -0.024695098 -0.10750491
-0.1011884 -0.08341058 -0.036520172 -0.1841162 -0.010736304 -0.007996752 -0.07259681 -0.008707171
-0.1698817 -0.033577733 0.003962537 0.17018266 0.17253743 -0.18877108 -0.036547795 -0.13995913
0.12571152 -0.12677 0.0025444906 -0.24027547 -0.19594161 -0.084280364 -0.0022917427 -0.14700864
-0.13165767 0.071791805 -0.1505726 -0.190651 -0.045280237 0.09387962 0.09052506 -0.034297604
-0.19579582 -0.0390037 -0.18815948 -0.17648733 0.10255977 -0.17158628 -0.053885575 -0.00090132735
0.06563041 -0.02475596 0.16422147 0.052543677 0.045008972 -0.09907094 0.021135714 0.102626376
0.08396092

enc_2.1.bias f4 [3]
00000000: 096e 523d c871 8d3d db49 85bd
0.05137447 0.06906468 -0.065082274

enc_2.2.weight f4 [3, 3, 3, 3]
00000000: a8d4 16be fd54 833d 60e4 a33d a65b 41be
00000010: 212b 0e3d 0d1f 023e 2bc4 0dbe 3175 033e
00000020: d401 52bd 39b7 a33d fc3b 06be 492a 55be
00000030: 4c23 82bd 6081 0ebb 0453 c5bd 5cfc b13d
00000040: 9988 e2b9 5c18 4dbe 15a6 d83d 6d58 d3bd
00000050: 23f6 ca3c fcf2 e83d 0223 1f3e 85d4 f73d
00000060: 6eb8 d23d c20a 463d dd28 b53d 6815 1d3e
00000070: 4fec 3b3e d8ab e6bc ed89 553e 3a8f 553e
00000080: 14d0 a23c 238c 443e b1a1 323e b8b0 d6bd
00000090: b38c 043e 011f e83c 269c c4bd e403 1ebe
000000a0: 77fe 213e d3db c23c 691b b8bd be09 6cbd
000000b0: 8c8b 833c 22b4 2e3d f847 77bc 0f88 4bbe
000000c0: 8730 af3c b35b 05be 7b2c 653d d5bf 8a3d
000000d0: 4b94 f3bd a1a6 13bd ba7b 9a3c 9086 d83d
000000e0: 3b33 3c3e 7d9c 74be b033 2d3d 39e2 f9bd
000000f0: 5ac9 04be b468 933d 9378 763d fa43 13be
00000100: 0352 b83d 948f 19be ae36 f83b 6782 ff3d
00000110: 94f3 043e 7c59 423e f51c fbbc 26c9 b5bb
00000120: 9d01 33be b54e 9d3b b169 9bbd f721 29be
00000130: bf4c 003e d329 98bd 8439 fe3d dd6e 483e
00000140: 3508 523d
-0.1472956 0.064126946 0.080025434 -0.18882617 0.0347091 0.12707157 -0.13844363 0.12837674
-0.051271275 0.07993931 -0.1310882 -0.20816912 -0.063543886 -0.0021744594 -0.096349746 0.08690712
-0.00043207852 -0.20028824 0.10578553 -0.103196 0.02477557 0.113744706 0.15540698 0.12101082
0.102890834 0.048350103 0.08845685 0.15340197 0.18351863 -0.028158113 0.20853396 0.20855418
0.01987461 0.19194083 0.17444493 -0.10482925 0.12944297 0.028335096 -0.096000955 -0.15431172
0.15819727 0.023786461 -0.08989603 -0.05762648 0.016057752 0.042652257 -0.015092842 -0.19876121
0.021385444 -0.13023262 0.055950623 0.0677487 -0.11893519 -0.03604758 0.018857826 0.10572541
0.18378918 -0.2388782 0.04228562 -0.12201352 -0.12967435 0.07197705 0.060173582 -0.143814
0.090000175 -0.14996177 0.0075748777 0.12476044 0.12983543 0.18979448 -0.030653456 -0.0055476604
-0.17481084 0.0048006424 -0.075885184 -0.16516863 0.12529276 -0.07429852 0.12413314 0.19573541
0.051277358

enc_2.2.bias f4 [3]
00000000: 3768 82bd c558 5c3e bb7a d7bd
-0.06367534 0.21518238 -0.10521456

enc_3.1.weight f4 [3, 3, 3, 3]
00000000: fd0e f1bd 6d2a 813d 11a2 763c aed7 e4bd
00000010: d5d0 31be 6011 963d 0bc8 2e3e c2ec 1b3b
00000020: 4f9a 94bd ce5a 403d 307b 5c3e 94c0 4abc
00000030: 1691 313d bdb7 9e3d b812 d03d e0e9 f13d
00000040: dc5c 883d 91b8 7f3d ab5d 5fbd 3f77 41be
00000050: 2530 83bd 5ed7 613e 483a ef3d 1438 65bc
00000060: 8ed3 b9bc 2c0c 3f3e 025a 31bd 3101 673d
00000070: 2372 34be 3a84 18be 5c8b ac3d 8bba b7bd
00000080: 0908 e6bd 0478 01be adb6 233d 6740 073e
00000090: 612c 793c 4337 87bd d666 073e ab95 d13d
000000a0: f769 9abd c1a2 e73d c275 37bc af2c 42be
000000b0: d1e9 8bbc 87e2 783e 3afc 08be 1f92 193e
000000c0: a3d1 cebd 5512 9bbd e23e d73b c52d 443e
000000d0: 21b4 1c3d 5c2d f8bd b575 09be 42f0 923d
000000e0: e5bc 80bd c458 9dbd ed33 153e 5fff 33be
000000f0: bd74 09bd 3ba7 0abd f795 843d 3cf4 b2bd
00000100: e96c f1bd 2670 b7bd 622c 283d 103d 44bd
00000110: 4747 b4bb 6538 293e 6be2 983d e798 fbbc
00000120: 2a22 96bc bd10 213e 3eb7 b9bd f915 50be
00000130: 61a7 3abe 4de9 3dbe f2b0 5abd 21f0 14bd
00000140: 6cfd df3b
-0.11770437 0.0630692 0.015053288 -0.1117395 -0.1736482 0.07327533 0.17068498 0.0023792242
-0.072559945 0.046961598 0.21531367 -0.012375016 0.043351255 0.07749889 0.1015982 0.11812186
0.066583365 0.062431876 -0.054532688 -0.18893145 -0.06405667 0.22054812 0.11681038 -0.013990421
-0.022683885 0.18656987 -0.04329873 0.05639762 -0.17621665 -0.1489419 0.08425018 -0.08971127
-0.11232001 -0.12643439 0.039969135 0.13208161 0.015208335 -0.06602337 0.13222823 0.10233625
-0.075397424 0.1131034 -0.011197509 -0.18962358 -0.017079266 0.24305163 -0.13377467 0.14997147
-0.10098579 -0.07571856 0.0065687755 0.19158085 0.03825772 -0.121180266 -0.13423808 0.07174732
-0.06286029 -0.07682946 0.1457059 -0.17577885 -0.033558596 -0.03385089 0.06473916 -0.0873799
-0.11788351 -0.089569375 0.04105795 -0.047909796 -0.005501661 0.16525419 0.07465061 -0.030712558
-0.018326838 0.15729041 -0.09068154 -0.20320882 -0.18227912 -0.18546028 -0.053391404 -0.036361817
0.00683563

enc_3.1.bias f4 [3]
00000000: 7d52 033e 268e 373d e8c8 77be
0.12824436 0.044813298 -0.24197733

enc_3.2.weight f4 [3, 3, 3, 3]
00000000: 5539 393d 0e35 d03d 3787 0e3c 3e74 2e3e
00000010: 19f4 23be 3ef6 313e 84bb 173e c801 1c3d
00000020: 60ec bb3c f597 223e e869 9fbd cb60 c03d
00000030: d88b 8e3d 0afe 283e f5bf a63d 2818 983d
00000040: dacd 813d 6f5d bb3c 01d8 073e b552 18bd
00000050: 1fbf 7d3d 4bfb 24bc 7b88 ed3d 1d61 00be
00000060: f156 063d e9d4 abbc 6a0e f53d ef8d 9a3d
00000070: 719c 243e 5e70 a2bd 349d 36be 118a 4fbe
00000080: 47a7 47be 560a 31be 412d 1bbc 811d 03be
00000090: d221 d03d 5728 263d 60e4 cf3d fec2 f1bc
000000a0: 948a 623e e592 b43d 4ab1 f73d 215a 913d
000000b0: dcb7 273d 93ce 21be e00e c33c 3e5f 43be
000000c0: 9869 cd3d cd11 7d3d 6024 08bd f882 26bd
000000d0: 8e5e 8b3d 23da 513c 85c0 dabd de43 20bd
000000e0: c293 163e c0be 12bd f602 9b3d 49db 773d
000000f0: ccf9 d73b bb98 25be 9556 1fbe 89f1 513d
00000100: 9fc0 133e e529 893d 13e8 423d 7ba2 353e
00000110: c44d 273e 5f38 893d e2bb 783d d652 15be
00000120: 4a02 9d3d 9be7 7f3e b85a 8c3e 0529 4d3e
00000130: 3954 54be a430 32bd f987 cc3d 3327 e63d
00000140: 3f8d 86bd
0.04522069 0.101663694 0.00869923 0.1703653 -0.16011085 0.1737909 0.14817625 0.038087636
0.02293986 0.1587828 -0.07783872 0.09393462 0.06960267 0.16503158 0.08142082 0.074264824
0.06338091 0.022871701 0.13265993 -0.03718825 0.061949845 -0.010069679 0.11598297 -0.12537046
0.032797758 -0.020975547 0.1196564 0.07546603 0.16075303 -0.079315886 -0.17833406 -0.20267512
-0.19497405 -0.17289099 -0.009471239 -0.12804224 0.10162701 0.040565815 0.10150981 -0.029511925
0.22123176 0.088170804 0.12094362 0.07097269 0.040946826 -0.15801458 0.023810804 -0.19079301
0.10029906 0.061784554 -0.033237815 -0.040652245 0.06805144 0.0128083555 -0.106812514 -0.039127223
0.14704803 -0.035826445 0.07568924 0.06051186 0.0065910574 -0.16171543 -0.15560372 0.051255737
0.14428948 0.06697444 0.047584604 0.17737763 0.16338259 0.06700205 0.060726054 -0.1458238
0.07666452 0.24990694 0.27412963 0.20035179 -0.20735253 -0.04350342 0.09986872 0.112379454
-0.06569909

enc_3.2.bias f4 [3]
00000000: 0c41 143e 9d80 01be d77c 73bd
0.14477938 -0.12646718 -0.05944523

enc_4.1.weight f4 [16, 3, 3, 3]
00000000: 79b3 12be c017 383e 76bf aa3c 2b78 423e
00000010: 51fb efbd 6abf c1bd 9e90 9bbd a8b7 a2bd
00000020: d754 2b3e 42c0 6dbb aae8 c8bc 0d8d 3e3e
00000030: 92cf ba3d 3ac2 40be 5d87 5b3e 0785 d8bd
00000040: e638 593c d9a3 073d f62a 173d d002 1b3e
00000050: 20e4 cebd bd45 4a3c 44db 96bc ee7b 563e
00000060: 57bd e73d 2526 bdbd e279 113e 52ab 453d
00000070: a774 893b c2f0 08be 5174 33bd e0c8 403e
00000080: 12a8 193e d870 a6bd 7920 a6bb c533 c7bd
00000090: 680c 65bc cf3d 073d ad7e 34be 02a7 133e
000000a0: 9550 603d d112 b8bc ef99 b5bd 7551 593e
000000b0: 1e34 203d f7c3 1fbe 1639 b63d 0f1c 623d
000000c0: ca2e b63d 8b36 f9bd 1aca 11be 4250 fa3d
000000d0: a8d3 7a3e ab9f 103e cdd7 66bd 77db 8d3d
000000e0: 2c5c e4bd 0e39 063e 05cd 48bd 0e15 97bd
000000f0: b913 02be e7e7 22bd c0ec 02be ac86 94bd
00000100: 8a1d 39be 55bf c83d 3969 26be efee 3bbe
00000110: 1c6b 593d 0a18 24be 1e6d 18be 8dfd eebd
00000120: 7ec4 98bd 57c4 823d 8301 84bd 5b0c bbbd
00000130: fb3b 7dbb 2b93 e93d 6adf 6abd 2e5a 83bc
00000140: faf9 90bd 4c10 9e3d a6a4 033e ac7f 16be
00000150: 2ab3 8c3d b5dc fcbb ec37 b73d 3d6c 4e3e
00000160: fa4a adbd d299 1fbe 775b 303e ae84 f9bd
00000170: 5485 1a3e 2538 84bd eca9 473d 4800 533e
00000180: 39e3 003d 4ce6 103d 23e4 453d 71fe 7c3d
00000190: 6684 fbbd f63c c33d 6e9b 3e3c 76cd 23bd
000001a0: f837 cb3d e56a 16be 8d69 173e a8bd 06be
000001b0: fdf7 163e 6f86 12be ab50 b13d 7c37 f0bd
000001c0: f137 15bd 71b2 df3d 2318 2f3e 550f 94bc
000001d0: 7e52 1b3d c507 ef3d b78c b03d 410e 303e
000001e0: ea4b e03b c81e 973d 19d7 6c3e 5398 20be
000001f0: 237c 173e 962e 003e c8bf 6e3d c87e 14be
00000200: e572 13bd 7537 c33c d89b 493e aee7 b5bd
00000210: 5f88 c53b 4a81 183e d8c6 9bbd 1f9d 2c3e
00000220: f181 f63c 93ea 243c e8c0 9a3d c9a7 5e3d
00000230: d340 dfbd 61ad 40bd a9c7 02be 4377 343d
00000240: 2020 393e 1d76 c5bd ade2 9d3d 633f a63d
00000250: 3b07 083a 771b 19be c70f 27be 76c6 87ba
00000260: 674f db3d c1bd 2d3e a14e c73c 3126 1bbe
00000270: f5a8 40bd 46e2 183e 1e48 2bbe 5d2f 42be
00000280: 21ce 033e b899 2fbe 3567 e33d 968a 24be
00000290: 2276 ed3c 56ee a8bc 3b8f 593d e46e fa3c
000002a0: 59e4 babc c198 c13d ea82 d53d acac 863d
000002b0: beac 0b3e 4ed8 0d3e d9a2 3e3e 06af 023e
000002c0: 5f6a 03bc 078d 03be b09b af3c 51a4 96bd
000002d0: 4c53 0d3e c93d 263e 851b fa3b 0cef f63d
000002e0: 006d cabd a2ba ee3c ee46 2c3e ccf0 15be
000002f0: af54 863d 9f89 85bd d07f a8bd 1aab 0cbe
00000300: 79ee b4bc f2d8 323d cce2 bcbd 6af4 44bc
00000310: d471 0a3e 3c36 f03d fe49 053c d00d 1ebd
00000320: e523 e63d 978c 3b3d ce5d a9bd b2fc 59be
00000330: b643 b6bc a678 47be 80ad 513d 8608 13bd
00000340: c1b6 c1bd 070b b53d ba6b 2bbd 6757 e0bd
00000350: cc9a 3fba 41cc 78bd 0dae a0bd 7f43 fd3d
00000360: f17c 153d 0e00 c8bd 0a1e 08bd 1ca2 c3bd
00000370: b3c8 ae3c 59a5 e9bd 0ead df3d b925 12bd
00000380: 0f6d 1ebe 2245 053e 313c 083d 88c8 503d
00000390: ced0 903d 00f8 973d 2bee d9bd 66cb 0b3e
000003a0: cf2a 123e 8689 f63d 4738 2d3e d1b6 fb3d
000003b0: 8c19 c33b 4845 90bd 78e0 b63d 26d8 143d
000003c0: a891 b33d 6c29 9f3d d729 f03d 3f5a 213c
000003d0: 4fea 9a3d eb94 143e fb22 b0bd 3ec9 b53d
000003e0: 216c 0cbe a8c3 b63d 5b1e 44be 25a2 52be
000003f0: e746 adbd 6b4e 25be 081b f13d 7fef b53d
-0.14326276 0.1797781 0.020843249 0.18991153 -0.11717857 -0.094603375 -0.07595943 -0.07945186
0.16731583 -0.0036277925 -0.024525005 0.18608494 0.09121622 -0.18824092 0.21438356 -0.10572248
0.013258195 0.03311524 0.036906205 0.15137792 -0.10102105 0.012345728 -0.0184151 0.20945713
0.113154106 -0.09235791 0.14206651 0.048259087 0.0041948142 -0.13373092 -0.0438121 0.18826628
0.1500552 -0.08126992 -0.005069789 -0.09726671 -0.013980009 0.03301793 -0.17626448 0.14419177
0.05476435 -0.02246991 -0.08867251 0.2122248 0.039112203 -0.15602098 0.08897607 0.05520254
0.08895643 -0.12168606 -0.14237252 0.12222339 0.24494803 0.14123408 -0.056358147 0.06926625
-0.11150393 0.13107702 -0.049023647 -0.07377063 -0.12702836 -0.03977194 -0.12785625 -0.07252249
-0.18077675 0.09802119 -0.16251077 -0.18352865 0.053080663 -0.16024795 -0.14885375 -0.11669455
-0.07459353 0.06385105 -0.06445601 -0.09133216 -0.0038640487 0.11405023 -0.05734197 -0.016034212
-0.07078929 0.07717952 0.12855777 -0.1469714 0.0687011 -0.00771674 0.08946213 0.20158477
-0.08461566 -0.15586022 0.17222391 -0.1218351 0.15089923 -0.06456021 0.048746035 0.20605576
0.031466696 0.03537588 0.04831327 0.06176609 -0.122811124 0.09533112 0.011633737 -0.039990865
0.099227846 -0.14689215 0.14786358 -0.13158286 0.14743038 -0.14309095 0.08657964 -0.11729333
-0.036430303 0.10922707 0.17099051 -0.018073717 0.037920468 0.11671404 0.08620589 0.17192937
0.006844987 0.07378918 0.23128928 -0.15683107 0.14793448 0.12517771 0.058288366 -0.14501488
-0.035998244 0.023830155 0.19688356 -0.0888208 0.0060282196 0.1489307 -0.07606286 0.16856812
0.030091258 0.0100656925 0.07556325 0.05435923 -0.10901036 -0.047040347 -0.12771477 0.04405905
0.18078661 -0.09641669 0.077092506 0.08117559 0.00051890657 -0.14951883 -0.16314612 -0.0010358829
0.10708504 0.16966917 0.024329485 -0.15151288 -0.04703613 0.14930066 -0.1672673 -0.1896338
0.128716 -0.17148483 0.111036696 -0.16068491 0.028986994 -0.02062146 0.05311511 0.030570455
-0.022813963 0.094529636 0.104253605 0.06575903 0.13640115 0.13852045 0.18616809 0.12762079
-0.008020966 -0.12846766 0.021436542 -0.073555596 0.13801306 0.16234507 0.007632675 0.12057313
-0.09884071 0.029141728 0.16823933 -0.14642638 0.06559121 -0.0652039 -0.08227503 -0.13737145
-0.022086369 0.043663926 -0.092229456 -0.0120211635 0.13519984 0.117290944 0.008135317 -0.03858739
0.11237315 0.045788374 -0.08269845 -0.21287802 -0.022249084 -0.19479617 0.051190853 -0.0358968
-0.09458686 0.08839994 -0.041850783 -0.10954171 -0.00073091383 -0.060741667 -0.078456976 0.123663895
0.036496107 -0.097656354 -0.033231772 -0.09552404 0.021335935 -0.11408491 0.109216794 -0.035680506
-0.1547129 0.13014653 0.033260528 0.05097249 0.07071076 0.07420349 -0.1064113 0.13651809
0.14274143 0.12037949 0.16916 0.12290729 0.005953973 -0.07044464 0.08929533 0.036338948
0.08768016 0.077715725 0.1172673 0.0098481765 0.07564222 0.14509933 -0.08600422 0.088762745
-0.13713123 0.08924037 -0.19152205 -0.20569666 -0.08460789 -0.16143195 0.11772734 0.08883571

enc_4.1.bias f4 [16]
00000000: adfd 19be 2886 c2bc 3c6e 1cbe 5641 f33b
00000010: 2889 52be a9b2 b4bd 2df6 a6bd fa4c 1dbe
00000020: 44bb 47be 83cf 90ba f6ac acbd 53ca 9fbc
00000030: 36a1 73be f2a5 4abb 75d5 6fbc bafa 893c
-0.15038176 -0.023745611 -0.15276426 0.00742356 -0.20560133 -0.08823139 -0.08152423 -0.15361395
-0.1950503 -0.0011048171 -0.08431427 -0.019505655 -0.23791966 -0.0030921665 -0.0146382945 0.016843189

enc_4.2.weight f4 [16, 16, 3, 3]
00000000: 330a 9b3d 4c08 043e e2f2 c23c fdeb 77bd
00000010: e78e f03c 9cd6 5bbc c5c2 dfbc 8867 5dbd
00000020: d54a 4abd f78c 58bd 627f 573d fa3a 0d3e
00000030: bce1 053c cb15 d0bd 150a 433d fe19 0d3d
00000040: 3779 c2bc 80c3 ab3c 92bf fabc 9065 bebd
00000050: 295d babd 9b33 683d e6bb 883c ea12 4dbd
00000060: 8984 0e3d 4eac 743c 9bd8 6d3b ca72 40bd
00000070: 402b cbbc 79db abbb 9422 a93c 8ea0 fdbb
00000080: b2a9 a5bc 3c24 7abd 33f4 26bd 72ea 8fbd
00000090: 9b94 11bc cb15 183e ac1b 8e3d 14bf 86bc
000000a0: 6fa8 fc3c a3e1 133d 3e6e 053d e5f5 23bd
000000b0: 24d4 fdbc 43d3 99bc 0b53 7dbd 421d 01bd
000000c0: 8f89 87bd 6d8c 193d c32f 973c e4b2 8dbc
000000d0: 8105 dabd 368c c5bd 907f a0bc d08d 7c3d
000000e0: e10b d63d 7fe8 ad3d 8677 b53c 1e18 913d
000000f0: 4acd 8cbb 4025 9ebd ede0 2cbd 04bb 843d
00000100: 3c76 433d 5d62 2cba 36d0 90bc 4018 ca3a
00000110: 561c 5cbd a7c4 82bd f9ae 96bc 3dc9 5abd
00000120: 5366 cd3c 2618 02ba e560 32bd 415f b63d
00000130: 2c69 803b 602a 30bd c24e 5cbc 799c 453d
00000140: 6034 283d f1a3 9b3d 0316 da3d 556b ecbc
00000150: 5989 163d 8e7d f2bb bb3c f3bd 9a49 89bd
00000160: a246 453d d2f5 dcbd 192f a13d e4a0 85bd
00000170: 0577 703b d8d9 7f3d 063f 49bc 883d 7abd
00000180: c5c6 e4bb 3aac a53d 006b 9339 5bd7 183c
00000190: e0ce b2bc 9f9f df3b 3b50 7cbd b170 27bd
000001a0: 1a16 6ebc acd1 fe38 4fd5 6a3d 42ca 5e3d
000001b0: 8a8e 33bc 9d75 6ebd 489f 803c 63b8 5cbd
000001c0: e917 783d 8c06 babd 0521 203d cbe7 3f3d
000001d0: 9e32 1abd 1dc0 f8bc 7c1c a0bd 077e 783d
000001e0: 1d4d b7bc 7278 04bd 415a 8dbc a204 8cbd
000001f0: d163 f8bc d8ef 23bd dc77 a33d 3ea2 153d
00000200: c0ed 543d 41db 9b3d 1d89 c43d 9d84 b93c
00000210: b8bc 683b 516e b53d 86ce b73d 5b9d 333d
00000220: b608 2e3d 6cf1 7f3c 2946 05bd f246 f03c
00000230: 8e6b 613d 58ff ff3c f585 b33d 8fbc fabc
00000240: f3ed 793c 23dc 653c 8286 7e3d ae31 0dbb
00000250: 5d39 893d 54a0 83bc 04bc 86bd ef47 d8bc
00000260: 5504 d9bd bd25 243d 27bf e13d 6cf9 bb3d
00000270: 54db d8bd 91f3 a8bd ebd6 bc3c dee2 2cbd
00000280: f8c3 773c 1309 893c 8f16 1fbd cea3 91bd
00000290: 45d2 bbbd 1015 a33b d4e9 743d 413e 42bd
000002a0: 7511 5d3d e14e 99bd 5d74 aabd 3ed6 033d
000002b0: 73fb b33b 4cf8 5dbd 0c25 03bd 89d2 66bc
000002c0: 1b83 cfbd 8376 b9bd 6116 25bd 8896 37bd
000002d0: 73dd a23c c00f 763c f333 953d e4c2 d5bc
000002e0: 56eb 70bc 313d d33d 65a4 2fbd 056c 6bbc
000002f0: b2c6 013e a486 1cbd d263 5dbc 1e18 983a
00000300: a875 103c 0416 223d 9e88 5dbc 13ef 93bc
00000310: b34f 873d 5f88 68bd aa82 3a3d 3089 003d
00000320: e995 b43b f7d2 9b3d 9b5c dc3a 9eaa 673d
00000330: 08c6 06bd 4e16 883c ae20 073d 6dd1 a939
00000340: 05a1 363c 9555 743d a71a 96bd 404d bb3c
00000350: d370 5abd 5a96 4cbd 1ecd 5ebd 10fc 573d
00000360: 2ccb eeba eab6 a7bc dd98 90bd 56cb 523d
00000370: 952c ae3d fccb d6bc dfb6 3e3d 5048 113d
00000380: 1854 38bd 3848 c4bc 1dec fabb c9fe a7bd
00000390: 1574 8bbc 443d adbc 638a 2fbd e244 1d3c
000003a0: e837 a1bd 9a3c e8bd b461 2b3d ca18 c33c
000003b0: bc5f 1d3d 9233 373d c717 ad3d 6d5c 953c
000003c0: 7b87 3dbd bc9d 363d b969 333d ad47 37bd
000003d0: 5444 a13c bbd2 b43c 72e7 643d 670e 96bd
000003e0: 2103 2ebd e5e1 393d c7f4 9d3c 3e43 5a3d
000003f0: 167a c23d b4ea f73d b2a6 163c 1fab 64bb
0.07570305 0.1289379 0.023797456 -0.06052779 0.029365016 -0.013417866 -0.027314553 -0.054053813
-0.04938777 -0.05286881 0.052611716 0.13792029 0.008171495 -0.10160407 0.047617037 0.034448616
-0.02373944 0.020967245 -0.030608926 -0.09296715 -0.090998 0.05668984 0.01669116 -0.050066866
0.034794364 0.014933659 0.0036292437 -0.04698447 -0.024800897 -0.005244669 0.020646371 -0.007740087
-0.020222519 -0.061069712 -0.04076023 -0.07027139 -0.008885528 0.14852063 0.06938872 -0.016448535
0.030842034 0.036103856 0.03257584 -0.040029425 -0.030984946 -0.018777495 -0.061846774 -0.031522043
-0.06618034 0.037487436 0.018455392 -0.017297216 -0.10645581 -0.09645884 -0.019592077 0.06165868
0.104514845 0.08491611 0.02215172 0.07084678 -0.0042969333 -0.077219486 -0.042206693 0.06480983
0.04772018 -0.00065759366 -0.017677408 0.0015418604 -0.05373796 -0.06385165 -0.01839398 -0.053414572
0.025073206 -0.0004962705 -0.043549437 0.08904887 0.0039187875 -0.043009162 -0.013446512 0.048244927
0.041065574 0.07599629 0.1064873 -0.028859774 0.03675208 -0.007400221 -0.11876818 -0.067034915
0.048163064 -0.10789074 0.07870311 -0.06524828 0.0036692035 0.06246361 -0.012283092 -0.061093837
-0.006981703 0.0808949 0.00028117746 0.0093286885 -0.021827161 0.0068244482 -0.06159995 -0.040878955
-0.014531637 0.00012150718 0.057332333 0.054392107 -0.010959277 -0.058217634 0.015700951 -0.053886782
0.060569678 -0.0908328 0.03909399 0.046851914 -0.03764593 -0.030365044 -0.07817933 0.060667064
-0.022375638 -0.032341428 -0.01725495 -0.06836821 -0.030321034 -0.040023655 0.07981846 0.03653168
0.05198455 0.07610179 0.09596465 0.022646243 0.0035512876 0.08858932 0.08974938 0.043851238
0.042488776 0.015621524 -0.032537613 0.029330704 0.055034213 0.031249687 0.08765785 -0.03060749
0.015254485 0.014029535 0.062139995 -0.0021544504 0.06700394 -0.016067661 -0.0657883 -0.026401488
-0.105965294 0.040075053 0.110227875 0.09178433 -0.105887085 -0.082495816 0.0230517 -0.042208545
0.015122406 0.01672796 -0.038839873 -0.071113214 -0.09170965 0.004976876 0.05979331 -0.04742265
0.053971726 -0.07485748 -0.08322976 0.03218674 0.0054926216 -0.054191872 -0.032017753 -0.014088281
-0.10132428 -0.090558074 -0.040304545 -0.044821292 0.019880986 0.0150184035 0.07285299 -0.026093908
-0.014704546 0.10314406 -0.04288139 -0.014369016 0.12673452 -0.03821434 -0.013512569 0.0011603867
0.008817114 0.039571777 -0.013521342 -0.018058335 0.06606998 -0.05677068 0.045534767 0.031380832
0.0055110347 0.07608598 0.0016812267 0.056559198 -0.0329037 0.016612198 0.03299015 0.00032390226
0.0111467885 0.05965193 -0.07329302 0.022863984 -0.053330254 -0.049948074 -0.054394834 0.05273062
-0.0018218509 -0.020472962 -0.07060406 0.051463448 0.08504597 -0.026220314 0.04656112 0.035469353
-0.045002073 -0.023960218 -0.0076575414 -0.08202893 -0.017023126 -0.021147378 -0.042856585 0.0095989425
-0.078719914 -0.11339684 0.041841224 0.023815531 0.038421378 0.044726916 0.08451801 0.018232549
-0.046271782 0.04458402 0.043801997 -0.04474609 0.019685902 0.02207314 0.055884786 -0.07326966
-0.042483453 0.045381445 0.019281758 0.053286783 0.09495942 0.12105313 0.009195017 -0.0034892035

enc_4.2.bias f4 [16]
00000000: ef4c 07be 5b3b d8bd 7d28 043c 51b3 bdbd
00000010: 9472 0a3b b67f 82bd 80bf deba 5353 32be
00000020: 68d4 09b9 0411 60bc 171f ee3d 4062 10be
00000030: 8d8c fb3c 9e21 93bd ed9e 12bd 155a a1bd
-0.13212942 -0.10558196 0.008066294 -0.092627175 0.0021125423 -0.06372015 -0.0016994327 -0.17414598
-0.00013144466 -0.013675932 0.11627024 -0.1409998 0.030706668 -0.07184146 -0.035796095 -0.0787851

enc_5.1.weight f4 [32, 16, 3, 3]
00000000: d1c4 3fbd 313a ccbd 5e8b bb3b f952 2c3d
00000010: 1e69 50bd a456 eb3c de3c 8a3c 22b6 46bc
00000020: 9d7c aebd 3fc7 173d 052f 953d eea9 2abb
00000030: 552b bcbd 6f3f 803d 0404 5ebd 852b 9bbb
00000040: 8c6a a43d 766f c83c 3b2e 853d 37c2 4e3d
00000050: 0f49 9d3d a306 f6bc 1f80 333c c5a2 ef3d
00000060: 7b62 78bd e268 bb3d 71ab f3bb 2d73 7abb
00000070: c225 4f3d 9a71 7ebb 7516 ff3b 1f84 c63b
00000080: d416 ad3d 8e81 373d 1521 15bd e3ab a53a
00000090: 4a89 07ba a5e2 923d de51 643d 0040 b4bd
000000a0: 7567 20bd b446 b5bd a05c 9a3c a887 0a3c
000000b0: a749 94bc 6179 6b3d 1d1f a43d c13d 8b3d
000000c0: 3c26 b6bc f980 91bd 06be 47bd be3f 39bc
000000d0: b2fe cabd 0b83 d1bd 7ec5 0bbc c4b3 5dbd
000000e0: 5775 773d 4b2b c2bd 17b1 603d 3823 90bd
000000f0: ac34 ff3b 4786 71bd a5ef 82bd 6575 893d
00000100: 9f3d b3bd 18c7 b4bd 1a0d a33c 3382 e4bc
00000110: d978 39bd 9a2d 60bd 4c78 bbbc 2138 a5bb
00000120: 6c7d 183d d498 2cbb 2b95 2fbd c64b 3cbd
00000130: 266e 5bbd fb71 91bb e47c c2bd ef2b 5ebd
00000140: d1bd a2bd a39f 6abc 2445 053c 5e2d 083d
00000150: 82fb 93bd 5594 ebbc ff0c 02bd 95bb 6bba
00000160: c05b 103d f3de b33d 432d cd3c f213 b73c
00000170: b8ae c03d 4240 52bc 97a6 6b3d 1949 af3d
00000180: ae6d 673d e9db ba3b 6d76 72bd 5dcb a2ba
00000190: 7daa aabd bfee 03bd 3c2d 9cbc 6d70 cb3c
000001a0: 8949 67bd 84e7 21bd 5851 143c 1456 873d
000001b0: f814 983c 1fc6 a23c c497 6cbb 6ec7 03bd
000001c0: 539d d73d 5b61 853d 0fc3 96bd 266b 16bd
000001d0: d2cb c53b a462 9bbd e777 a63c 2fe0 d0bd
000001e0: b8d2 0fbe d86b 81bd a8e9 a2bd 01fe 493d
000001f0: edde 843d c748 853d 4dff 633d 93a9 b2bb
00000200: ffa7 093d 87d1 a83d e339 67bc 025f 4ebd
00000210: 377d 1f3d 786a a13d 1582 b2bc ef4d b0ba
00000220: dfcc 3bbd 7f89 44bd 1667 f23c 3e50 683d
00000230: 6bf1 c6bc 9846 5fbd a6f5 a33d 197f 25bc
00000240: a9a3 dfbd 29d9 03be 8bfb a3bd 6243 2ebd
00000250: 13da 293a 2d49 e7bd a808 c7ba 897e 393c
00000260: 1721 dabc 99ee 6a3d ba72 46bc 9031 693d
00000270: f87a 3b3d 1332 0abd 9b17 0abd 834f a33c
00000280: 6441 15bd c1bf 97bd 0faf 77bd db33 7fbb
00000290: bcfa 2e3d 67e1 53bd ec85 8d3d 7711 633d
000002a0: 027e 6c3d 4a01 863d 7626 193d 2704 6ebd
000002b0: e699 0f3d 77db 05bd d8e6 2a3d 6bdf b83d
000002c0: 5137 443d f80e a53b 44af 253d c9cd a63b
000002d0: 2e09 5ebc b162 efbc e064 943c 55d8 91bd
000002e0: 09a0 fabc 4370 513d c9d3 37bd 435d 76bc
000002f0: b48a 223c 9d6d a9bb 203e 33bc f944 d3bc
00000300: 7959 06be 741a 36bd 8ff7 afbd c829 fa3c
00000310: 5958 6b3c b5bf c9bd 3f42 cdbd ddef a0bc
00000320: e41c ceba 9fdb 333b 6796 f23c ded8 d9bc
00000330: 5b61 e73c b7f9 54bc 4e48 36bc ac16 9dbc
00000340: a6df 90bd 621f b3bd 6f2d 41bd e612 88bd
00000350: 1425 ebbd 9cbb ccbd 84c7 063d 6d50 d2bd
00000360: 51ab e1bd e775 19bd 6cd9 0abd 3c8a df3c
00000370: 1858 8ebd f227 a6bd 43d8 dbbc d911 21bd
00000380: 6301 823b 7781 e43b e8a1 53bd bd7a 55bd
00000390: eca8 efbc 4f02 a2bb 03aa 073d 6069 943c
000003a0: dbb0 0bbd 8460 b43c 40f4 d63d 7c17 103d
000003b0: 5efd 37bc 5738 473d 2a12 c33c f541 133d
000003c0: f791 a03d 281d 24bd 2755 80bc ff6d 9fbd
000003d0: 2e4d 8ebd e8f9 bdbd de40 c4bc d58c d63c
000003e0: b03b 99bc b08a 803c 7f84 563a 80e2 a1bd
000003f0: 0c03 2c3d 73a4 053d 461e 45bd dd61 293d
-0.046818558 -0.09972037 0.005723401 0.042071316 -0.050881498 0.028727837 0.016874727 -0.012128385
-0.08519862 0.03705525 0.07284359 -0.0026041227 -0.091879524 0.06262099 -0.05420305 -0.0047354125
0.08028135 0.024467211 0.065029584 0.050478186 0.076799504 -0.030032462 0.010955839 0.11700968
-0.060640793 0.09150864 -0.007436209 -0.0038215623 0.050573118 -0.0038825036 0.0077846595 0.0060582305
0.0845162 0.044801287 -0.036408503 0.0012639727 -0.0005170299 0.07172135 0.055742137 -0.088012695
-0.039161164 -0.08851376 0.018842995 0.0084551945 -0.018101526 0.057488803 0.08013747 0.06798888
-0.022235028 -0.07104678 -0.048765205 -0.011306701 -0.099118605 -0.102300726 -0.0085309725 -0.054126516
0.06041464 -0.09480914 0.054856386 -0.070379674 0.0077882614 -0.058965947 -0.06393365 0.06711844
-0.08751988 -0.088270366 0.019903708 -0.027894115 -0.045281265 -0.05473099 -0.02288451 -0.0050420915
0.037228987 -0.002633621 -0.042866867 -0.0459707 -0.053571843 -0.0044386364 -0.09496477 -0.054241117
-0.07946361 -0.014320287 0.00813416 0.03324639 -0.07225706 -0.028757254 -0.031750675 -0.00089924905
0.03524375 0.087827586 0.025045997 0.022348378 0.09408325 -0.012832703 0.05753192 0.08558864
0.056501083 0.005702485 -0.05919497 -0.0012420226 -0.08333299 -0.032210108 -0.019064538 0.024833882
-0.056466613 -0.03952743 0.009052597 0.06608215 0.018564686 0.019869862 -0.0036101202 -0.032172613
0.10528054 0.0651271 -0.07361423 -0.03672328 0.00603626 -0.075871736 0.020320846 -0.101990096
-0.14045227 -0.06319398 -0.07954723 0.049314503 0.06487832 0.06508022 0.055663396 -0.0054523437
0.03360748 0.08243089 -0.014112922 -0.050383575 0.038937774 0.078816354 -0.021790544 -0.001345096
-0.045849677 -0.04798269 0.02959017 0.05671715 -0.024285039 -0.054510683 0.08005838 -0.010101103
-0.109198876 -0.12875809 -0.080069624 -0.04254473 0.0006479334 -0.11293254 -0.0015185075 0.011321672
-0.026627107 0.05735645 -0.012112314 0.056932032 0.04577157 -0.03373916 -0.03371392 0.019935375
-0.036439314 -0.07409621 -0.060469683 -0.003894082 0.042719588 -0.051728632 0.06910309 0.055436578
0.057737358 0.065432146 0.037390195 -0.05810943 0.03505888 -0.03268 0.041724056 0.090269886
0.047904316 0.005037185 0.04045035 0.0050904495 -0.013551993 -0.029221864 0.018114507 -0.0712134
-0.030593889 0.05113245 -0.04487971 -0.015036884 0.009920765 -0.0051705376 -0.010940105 -0.025789725
-0.13120069 -0.04445882 -0.0859214 0.030537501 0.014364325 -0.09851018 -0.10022401 -0.019645626
-0.0015725163 0.0027444137 0.029612733 -0.026592668 0.028244665 -0.01299899 -0.011125637 -0.01917585
-0.070739076 -0.0874622 -0.04716247 -0.066442296 -0.114816815 -0.09996721 0.032905117 -0.10269246
-0.11019004 -0.037465956 -0.033898756 0.027287595 -0.06950396 -0.08113088 -0.02683652 -0.03932366
0.0039674505 0.006973441 -0.051668078 -0.052119005 -0.029255353 -0.004944123 0.03312112 0.018116653
-0.03410421 0.022018678 0.10495806 0.035178646 -0.011229841 0.048637714 0.023812372 0.035951573
0.078403406 -0.040066868 -0.015665604 -0.07784652 -0.069483146 -0.092761815 -0.023956712 0.0261902
-0.018705219 0.015691131 0.00081831956 -0.079045296 0.041995093 0.032627534 -0.048124574 0.041353095

enc_5.1.bias f4 [32]
00000000: cf6a eb3d 95d2 87bc f101 9e3c bbc3 58bd
00000010: ff3e 9fbc 57eb 08be 7477 ee3c cec7 44bd
00000020: e19b 233d c12e 23bc d419 ef3d d9b2 b03d
00000030: b175 bdbd b4e3 4fbd 53eb 853c 7511 613c
00000040: a460 743d 08e3 9cbc 59fe fb3d 155c 943d
00000050: 047e 53bd 6200 12be d24e 913d f962 02be
00000060: 21ae 12be 1b09 803d 858a 54bd 6a6c 58bd
00000070: 2585 0b3d d4ba 113e 9d26 2dbc 76d5 633c
0.114949815 -0.016579906 0.019288035 -0.052921038 -0.019439219 -0.13371025 0.029109694 -0.04804211
0.03994358 -0.0099598775 0.11674848 0.086278625 -0.092509635 -0.050754264 0.016347563 0.013737072
0.059662476 -0.019151226 0.12304372 0.07244126 -0.05163385 -0.14257959 0.07095112 -0.12733068
-0.14324237 0.06251737 -0.051889915 -0.052837767 0.034062523 0.14231426 -0.010568288 0.0139058735

enc_5.2.weight f4 [32, 32, 3, 3]
00000000: eba2 133c 2780 16bd e3f2 903d 86de 4b3d
00000010: 6116 bcbc bb82 ce3c b722 68bc 11c3 bfbc
00000020: 09d6 ea3b a752 ff3c d548 8d3d 073f aabd
00000030: e344 1b3d 49b4 b9bc e810 ac3c 4cc1 45bc
00000040: 1a64 00bd 7d4f cebb c59a 8f3d 478c 06bc
00000050: a3e4 443b 11ae 563c dc69 0f3d f70a 7abc
00000060: bc24 54bb f94f edbb ac4a 073d 99a1 1b3d
00000070: 6f5b 4a3d aa72 8dbc 56e6 02bd 8b58 c93d
00000080: 0ff7 d03c 5047 0b3d 3803 fc3d d377 2c3d
00000090: 3315 6f3d 8113 2a3d 7cf3 b3bd 2034 d0bb
000000a0: 89e4 953c 5f5c 0e3d 8c40 91bc b4af 343d
000000b0: c4bc e0ba c378 52bd 42c9 8e3b 8fe8 9e3d
000000c0: 9ed8 703d 4f67 60bc e905 8d3c 4fab a7bb
000000d0: 76fb 0d3d 8470 43bd 6d4b edbc aa6f 94bb
000000e0: 5bbd e3bb f42b 16bd 48d9 81bd 5b4c fb3b
000000f0: af62 82bd eb46 19bc 5a9c 8b3d a8f5 9cbd
00000100: 1046 123d 1c2d 983d 2473 003c 11e9 33bd
00000110: bb4c c23c 3374 c13c 10bc 34bd a877 a4bd
00000120: 2361 1cbb db32 e2bc 888c c9bb 11a5 473d
00000130: 28d8 d3bc 5873 b23a 9973 a0bd a007 6ebd
00000140: 4ac1 67bd 26bd 25bd 01fd 39bc 76ef 3c3d
00000150: c05f 72bd f8fd 75bc 1bc1 3bbc 899e 5b3d
00000160: 9a0b 00bc 08c7 aa3c 9fab 493c 7543 fabb
00000170: f308 a4bd c99e f83b 900c 4ebd 456f b73d
00000180: ebe2 bfbd 399a 673d e182 62bd a87f b5bc
00000190: 2212 22bb db9b 263c b19d 263c a750 1d3d
000001a0: 799f 39bd b47f e3bc 6197 85bd 3d2a 25bd
000001b0: c527 843d 02ce a6bd ed60 10bd f2ef de3c
000001c0: 41d8 9739 7501 313d f76b a23c c719 54bd
000001d0: 5577 debc e951 96bd c492 453c 7118 093d
000001e0: 09b3 a8bd 41b2 3f3d df05 073d 6288 c63b
000001f0: 79fc e1bd 02b6 11bd 88e3 b33c 8994 0abd
00000200: a20e b6bb 7527 b03c 2b2f 683d 6c9d 623c
00000210: e328 943d 9d1e d93c e34d bbbc 1c0a 3abd
00000220: 7bc2 ec3c ff58 c6bc 2308 a03c c09a 9abd
00000230: dade 27bd 01e1 e93c 9ebe 7d3c 5506 5e3d
00000240: f8b7 863d 953e e63c 521e da3c 099d 763d
00000250: b41b 26bd a0c5 97bd 2084 393c da53 52bd
00000260: 50ca 2e3d a132 88bc 0796 3c3d bafb 87bc
00000270: 269a 19bd 008c 753b 991f 8bbc d4e0 c9bc
00000280: 2c93 0b3d 108a c03d 98e9 543d e308 5a3c
00000290: bb1b c73c 29be bf3b b06f edbc 4781 7cbd
000002a0: fd46 913a 50ae 443c 60fb 3bbc 2252 333d
000002b0: ba1f 423d 6aa1 b33d 4331 bbbd fd79 4abd
000002c0: 63e0 213c 8a9e 48bd 346f acbb 80d6 0b3c
000002d0: 810e fdbc 6c73 4a3c fe6f 8a3d caae 58bd
000002e0: 2ac3 213d 55f5 613d 22ee 87bd 3d96 5fbc
000002f0: abc1 463d 315e fb3c 77c7 7e3d 8951 0dbd
00000300: 4bd5 de3c 2d81 97bd 5e35 dbbc 811e 81bc
00000310: fd63 273d 7b4e 5e3d bf41 29bd fd47 c0ba
00000320: e566 7cbd 1cef a7bb 07f5 efbc 2a21 3d3c
00000330: 8820 30bd 0314 5bbd 3af8 1a3d d3db 4abd
00000340: 1e4e 78bc a019 86bc d105 cebd 6114 b7bd
00000350: e852 9cbd 220e 26bc 53da cbbb e1ef 5a3c
00000360: 7194 92bc 52f8 363d f19e e33c de7a 923d
00000370: 4ce6 a23c c63b 17bd 7356 d63c d339 9abc
00000380: eede 4d3d 438a fc3b 5243 173d d75c 593d
00000390: ea95 b93d 0fa4 853c ce3d 47bd 3c94 463c
000003a0: 4675 153d 54b6 a0bd 02eb c8bb 775a a73d
000003b0: 67e0 90bc ce6d 2bbd 3227 87bc 37ca 483c
000003c0: a144 93bc d8e4 08bd 7174 093d 466a 393a
000003d0: cd03 023d e5a8 19bd 262b 0c3d e331 2bbc
000003e0: 13e1 98bd 9c5f cfba b541 953c 695f b13c
000003f0: 7843 4abc d8af dcbb 8e6c b6bd f97e b13c
0.009011011 -0.03674331 0.07077577 0.04977276 -0.02295989 0.025208822 -0.014168433 -0.023408445
0.0071666283 0.031167341 0.06898657 -0.08312803 0.037907492 -0.022668974 0.021004155 -0.012070011
-0.031345464 -0.006296097 0.07011942 -0.008212156 0.0030043505 0.013103024 0.035013065 -0.015261403
-0.0032370528 -0.0072421995 0.033030197 0.03799591 0.049403604 -0.01726659 -0.031957947 0.09831341
0.025508432 0.034003556 0.123053014 0.04210646 0.058369827 0.041522507 -0.08786675 -0.00635387
0.01829745 0.03475606 -0.017730974 0.044112876 -0.00171461 -0.0513847 0.004357488 0.07759201
0.058800332 -0.013696506 0.017214732 -0.005116857 0.03466364 -0.047714725 -0.02896663 -0.004529913
-0.006950063 -0.03666301 -0.06340271 0.0076690144 -0.06366479 -0.009355287 0.06816931 -0.07664043
0.035711348 0.07430479 0.007839952 -0.04392344 0.023718229 0.023614978 -0.044124663 -0.08030635
-0.002386161 -0.02761214 -0.006150786 0.048741404 -0.025859907 0.0013614697 -0.078345485 -0.05811274
-0.05658082 -0.04046359 -0.011351825 0.046126805 -0.059173346 -0.015014164 -0.011459614 0.053617988
-0.007815266 0.020846859 0.012308984 -0.007637436 -0.080095194 0.007587288 -0.05030495 0.0895677
-0.09369453 0.056543563 -0.055300597 -0.022155598 -0.0024730046 0.010168995 0.0101694325 0.038406994
-0.0453181 -0.027770855 -0.06523014 -0.040323485 0.06452898 -0.081447616 -0.035248686 0.027214024
0.00028962086 0.04321428 0.019826872 -0.051782396 -0.027156511 -0.07339842 0.012058917 0.033470575
-0.08237273 0.046800856 0.032964583 0.0060587386 -0.110344835 -0.035573967 0.021959081 -0.03383306
-0.0055559436 0.02150319 0.056685608 0.013831478 0.07234361 0.026503855 -0.022864288 -0.045419797
0.02890133 -0.024212359 0.01953513 -0.075490475 -0.040984012 0.028549673 0.015487341 0.054205257
0.06578058 0.028106013 0.026625786 0.060208354 -0.040553764 -0.07410741 0.011323005 -0.0513495
0.04267341 -0.016625704 0.046041515 -0.016599525 -0.037500523 0.003746748 -0.01698284 -0.02464334
0.0340759 0.09401333 0.051980585 0.013307783 0.024305215 0.0058515263 -0.02898392 -0.061646726
0.0011083778 0.01200445 -0.011473507 0.0437795 0.047393538 0.08771022 -0.09140255 -0.049432743
0.009880158 -0.04897932 -0.00526228 0.0085350275 -0.030890705 0.01235662 0.06759642 -0.052901067
0.039492764 0.055165607 -0.06637217 -0.013646659 0.04852454 0.030684562 0.062201943 -0.034501586
0.027201315 -0.07397685 -0.026758846 -0.015761616 0.04086684 0.054274064 -0.041322466 -0.0014669892
-0.061621565 -0.0051249396 -0.029291643 0.011543551 -0.042999774 -0.05348588 0.037834384 -0.049526047
-0.015155343 -0.01636964 -0.10059703 -0.08939434 -0.076330006 -0.010135205 -0.0062210946 0.013362856
-0.017893048 0.04467041 0.02778575 0.07152341 0.019885205 -0.03692224 0.02616427 -0.0188264
0.05026143 0.007706912 0.036929436 0.053067055 0.09061797 0.01631358 -0.048642926 0.012120303
0.036488794 -0.07847276 -0.0061315307 0.08171552 -0.017685128 -0.041852765 -0.016498182 0.012255243
-0.01797706 -0.033421367 0.033558313 0.0007073026 0.031741906 -0.037514586 0.034220837 -0.010448906
-0.074648045 -0.001582134 0.018219808 0.02165194 -0.012345187 -0.0067348294 -0.08907424 0.02166699

enc_5.2.bias f4 [32]
00000000: 6d14 07be 7ffc d83d e3e3 603d 1c89 8cbc
00000010: 01cc 1dbd 8dcf d8bd 1896 8cbd f632 5cbc
00000020: 5ac7 05be 8445 8f3d b4a1 2c3d fb6f a4bd
00000030: d9a7 39bb 7b29 e33b 2f17 8ebd cc9e 00bb
00000040: eb31 7d3d 5fc6 943d 5d22 e2bd 363e ce3c
00000050: b2cb 00bd faea 29bc e529 7c3d 6bf6 5fbc
00000060: 09ab d4bd ee95 f53d 292d 433d f0da 31bd
00000070: be5d 233d 6fc7 84bd 8e14 3abe 950c 4bbd
-0.13191386 0.10595035 0.05490483 -0.017155223 -0.03852463 -0.10586462 -0.068645656 -0.013439884
-0.13064328 0.06995681 0.0421464 -0.08029171 -0.0028328805 0.006932435 -0.06938016 -0.00196259
0.061815184 0.07264399 -0.110417105 0.025176149 -0.03144426 -0.010370964 0.06156339 -0.0136695905
-0.10384185 0.119914874 0.04765049 -0.043421686 0.03988432 -0.064833514 -0.18171903 -0.049572546

enc_6.1.weight f4 [64, 32, 3, 3]
00000000: 74cf 063c 8c3f a3bc 4e83 6e3d d435 d83c
00000010: 2993 043b 4c31 a03b 498d 463d 9365 d43d
00000020: 4113 4e3d 6e76 1dbd 5efe 8bbc d0d7 783b
00000030: 44be 78bd 07f4 203d b557 62bc 3f29 443c
00000040: b490 613c 65df 4fbd a1b6 a43c 4822 edbc
00000050: 2521 69bd 9212 943c 744f d2bc 10a7 2a3d
00000060: 7a3e 82bd 6eda 10bd 7510 bbbb 12ee 083c
00000070: 524f 0e3d 3973 1dbd 0faa 9bbc 52e7 ffbc
00000080: e6e7 433c c5c6 373c 3a36 a53d dda4 853d
00000090: a1d5 87bc d5cf 31bd 1298 7d3d cf8b 923c
000000a0: 1869 703c 0882 673d a503 20bd 89ea 73bd
000000b0: 6a74 663d 8281 20bd 53fd 7c3d 3b0e 7abd
000000c0: bfd1 84bc 19a3 773d ee55 6abd 772f 923c
000000d0: 8cb6 bfbb d7e6 ec3c abfb c6bd 66ef 5cbd
000000e0: 1f51 903c 91c4 42bd 555c e4bc 6191 a83c
000000f0: a42a 3fbd 3dfa 143d 9839 97ba b73d 2ebc
00000100: 3504 4b3c f58f 03bd bf4b febc 6ab7 c03a
00000110: 4354 aabc f3cc 373d aeed 7e3d c6d9 90bb
00000120: c819 75bc 304e 2bbc 3e83 01bb 9249 10bd
00000130: 81b1 2f3d 3870 923c ae12 943c 29ec 593d
00000140: 5d5a 00bd 5d3c 2bbd beaa 303d 6024 893c
00000150: 085b 12bd 4bca 8ebc 4e28 b7bc eac3 21bc
00000160: db56 873d 4e37 09bd 300d 513d 31fc d23c
00000170: 113d d33c e3fd 213c dc67 023d 11ce 4f3d
00000180: 09a4 303c 1e7f d7bb 684d 3ebd 4627 dabc
00000190: ec70 a43c f7c8 2fbd a61b 51bd b753 8f3c
000001a0: 9468 84bc 77e0 cebc 52d0 363d ede1 7c3d
000001b0: e92b 653d c18d de3c 541c 35bd f47c 2c3d
000001c0: afd1 6a3c 2e12 58bd e29f 723d 1070 c4bb
000001d0: 4d51 153d a13d 26bd 1522 0b3d 475a f43c
000001e0: 303a e1bc 77c7 82bd 1d9d 6f3d a956 01bb
000001f0: 16ca eebc 63c2 45bd 0ceb 43bc 1af7 d13c
00000200: c288 76bd 6fbd a2bc 831b 4bbd 6745 6f3d
00000210: 1c4a 89bc 83dc 3a3c ba0b f2bb 32ea 5cba
00000220: 1e73 cb3b dcf8 4c3d 17a5 443d e27d 043d
00000230: ffa1 5fbc 47b0 d43d 49ec 5dbd f96e 7ebc
00000240: adea 78bd b41a 353d c0eb ee3c 530f e83c
00000250: 9d6d 78bc 5826 12bd 02f4 093d b43c e13c
00000260: a82e 1fbb 655c e33c 95ff afbc ec7c 2abd
00000270: d448 123d a9db cebb 1bad 9abc cfd8 b93a
00000280: 6d9b e03c 2be3 bc3c 807a 6abc fabe 9d3d
00000290: 6419 ac3d 39f9 2ebd 46f8 47bc 1181 a9bc
000002a0: fd5d a9bc 1c40 0abd 5fe8 793d 25cc 823d
000002b0: 541c adbc 37f2 b23d c6b9 153c 71af 673d
000002c0: 4ed1 a53d 2503 39bd c1f4 72bd ef32 a33d
000002d0: 54b6 093c dbd2 32bd cb48 44bc 9f00 373c
000002e0: 37b9 9ebc 632a a83d 7d61 4a3d 33c0 f83c
000002f0: f4d5 90bb bf7d 34bd b979 a33c 49af abbd
00000300: 9e31 35bd 9b52 16bd cdfe 603c 4b17 23bc
00000310: 0eb1 80bd 9a2a 203d e63e 88bc ead7 c33c
00000320: 522c 253d 14e6 a63c 3962 a23c f90b 05bd
00000330: f67e 593d b66d 983d 0bf5 b9bc 690c 5abd
00000340: 778b 663b c850 ce3c c08c 02bd 7704 0bbd
00000350: 9f1d f93c 58db b23c 3efa 5dbc 820b 653c
00000360: eb07 77bc 9ab5 00bd 6b9b 4e3d a274 9cbd
00000370: 107f 2a3c 87e3 5d3b e82c 6fbd cf3c 6e3c
00000380: b544 5bbb 2326 ffba 7447 f23a 58e0 6f3d
00000390: 19bb 31bc 751a 1e3d 1bb3 053d dcab 12bb
000003a0: fe38 92bd ec11 373d f268 fbbc 08c9 e53c
000003b0: ac61 1c3c 7fdc 79bd 5521 323c e6dd 3a3d
000003c0: 48c0 2dbd 9c51 d9ba 200b a23c c772 863c
000003d0: 59fe 4abd d73a 133d b289 7e3c 1538 00bd
000003e0: cce9 97bc 6735 adbc 49c4 d9bc f7f0 11bd
000003f0: d9ca 853d ed1d ebbc 7d4e be3c 0778 89bd
0.008228172 -0.019927762 0.05823069 0.026392855 0.0020229316 0.004888689 0.048474584 0.10370936
0.05031133 -0.03844302 -0.017089065 0.003797043 -0.060728326 0.039295223 -0.013814856 0.011972724
0.01376741 -0.050750155 0.020106615 -0.02894701 -0.056916375 0.018075261 -0.025672652 0.04166323
-0.06359573 -0.03536456 -0.005708749 0.008357542 0.034743614 -0.038439963 -0.019001989 -0.031238232
0.011957144 0.011216824 0.080669835 0.06525586 -0.016581358 -0.043411095 0.061912604 0.017888932
0.014673494 0.05652049 -0.039065976 -0.059549842 0.056263365 -0.03918601 0.061765026 -0.061048727
-0.016213296 0.060458276 -0.057210855 0.017844899 -0.0058506187 0.028918667 -0.097159706 -0.053939246
0.017616807 -0.04755074 -0.027876059 0.020577135 -0.046671525 0.03637146 -0.001153755 -0.010634831
0.01239114 -0.03211971 -0.031041978 0.0014703099 -0.020792132 0.04487319 0.062238388 -0.004420492
-0.01495976 -0.010455653 -0.0019762064 -0.035226412 0.04289389 0.017875776 0.018075313 0.053203736
-0.031336177 -0.041805614 0.043131582 0.016740978 -0.035731345 -0.017430445 -0.022358086 -0.00987337
0.06608363 -0.03350001 0.051037967 0.02575502 0.025785955 0.0098871915 0.03183733 0.05073363
0.0107812965 -0.006576433 -0.04646054 -0.026630055 0.020073377 -0.042916264 -0.05105176 0.017495973
-0.016163148 -0.025253518 0.044632263 0.061738897 0.05595008 0.027167203 -0.04421647 0.042111352
0.014332219 -0.052751713 0.059234507 -0.005994804 0.036454488 -0.040586118 0.03396805 0.029828204
-0.027493566 -0.06385701 0.058499444 -0.0019735491 -0.029149096 -0.048281085 -0.011957895 0.025630523
-0.060189016 -0.01986572 -0.049586784 0.058415797 -0.01675897 0.011405113 -0.007386652 -0.0008427232
0.0062087914 0.05004202 0.048009004 0.032346614 -0.013649463 0.10385185 -0.054180417 -0.015529388
-0.06077068 0.04421492 0.029165149 0.02832762 -0.015162853 -0.0356811 0.03367997 0.027494766
-0.0024289284 0.027754018 -0.021484176 -0.04162304 0.035713986 -0.0063128066 -0.018881371 0.0014178994
0.027417863 0.02305754 -0.014311433 0.077024415 0.084032804 -0.042718146 -0.012205189 -0.020691426
-0.0206747 -0.033752546 0.061012622 0.06386594 -0.021131672 0.08737605 0.00913853 0.0565638
0.08096562 -0.045169014 -0.059315447 0.07968699 0.008405287 -0.04365812 -0.011980246 0.011169582
-0.019375427 0.082112096 0.04940938 0.030365085 -0.0044200365 -0.044065233 0.019955503 -0.08383042
-0.04423677 -0.036699872 0.013732624 -0.009954284 -0.062837705 0.039103128 -0.016631555 0.023906667
0.04032547 0.020373382 0.019822227 -0.03248212 0.053099595 0.07442801 -0.022699853 -0.05323449
0.0035178342 0.025185004 -0.03187251 -0.033939805 0.030409632 0.021833107 -0.013548432 0.013979794
-0.015077571 -0.03142319 0.050441187 -0.076394334 0.010406271 0.003385754 -0.058392435 0.014540865
-0.00334577 -0.0019466322 0.001848443 0.05856356 -0.01084783 0.03859945 0.03264151 -0.0022380268
-0.07139777 0.044694826 -0.03068969 0.02804996 0.009544771 -0.061001297 0.010872205 0.045621775
-0.0424197 -0.0016580108 0.019780695 0.016412152 -0.04955897 0.035944786 0.015535759 -0.031303484
-0.0185441 -0.021143628 -0.026582854 -0.035630193 0.06532831 -0.028700793 0.023230786 -0.067123465

enc_6.1.bias f4 [64]
00000000: c2e2 983d cd87 04be 99b8 043e 74ec 8239
00000010: ca17 463c 28dc 42bc a1b8 0bbc c85a 1d3c
00000020: b002 ea3c 5d2a ce3c 9dd6 003d 303a ff3d
00000030: ace3 943c 077c 7dbc 2f0e 913d c9f9 c63d
00000040: 7f98 8fbc 4da1 00bd 7e2a 94bc 0e48 20be
00000050: 673c be3d 05ca c73d fb16 efbb e8ef dbbc
00000060: e7f8 adbd e4b2 983c ba7e 00be 706f 013e
00000070: f7e8 0d3d 3df9 923d 83d9 ad3d 4afc adbd
00000080: 8ead de3c ec2c f03d dd0f 8f3d bdb3 3c3d
00000090: 8c97 0e3e 1b73 7fbd 21c1 453d 1a59 c6bd
000000a0: 395c f43c 0003 51bc 0ef9 16be e5a0 a3bd
000000b0: c8ce 19bd a0d0 e0bc 6644 883d 8575 b6bd
000000c0: 1ded 103d 249d f9bc fbc9 653d 4555 0b3e
000000d0: bb8b 053c 1fbe 973d e551 55bd c1e0 2c3d
000000e0: 4b55 053d 60f7 0f3e fd25 38bc 91f4 16be
000000f0: 3bd2 01be 1f10 b33c c011 053e ed6b 1cbd
0.074651256 -0.12942429 0.12961043 0.00024971704 0.012090633 -0.01189331 -0.008527906 0.0096041635
0.028565735 0.025166685 0.03145467 0.1246227 0.018174969 -0.015471465 0.070827834 0.097156115
-0.01752877 -0.03140383 -0.018086668 -0.15652487 0.092888646 0.09755329 -0.0072964407 -0.026847795
-0.0849474 0.01863999 -0.12548342 0.12640166 0.034646 0.07176445 0.08488753 -0.08495386
0.027182367 0.11727318 0.069854476 0.04606985 0.13924998 -0.062365633 0.048279885 -0.096849635
0.029829131 -0.012757063 -0.14743444 -0.079896726 -0.037550718 -0.02744323 0.06653671 -0.08909134
0.03538238 -0.030470438 0.056100827 0.13606746 0.00815099 0.074093096 -0.052080054 0.04220653
0.032552045 0.1405921 -0.011239526 -0.14741732 -0.12677853 0.021858273 0.12995052 -0.038188864
