reconstruction.pth (torch, 716370 bytes, 56 tensors)

enc_1.0.weight f4 [3, 3, 3, 3]
0.06725659 -0.026922664 0.091372535 0.020317106 0.16291362 0.0427559 0.17987172 0.1934113
-0.010701455 -0.037819624 0.1174282 0.11268654 0.089119405 -0.00077908806 0.10284989 -0.051194478
0.20144847 0.08734498 -0.030090073 0.0014921788 -0.17864649 -0.036634825 0.025718546 0.06765884
0.23478836 0.14415365 -0.11904026 -0.25064847 0.0035715138 -0.22868922 0.07777404 -0.16932915
-0.08194492 -0.022081872 0.11600656 -0.17489775 -0.11996411 -0.08294889 -0.058512885 -0.010361466
0.041030012 -0.023374818 -0.08350342 0.23578128 -0.09765415 -0.12956679 -0.107302286 0.091027826
-0.07691512 0.06562823 0.12126437 0.19522366 0.1395819 -0.2024604 0.03815355 -0.17832921
0.029947957 0.06947486 0.087194875 0.112542 -0.1361157 -0.16414571 -0.045067295 -0.13135491
0.1932662 -0.14018044 -0.07550891 0.04083677 0.021044318 0.057927974 0.09631874 0.075893864
0.255772 -0.07835353 -0.06839411 0.2384478 0.058277283 0.10617879 0.1457777 -0.15921138
0.014709775
00000000: d3bd 893d eb8c dcbc 8621 bb3d 0f70 a63c
00000010: d4d2 263e d020 2f3d 4b30 383e 9d0d 463e
00000020: 2855 2fbc c0e8 1abd 327e f03d 33c8 e63d
00000030: 3c84 b63d b73b 4cba f7a2 d23d 4db1 51bd
00000040: 8248 4e3e ede1 b23d 757f f6bc 3695 c33a
00000050: 1bef 36be 660e 16bd b3af d23c b890 8a3d
00000060: 5c6c 703e 049d 133e 61cb f3bd ff54 80be
00000070: 0f10 6a3b 822d 6abe ff47 9f3d 9f64 2dbe
00000080: bdd2 a7bd 0be5 b4bc d994 ed3d 6518 33be
00000090: beaf f5bd 1ce1 a9bd 35ab 6fbd 23c3 29bc
000000a0: 160f 283d 8c7c bfbc d703 abbd a670 713e
000000b0: e6fe c7bd 28ad 04be 4dc1 dbbd cc6c ba3d
000000c0: ad85 9dbd 1868 863d 7459 f83d b6e8 473e
000000d0: 8fee 0e3e c751 4fbe e646 1c3d ef9b 36be
000000e0: 6b55 f53c d648 8e3d 3a93 b23d 6c7c e63d
000000f0: ea61 0bbe d015 28be 7c98 38bd e781 06be
00000100: 93e7 453e 768b 0fbe 6aa4 9abd 7544 273d
00000110: 2265 ac3c e245 6d3d c242 c53d 3e6e 9b3d
00000120: 8cf4 823e d177 a0bd 3612 8cbd a92b 743e
00000130: 29b4 6e3d 4474 d93d c046 153e 4f08 23be
00000140: 4501 713c

enc_1.0.bias f4 [3]
-0.12299658 0.09952923 0.3228773
00000000: a2e5 fbbd fbd5 cb3d 2c50 a53e

enc_1.1.weight f4 [3, 3, 3, 3]
0.06288231 0.09282431 -0.13258474 -0.0017589519 0.052188125 -0.008871687 -0.11743959 0.07985882
-0.20199808 0.22038844 -0.032408465 -0.03519124 0.10448963 0.20293629 0.02824884 -0.14414199
0.16487235 -0.08616585 -0.06725618 -0.06567925 0.15181237 0.10269337 0.23176497 0.05999743
0.09354851 0.14362748 0.1483231 0.009563712 0.05035976 0.11297116 0.17439565 0.07865473
0.18965307 -0.019018311 -0.06323369 0.06503973 -0.1556839 -0.024417 0.1714986 0.06922828
-0.18199816 -0.17786574 -0.07530618 0.14641605 -0.08518409 -0.027810749 0.032985408 0.16147803
0.18023221 0.056905586 0.18003862 0.04999358 0.01373181 0.117821105 -0.22557002 0.16977598
0.040245898 -0.11310932 0.06705684 0.07780283 0.13925141 0.014360539 -0.099334635 -0.18504936
0.08569947 -0.15707193 0.1680139 -0.08808501 -0.029021705 0.3046483 -0.012380322 -0.22965683
-0.10111426 0.09042048 0.12500721 -0.21061762 0.17464878 0.12230194 -0.049392592 -0.0067186984
-0.06046733
00000000: 71c8 803d ac1a be3d 4bc4 07be a28c e6ba
00000010: 37c3 553d 8d5a 11bc 2b84 f0bd 058d a33d
00000020: 96d8 4ebe 82ad 613e bdbe 04bd b124 10bd
00000030: a9fe d53d 88ce 4f3e 1c6a e73c f599 13be
00000040: 4cd4 283e b977 b0bd 9cbd 89bd d882 86bd
00000050: b474 1b3e e750 d23d cc53 6d3e ddbf 753d
00000060: 5c96 bf3d 1513 133e 03e2 173e 1eb1 1c3c
00000070: 0946 4e3d 6c5d e73d c694 323e bb15 a13d
00000080: 6a34 423e 4acc 9bbc aa80 81bd 8d33 853d
00000090: 9a6b 1fbe 2906 c8bc 549d 2f3e 8ec7 8d3d
000000a0: ba5d 3abe 7022 36be 203a 9abd 17ee 153e
000000b0: ff74 aebd 5ed3 e3bc b51b 073d 7f5a 253e
000000c0: cb8e 383e d515 693d 0b5c 383e 11c6 4c3d
000000d0: 63fb 603c 314c f13d d4fb 66be c1d9 2d3e
000000e0: e2d8 243d dca5 e7bd 1955 893d 1757 9f3d
000000f0: ec97 0e3e 7748 6b3c f56f cbbd 947d 3dbe
00000100: 3483 af3d 77d7 20be d60b 2c3e ea65 b4bd
00000110: edbe edbc ddfa 9b3e d6d6 4abc 292b 6bbe
00000120: fe14 cfbd 5f2e b93d e401 003e 25ac 57be
00000130: 21d7 323e 7179 fa3d e34f 4abd 8728 dcbb
00000140: 97ac 77bd

enc_1.1.bias f4 [3]
0.45861703 0.008461332 0.4976111
00000000: dacf ea3e 66a1 0a3c e2c6 fe3e

enc_2.1.weight f4 [3, 3, 3, 3]
-0.16612716 -0.03822164 -0.03554629 0.00078017963 -0.07429431 -0.13542344 0.04498896 0.09815601
0.21624832 -0.036002938 0.054706324 -0.16012609 0.1678809 0.16687441 0.065729834 0.11735736
-0.043920383 -0.074563295 0.19803885 -0.026017765 -0.08192424 -0.061953515 -0.12767345 0.0093766535
0.12624747 0.12287879 0.1140423 -0.126653 -0.122104295 -0.022667421 0.02091782 -0.04879823
-0.054434624 -0.035029598 0.039575648 -0.12127056 -0.00014131765 -0.0005181105 -0.068015896 -0.015510794
-0.1820141 -0.04795956 0.020888476 0.18254103 0.18574138 -0.1594608 -0.017905565 -0.1121013
0.14457093 -0.09668204 0.03043851 -0.26725358 -0.20389737 -0.06367686 -0.00769868 -0.17150845
-0.12745601 0.071890675 -0.16715443 -0.17417896 -0.04299901 0.07812835 0.1150164 -0.03262686
-0.18924727 -0.03626732 -0.18362714 -0.16877922 0.10709048 -0.16213173 -0.042184886 0.0072713676
0.12344947 0.017899508 0.19164287 0.06724701 0.05574154 -0.098995514 0.03266758 0.110549666
0.08123777
00000000: 3d1d 2abe 4b8e 1cbd fd98 11bd f884 4c3a
00000010: 9d27 98bd 71ac 0abe 5846 383d 0506 c93d
00000020: 3370 5d3e d177 13bd bd13 603d 18f8 23be
00000030: f8e8 2b3e 20e1 2a3e 5d9d 863d 0e59 f03d
00000040: dce5 33bd a4b4 98bd b2ca 4a3e 3523 d5bc
00000050: e5c7 a7bd f8c2 7dbd d4bc 02be 89a0 193c
00000060: 0447 013e e0a7 fb3d 028f e93d 53b1 01be
00000070: d111 fabd 07b1 b9bc d95b ab3c a7e0 47bd
00000080: d7f6 5ebd 327b 0fbd 131a 223d b35c f8bd
00000090: ab2e 14b9 cfd1 07ba eb4b 8bbd fc20 7ebc
000000a0: e761 3abe 3e71 44bd 4f1e ab3c 09ec 3a3e
000000b0: fd32 3e3e b149 23be b1ae 92bc 5e95 e5bd
000000c0: 670a 143e 3c01 c6bd 2f5a f93c 76d5 88be
000000d0: 79ca 50be 0369 82bd 3545 fcbb e99f 2fbe
000000e0: d483 02be 6b3b 933d 882a 2bbe f85b 32be
000000f0: bb1f 30bd c201 a03d b88d eb3d bea3 05bd
00000100: 09ca 41be 0b8d 14bd c108 3cbe 76d4 2cbe
00000110: 4152 db3d dc05 26be 0fca 2cbd a744 ee3b
00000120: 13d3 fc3d fda1 923c 073e 443e cdb8 893d
00000130: 3e51 643d 29be cabd 71ce 053d dd67 e23d
00000140: fd5f a63d

enc_2.1.bias f4 [3]
0.058695924 0.043406613 -0.02359975
00000000: 236b 703d 22cb 313d 4354 c1bc

enc_2.2.weight f4 [3, 3, 3, 3]
-0.15015389 0.06370039 0.080416195 -0.19134822 0.034606032 0.12812681 -0.14348786 0.12433442
-0.051749468 0.07803343 -0.12884685 -0.19471458 -0.08091748 -0.01371273 -0.0947796 0.0808663
-0.0031997366 -0.196514 0.11118407 -0.09984626 0.022706348 0.115398854 0.15707557 0.11970541
0.103561476 0.053126667 0.09287306 0.13576496 0.17105521 -0.044611875 0.20173264 0.20886596
0.01936207 0.17784475 0.16587949 -0.11026865 0.113630265 0.008861214 -0.108595125 -0.15945667
0.14315894 0.019839605 -0.08251128 -0.05419774 0.013343484 0.049328756 -0.014983397 -0.19610572
0.028431613 -0.12611522 0.06371441 0.06913064 -0.11868797 -0.032385655 0.022662256 0.109658375
0.19150607 -0.25854975 0.027049491 -0.13705933 -0.12647648 0.08276401 0.07193999 -0.15052883
0.07041924 -0.1880251 0.04057967 0.14849265 0.12878957 0.17172237 -0.048058245 -0.027658075
-0.1591022 0.01293684 -0.082852 -0.15258525 0.12691073 -0.085429296 0.13679501 0.19883567
0.042345077
00000000: f1c1 19be 5a75 823d 3fb1 a43d caf0 43be
00000010: 0ebf 0d3d ad33 033e 7bee 12be 0ba3 fe3d
00000020: 40f7 53bd fecf 9f3d 6ef0 03be 4263 47be
00000030: 10b8 a5bd 5cab 60bc cf1b c2bd 3b9d a53d
00000040: acb2 51bb f73a 49be 79b4 e33d 327c ccbd
00000050: aa02 ba3c 3c56 ec3d 6bd8 203e 1c28 f53d
00000060: 0a18 d43d 599b 593d 3b34 be3d f805 0b3e
00000070: 1929 2f3e f1ba 36bd 0093 4e3e f5e0 553e
00000080: 349d 9e3c ef1c 363e 50dc 293e 88d4 e1bd
00000090: fcb6 e83d a02e 113c 1f67 debd 9c48 23be
000000a0: 4298 123e ab86 a23c adfb a8bd 73fe 5dbd
000000b0: a19e 5a3c f30c 4a3d ec7c 75bc f0cf 48be
000000c0: 6ae9 e83c 5924 01be b37c 823d 5d94 8d3d
000000d0: ae12 f3bd d2a6 04bd 32a6 b93c 9294 e03d
000000e0: 2b1a 443e a260 84be e596 dd3c 4859 0cbe
000000f0: 0d83 01be 2d80 a93d 4655 933d 3b24 1abe
00000100: f637 903d a789 40be de36 263d 750e 183e
00000110: 6ae1 033e fdd7 2f3e b9d8 44bd 3093 e2bc
00000120: b0eb 22be 0af5 533c 4fae a9bd 4f3f 1cbe
00000130: e3f4 013e 8ef5 aebd fe13 0c3e 949b 4b3e
00000140: 0872 2d3d

enc_2.2.bias f4 [3]
-0.035723694 0.22761899 -0.09362112
00000000: 0253 12bd f414 693e 6ebc bfbd

enc_3.1.weight f4 [3, 3, 3, 3]
-0.09242756 0.07612355 0.017356705 -0.10860811 -0.17764632 0.0632712 0.16100438 -0.008146485
-0.08486226 0.036092937 0.21680404 -0.0049767527 0.036934566 0.07891519 0.09934026 0.10795947
0.062060576 0.045729667 -0.06301094 -0.1996288 -0.08374921 0.23934121 0.14173073 0.02988073
-0.04832015 0.16301848 -0.04395903 0.060932 -0.17691685 -0.1483661 0.08282574 -0.09711985
-0.11435524 -0.12911755 0.03394453 0.13202435 0.023598647 -0.07022332 0.118929975 0.109916046
-0.08390517 0.09859797 -0.009286005 -0.19640777 -0.022957321 0.253365 -0.12416057 0.16080813
-0.068002485 -0.048517946 0.02387832 0.19684431 0.035394836 -0.12570666 -0.1294874 0.07148734
-0.08399879 -0.080525026 0.14962651 -0.18024617 -0.032989293 -0.035984173 0.06964199 -0.05778403
-0.09850928 -0.08230092 0.052491445 -0.057857938 -0.027474629 0.1777089 0.060133033 -0.05498917
0.023912214 0.19745155 -0.06234607 -0.23250209 -0.19639374 -0.23042223 0.022242468 0.015112855
0.052252844
00000000: a94a bdbd aae6 9b3d a62f 8e3c ee6d debd
00000010: ebe8 35be 5594 813d 55de 243e d678 05bc
00000020: 44cc adbd 30d6 133d e101 5e3e 0714 a3bb
00000030: b348 173d 4a9e a13d e872 cb3d db19 dd3d
00000040: 3b33 7e3d 084f 3b3d e10b 81bd 7e6b 4cbe
00000050: b584 abbd dd15 753e dc21 113e 6fc8 f43c
00000060: 59eb 45bd 51ee 263e 620e 34bd d593 793d
00000070: b129 35be 48ed 17be 8ba0 a93d c6e6 c6bd
00000080: 1433 eabd 6437 04be 6b09 0b3d 6431 073e
00000090: f351 c13c 3ed1 8fbd 8f91 f33d aa1b e13d
000000a0: 79d6 abbd bced c93d 5424 18bc 1e1f 49be
000000b0: fe10 bcbc 0fb9 813e e647 febd e3aa 243e
000000c0: e344 8bbd c1ba 46bd 779c c33c 8e91 493e
000000d0: 2dfa 103d 3fb9 00be 5898 04be f467 923d
000000e0: 8f07 acbd 4eea a4bd b137 193e 7492 38be
000000f0: c81f 07bd 2464 13bd 76a0 8e3d f2ae 6cbd
00000100: 3cbf c9bd 628d a8bd 4501 573d 72fc 6cbd
00000110: 7912 e1bc 52f9 353e 0e4e 763d 533c 61bd
00000120: 8ce3 c33c bd30 4a3e 985e 7fbd 0715 6ebe
00000130: 711b 49be cef3 6bbe d635 b63c e89b 773c
00000140: 1407 563d

enc_3.1.bias f4 [3]
0.14333224 0.019307066 -0.28512555
00000000: b0c5 123e da29 9e3c fafb 91be

enc_3.2.weight f4 [3, 3, 3, 3]
0.058307532 0.10897728 -0.0006971186 0.18465836 -0.14878555 0.1672648 0.152057 0.0361473
0.0026387812 0.094472885 -0.10889985 0.078329206 0.05472074 0.17300908 0.1016262 0.07999595
0.090269096 0.051701054 0.0755615 -0.024803242 0.120646596 -0.07271786 0.05707057 -0.11906565
0.010549815 -0.040045902 0.1271879 0.07829761 0.16928954 -0.075256206 -0.17127018 -0.20159392
-0.19456413 -0.15653415 -0.0077262083 -0.12838417 0.10761851 0.050834693 0.0505768 -0.0024848967
0.23255795 0.046119913 0.11337129 0.044679347 0.0044467184 -0.13051969 0.018668823 -0.19049174
0.123592906 0.040059306 -0.026829218 -0.05463586 0.021616172 0.03775447 -0.096057564 -0.038444266
0.13989697 -0.027096381 0.07240352 0.05362827 0.005191135 -0.17786905 -0.17068638 0.04827958
0.16743395 0.08409808 0.024764966 0.18341367 0.15079725 0.058453616 0.086006835 -0.14064121
0.13263851 0.2691629 0.26521105 0.18763791 -0.22465596 -0.06243471 0.1614723 0.12426155
-0.059067097
00000000: e1d3 6e3d 7b2f df3d d6be 36ba 1517 3d3e
00000010: 3d5b 18be 7747 2b3e d5b4 1b3e 310f 143d
00000020: 67ef 2c3b 007b c13d e206 dfbd 106b a03d
00000030: db22 603d 4b29 313e 6621 d03d ebd4 a33d
00000040: 01df b83d 7cc4 533d fdbf 9a3d 2b30 cbbc
00000050: 9015 f73d 1aed 94bd d4c2 693d b1d8 f3bd
00000060: 22d9 2c3c 2c07 24bd 8b3d 023e 7f5a a03d
00000070: 3d5a 2d3e ed1f 9abd 7361 2fbe a36e 4ebe
00000080: d23b 47be 7d4a 20be 222c fdbb 2477 03be
00000090: 1867 dc3d 0a38 503d 9e29 4f3d a6d9 22bb
000000a0: ac23 6e3e 3ce8 3c3d 352f e83d b101 373d
000000b0: c7b5 913b f4a6 05be 5cef 983c 4410 43be
000000c0: 471e fd3d 3a15 243d f3c8 dbbc dac9 5fbd
000000d0: 6614 b13c 6ea4 1a3d d4b9 c4bd bc77 1dbd
000000e0: 2741 0f3e 3bf9 ddbc 4c48 943d 51a9 5b3d
000000f0: 661a aa3b 4e23 36be 69c8 2ebe cfc0 453d
00000100: ce73 2b3e 9d3b ac3d e6df ca3c cbd0 3b3e
00000110: 986a 1a3e 0f6d 6f3d 5a24 b03d 4004 10be
00000120: 64d2 073e b8cf 893e bec9 873e 2724 403e
00000130: 360c 66be 8abb 7fbd ff58 253e d77c fe3d
00000140: 57f0 71bd

enc_3.2.bias f4 [3]
0.14023815 -0.13070546 -0.09760089
00000000: 979a 0f3e a7d7 05be fae2 c7bd

enc_4.1.weight f4 [16, 3, 3, 3]
-0.13527933 0.16661032 0.012790271 0.1941916 -0.13315636 -0.102982104 -0.08773485 -0.09011272
0.18008947 -0.020824075 -0.055633973 0.17211694 0.08912706 -0.20373 0.22081105 -0.106259294
-0.023185967 0.019146305 0.0031831106 0.116881736 -0.10494525 0.011870148 -0.07861748 0.2485538
0.16647977 -0.11525762 0.18467587 0.055868335 0.011542911 -0.13659956 -0.03983555 0.2000893
0.16194929 -0.09295799 0.001949437 -0.079247385 -0.032491624 0.03972794 -0.16828415 0.16168188
0.08388352 -0.0147330975 -0.10417448 0.21650602 0.016248154 -0.25122988 0.033370074 0.036132406
0.038188845 -0.12285166 -0.14234453 0.08880081 0.26990205 0.16297449 -0.053229682 0.06778024
-0.11685676 0.12939076 -0.053729746 -0.08070341 -0.13389331 -0.046949714 -0.14023058 -0.06158999
-0.17264001 0.10461135 -0.16258113 -0.18588986 0.06453363 -0.1501739 -0.14699648 -0.09701294
-0.05945606 0.061670583 -0.07406321 -0.095316775 -0.036879178 0.09038443 -0.06419763 -0.045055583
-0.10775328 0.08048192 0.13053869 -0.13977484 0.075452745 -0.0012457557 0.0897311 0.20889093
-0.08355301 -0.1648832 0.17466216 -0.13314474 0.13365401 -0.073063456 0.030202618 0.19753756
0.025739068 0.01967644 0.035162568 0.023298608 -0.14935704 0.08356677 -0.0057169152 -0.036144435
0.09795442 -0.12338594 0.15649483 -0.14705826 0.1409726 -0.14733732 0.08524311 -0.12093491
-0.038209707 0.109676495 0.16900511 -0.018712789 0.038549695 0.11399369 0.08529844 0.16740339
0.004632982 0.069151215 0.21860784 -0.16411181 0.14544755 0.113638625 0.054445352 -0.1414654
-0.026605602 0.023065658 0.2064221 -0.081927285 0.008352696 0.16501398 -0.061723832 0.1680804
0.03157502 -0.0040962896 0.078796595 0.05420335 -0.12260802 -0.047352213 -0.13824928 0.029926721
0.19571938 -0.099969745 0.06911746 0.0674998 -0.018951122 -0.16377202 -0.16498761 -0.01731937
0.10367322 0.17465097 0.00033318443 -0.21039602 -0.026382532 0.18613003 -0.17340368 -0.14105563
0.17004725 -0.23321448 0.101321384 -0.16325743 0.023573874 -0.017769076 0.065287404 0.038917992
-0.026498692 0.10294905 0.11462144 0.060578197 0.13525073 0.11969202 0.17730717 0.13148889
-0.022484409 -0.13197534 0.021790583 -0.0749484 0.15375134 0.21857813 0.025260514 0.12824345
-0.08960158 0.04781713 0.14284587 -0.1539846 0.0806383 -0.06784237 -0.08658399 -0.15589544
-0.027095234 0.05402363 -0.08712645 -0.019830879 0.13192622 0.10826921 -0.0021343017 -0.036711797
0.12275643 0.066714734 -0.060667805 -0.19227132 -0.015320176 -0.17577597 0.06863916 0.01100983
-0.06061083 0.102406465 0.0064359694 -0.08252627 0.0084144985 -0.06492319 -0.06446473 0.15364659
0.04410087 -0.08368704 -0.020453744 -0.08583847 0.032184534 -0.10296776 0.12388414 -0.022068912
-0.14558776 0.12696238 0.023080114 0.033361338 0.06377246 0.061501723 -0.12528628 0.126139
0.1248258 0.101249054 0.1652351 0.12525445 -0.014607266 -0.076051615 0.10532519 0.025680482
0.08694713 0.1046343 0.100658745 0.011023013 0.07683171 0.14361624 -0.08816865 0.08596927
-0.14560966 0.091148734 -0.1969333 -0.21900775 -0.07297012 -0.17865232 0.10970777 0.09500323
00000000: aa86 0abe e59b 2a3e 498e 513c 2ada 463e
00000010: 245a 08be 48e8 d2bd 54ae b3bd 058d b8bd
00000020: 6069 383e 4097 aabc 73e0 63bd 6c3f 303e
00000030: 3f88 b63d 999e 50be 4b1c 623e 799e d9bd
00000040: 7ff0 bdbc b6d8 9c3c bc9b 503b b15f ef3d
00000050: 89ed d6bd 027b 423c 3402 a1bd e384 7e3e
00000060: ac79 2a3e 300c ecbd ac1b 3d3e 32d6 643d
00000070: 7a1e 3d3c c1e0 0bbe 9a2a 23bd 36e4 4c3e
00000080: 09d6 253e c260 bebd 4084 ff3a 744c a2bd
00000090: f015 05bd c4b9 223d ae52 2cbe ef8f 253e
000000a0: 1fcb ab3d 1763 71bc 6e59 d5bd c1b3 5d3e
000000b0: d91a 853c 34a1 80be 0faf 083d 93ff 133d
000000c0: e86b 1c3d a799 fbbd c4c2 11be 33dd b53d
000000d0: 9a30 8a3e c9e2 263e 5e07 5abd 5ed0 8a3d
000000e0: 9952 efbd 037f 043e b913 5cbd d447 a5bd
000000f0: 541b 09be 584e 40bd 9b98 0fbe c945 7cbd
00000100: 8bc8 30be 7a3e d63d ab7b 26be e959 3ebe
00000110: 352a 843d 30c7 19be 3f86 16be b8ae c6bd
00000120: 3388 73bd 4b9a 7c3d 74ae 97bd 7135 c3bd
00000130: 9f0e 17bd 791b b93d 0c7a 83bd 348c 38bd
00000140: c0ad dcbd b4d3 a43d efab 053e 2321 0fbe
00000150: f886 9a3d a048 a3ba f0c4 b73d 81e7 553e
00000160: d71d abbd 24d7 28be a3da 323e 1857 08be
00000170: 99dc 083e 4ba2 95bd 7b6b f73c 4947 4a3e
00000180: bdda d23c 7c30 a13c a006 103d b9dc be3c
00000190: 0df1 18be 0e25 ab3d f654 bbbb 300c 14bd
000001a0: 549c c83d c5b1 fcbd 2e40 203e 7196 16be
000001b0: 1f5b 103e 98df 16be f193 ae3d b9ac f7bd
000001c0: c881 1cbd 129e e03d ad0f 2d3e 904b 99bc
000001d0: 49e6 1d3d 8675 e93d f3b0 ae3d cb6b 2b3e
000001e0: 45d0 973b 279f 8d3d bcda 5f3e ed0c 28be
000001f0: 34f0 143e 5ebb e83d 1702 5f3d 4edc 10be
00000200: fef3 d9bc 31f4 bc3c 5160 533e 7ec9 a7bd
00000210: bfd9 083c 6df9 283e 21d2 7cbd 451d 2c3e
00000220: cf54 013d 2b3a 86bb 1c60 a13d 5504 5e3d
00000230: ea19 fbbd 65f4 41bd 3891 0dbe e228 f53c
00000240: a96a 483e f0bc ccbd 748d 8d3d 563d 8a3d
00000250: 623f 9bbc dab3 27be 83f2 28be 5ae1 8dbc
00000260: a052 d43d b4d7 323e 42af ae39 0e72 57be
00000270: 2e20 d8bc df98 3e3e bc90 31be e370 10be
00000280: de20 2e3e c7cf 6ebe 9681 cf3d f52c 27be
00000290: ff1d c13c 7490 91bc 67b5 853d 7968 1f3d
000002a0: c913 d9bc f4d6 d23d a5be ea3d d820 783d
000002b0: 2b7f 0a3e 1721 f53d 0390 353e 06a5 063e
000002c0: 3931 b8bc 8b24 07be 2a82 b23c 8c7e 99bd
000002d0: fe70 1d3e f2d2 5f3e 23ef ce3c 4052 033e
000002e0: 0881 b7bd e5db 433d 3046 123e 24ae 1dbe
000002f0: b125 a53d f1f0 8abd f252 b1bd 0ea3 1fbe
00000300: d3f6 ddbc e247 5d3d 5a6f b2bd 5e74 a2bc
00000310: ab17 073e 3fbc dd3d a4df 0bbb 1c5f 16bd
00000320: b967 fb3d bca1 883d ce7e 78bd c6e2 44be
00000330: 7a01 7bbc 9efe 33be b092 8c3d 9362 343c
00000340: 1043 78bd 7bba d13d d3e4 d23b 8803 a9bd
00000350: f7dc 093c 73f6 84bd 1606 84bd 8855 1d3e
00000360: 1da3 343d 1c64 abbd 9c8e a7bc 14cc afbd
00000370: eed3 033d c3e0 d2bd f8b6 fd3d ddc9 b4bc
00000380: f514 15be 6d02 023e 8212 bd3c e6a5 083d
00000390: 239b 823d 3be9 7b3d 0c4b 00be 952a 013e
000003a0: aba4 ff3d aa5b cf3d 6433 293e b442 003e
000003b0: 5053 6fbc f3c0 9bbd bcb4 d73d e05f d23c
000003c0: 5611 b23d 824a d63d 2c26 ce3d de99 343c
000003d0: f259 9d3d 2310 133e c491 b4bd a810 b03d
000003e0: b31a 15be 30ac ba3d e2a8 49be 9143 60be
000003f0: 5c71 95bd a2f0 36be 78ae e03d 0e91 c23d

enc_4.1.bias f4 [16]
-0.17697223 0.0112541495 -0.14301798 0.05872478 -0.227451 -0.091949604 -0.10306436 -0.18988726
-0.2140122 -0.014666712 -0.10648666 -0.017030621 -0.26658064 0.029371826 0.03295015 -0.013775795
00000000: 3538 35be 5363 383c 4e73 12be 6589 703d
00000010: eae8 68be 1350 bcbd 6813 d3bd ce71 42be
00000020: 0426 5bbe a64c 70bc ae15 dabd cd83 8bbc
00000030: 427d 88be 2f9d f03c bdf6 063d dfb3 61bc

enc_4.2.weight f4 [16, 16, 3, 3]
0.065896995 0.1306424 0.040105462 -0.060546886 0.038935725 -0.015584001 -0.030798601 -0.035901494
-0.064263105 -0.054555893 0.053267904 0.14610331 -0.017793706 -0.13124193 0.055353597 0.015663061
-0.056867976 0.028421082 -0.03181892 -0.08561767 -0.08729791 0.062170975 0.028819265 -0.05097348
0.038320623 0.03326583 -0.002622241 -0.044042617 -0.013550788 -0.018711163 0.021650737 0.010032192
-0.034505304 -0.07570112 -0.024650259 -0.066548064 -0.010733839 0.14821838 0.0616875 -0.02664658
0.030506002 0.03735886 0.01000361 -0.03840212 -0.017022226 -0.013451042 -0.054778703 -0.027319456
-0.056154404 0.05845954 0.019493053 -0.0027862978 -0.10692128 -0.13375026 -0.017385725 0.059777
0.10937471 0.080578804 0.014104247 0.07171985 -0.0013296653 -0.08319264 -0.04274441 0.06292376
0.048051823 0.005092972 -0.019658346 -0.00041307724 -0.059182703 -0.043441016 -0.008509802 -0.07072194
0.033729978 0.0049620043 -0.037389893 0.10153818 0.013887082 -0.03560503 -0.006655257 0.05604688
0.05028309 0.08510608 0.14234753 -0.049054697 0.041067578 0.0048811487 -0.14223981 -0.057480633
0.07624876 -0.1167017 0.073428914 -0.067241274 -0.002580673 0.061839867 -0.00992445 -0.058210406
-0.0017639241 0.07272044 -0.0022996464 0.0032755448 -0.0067182286 -0.0059955833 -0.039913196 -0.021572791
-0.018136317 -0.019723693 0.07327885 0.074970976 -0.0059450967 -0.04967109 0.014006799 -0.073283784
0.04282785 -0.10928183 0.023705173 0.0700206 -0.01090985 -0.029984696 -0.08983064 0.053612586
-0.022900006 -0.047114726 -0.030641649 -0.07037585 -0.048176352 -0.060411073 0.085378624 0.03602862
0.045633897 0.10925792 0.11107857 0.03228728 0.034416113 0.099337615 0.104553096 0.033392712
0.036335185 0.002782572 -0.03262706 0.031922206 0.03222286 0.022732327 0.08894754 -0.043261293
-0.0085756285 -0.005218723 0.07768367 0.0034091547 0.06231028 -0.007316581 -0.08375805 -0.029041344
-0.11228588 0.051472288 0.11465388 0.09025836 -0.1297239 -0.098915815 0.03230186 -0.04666178
-0.006409324 0.01565855 -0.037537027 -0.06149919 -0.07718191 0.014199977 0.07079356 -0.038982023
0.07202286 -0.0498993 -0.07389035 0.021371806 0.02072205 -0.074116565 -0.040294413 -0.00870899
-0.11331622 -0.11318194 -0.031736817 -0.046042874 0.00420843 0.011498665 0.05794044 -0.037312537
-0.020057151 0.09403421 -0.07001911 -0.035075698 0.1270802 -0.06363639 -0.042899657 -0.015598253
0.007499273 0.057528023 0.00066102925 -0.044428278 0.08499641 -0.06865376 0.033828344 0.01132166
0.013300337 0.07734723 -0.0001532776 0.06000897 -0.047647882 -0.0039378684 0.014534698 0.0046232073
0.016050613 0.07935679 -0.06501417 0.03543935 -0.033160932 -0.022703925 -0.03284202 0.04365461
0.001594866 -0.020496618 -0.07136744 0.053200103 0.08770592 -0.025611885 0.04951565 0.041086707
-0.043448392 -0.022162547 0.010454028 -0.070578136 0.003379328 0.022497056 -0.046249155 0.0056375605
-0.061563503 -0.12135563 0.035118222 0.01834456 0.030378016 0.023608716 0.07697421 0.01932559
-0.06528547 0.034454647 0.053816706 -0.060851548 0.039037455 0.016511992 0.05890981 -0.077477306
-0.10088437 0.053380527 0.0008433481 0.032268118 0.12517838 0.14442825 0.00319345 -0.031527735
00000000: 01f5 863d 1fc7 053e a045 243d 0300 78bd
00000010: 117b 1f3d 0a54 7fbc 594d fcbc 720d 13bd
00000020: 609c 83bd 0076 5fbd 722f 5a3d 1b9c 153e
00000030: 1bc4 91bc 4964 06be 74ba 623d d24f 803c
00000040: 65ee 68bd 54d3 e83c 8e54 02bd 5158 afbd
00000050: 3fc9 b2bd fea6 7e3d 6116 ec3c 91c9 50bd
00000060: 16f6 1c3d c041 083d e7d9 2bbb 0866 34bd
00000070: 2004 5ebc 2748 99bc e35c b13c 105e 243c
00000080: 6f55 0dbd 3009 9bbd 57ef c9bc 5a4a 88bd
00000090: fcdc 2fbc 8fc6 173e 08ac 7c3d ee49 dabc
000000a0: b9e7 f93c 9b05 193d 2ee6 233c 8b4b 1dbd
000000b0: 3272 8bbc c261 5cbc a25f 60bd 0dcd dfbc
000000c0: 2902 66bd 4573 6f3d e5af 9f3c 529a 36bb
000000d0: 8bf9 dabd d4f5 08be 826c 8ebc bad8 743d
000000e0: d9ff df3d 8006 a53d 8015 673c dbe1 923d
000000f0: 2a48 aeba e760 aabd c314 2fbd 2cde 803d
00000100: fdd1 443d f2e2 a63b 8a0a a1bc 4a92 d8b9
00000110: 9069 72bd 35ef 31bd b26c 0bbc aad6 90bd
00000120: 7228 0a3d 4f98 a23b 2526 19bd 40f3 cf3d
00000130: a586 633c 94d6 11bd 5814 dabb 6a91 653d
00000140: a4f5 4d3d 194c ae3d 8dc3 113e 94ed 48bd
00000150: 7a36 283d 0bf2 9f3b 50a7 11be d070 6bbd
00000160: 4f28 9c3d 4d01 efbd e661 963d cbb5 89bd
00000170: 8220 29bb cd4b 7d3d 299a 22bc 096e 6ebd
00000180: 7933 e7ba 74ee 943d aab5 16bb 86aa 563b
00000190: 9624 dcbb 9976 c4bb 057c 23bd 6cb9 b0bc
000001a0: 9d92 94bc 9593 a1bc 3913 963d 628a 993d
000001b0: 16cf c2bb ea73 4bbd c67c 653c cf15 96bd
000001c0: 416c 2f3d 27cf dfbd 5a31 c23c f666 8f3d
000001d0: 3abf 32bc 77a2 f5bc 20f9 b7bd df98 5b3d
000001e0: cb98 bbbc 5ffb 40bd 3204 fbbc 3721 90bd
000001f0: 9154 45bd 9a71 77bd fdda ae3d bf92 133d
00000200: 9cea 3a3d 9ec2 df3d 297d e33d ab3f 043d
00000210: e9f7 0c3d 8571 cb3d ef1f d63d ccc6 083d
00000220: 34d4 143d d05b 363b f4a3 05bd dcc0 023d
00000230: 1efc 033d 2539 ba3c 212a b63d c132 31bd
00000240: cb80 0cbc d201 abbb 9e18 9f3d 206c 5f3b
00000250: 1039 7f3d eebf efbb 5789 abbd 1de8 edbc
00000260: 24f6 e5bd 9bd4 523d a7cf ea3d 60d9 b83d
00000270: 58d6 04be 6094 cabd f54e 043d 6c20 3fbd
00000280: 4e05 d2bb 5c46 803c 6dc0 19bd 93e6 7bbd
00000290: 8d11 9ebd 05a7 683c 37fc 903d 9dab 1fbd
000002a0: b980 933d 3563 4cbd d353 97bd ed13 af3c
000002b0: 4ac1 a93c 6dca 97bd c10b 25bd 27b0 0ebc
000002c0: 5612 e8bd efcb e7bd 77fe 01bd 7497 3cbd
000002d0: dfe6 893b e664 3c3c f452 6d3d 08d5 18bd
000002e0: e54e a4bc 0295 c03d 2e66 8fbd 89ab 0fbd
000002f0: 5021 023e cc53 82bd 8db7 2fbd d18f 7fbc
00000300: 76bc f53b 81a2 6b3d ec48 2d3a 6dfa 35bd
00000310: 9912 ae3d 589a 8cbd 978f 0a3d 7c7e 393c
00000320: a8e9 593c 3968 9e3d 24b9 20b9 f7cb 753d
00000330: 6d2a 43bd 3c09 81bb f122 6e3c 467e 973b
00000340: 937c 833c d085 a23d 2626 85bd da28 113d
00000350: c2d3 07bd 95fd b9bc 5b85 06bd 2dcf 323d
00000360: d30a d13a 86e8 a7bc 1829 92bd 5ae8 593d
00000370: 299f b33d 04d0 d1bc ecd0 4a3d 894a 283d
00000380: f1f6 31bd 3b8e b5bc 5f47 2b3c 458b 90bd
00000390: b777 5d3b bf4b b83c c16f 3dbd 49bb b83b
000003a0: 032a 7cbd 4d89 f8bd 20d8 0f3d 5547 963c
000003b0: 51db f83c 1167 c13c a8a4 9d3d b350 9e3c
000003c0: 63b4 85bd 5120 0d3d e86e 5c3d 793f 79bd
000003d0: bde5 1f3d 2844 873c 6a4b 713d 6cac 9ebd
000003e0: 779c cebd 8aa5 5a3d 2214 5d3a 932b 043d
000003f0: c32e 003e 00e5 133e 3349 513b 3a23 01bd

enc_4.2.bias f4 [16]
-0.17751974 -0.13697754 0.019131865 -0.102843925 -0.041262694 -0.121035956 -0.049761485 -0.22554633
-0.030952891 -0.0313553 0.124865085 -0.1551926 0.03162749 -0.11286237 -0.024949044 -0.0971634
00000000: bcc7 35be d743 0cbe 6eba 9c3c d69f d2bd
00000010: 1203 29bd b3e1 f7bd b3d2 4bbd 9ef5 66be
00000020: eb90 fdbc 6a6e 00bd 44b9 ff3d cfea 1ebe
00000030: d48b 013d 6324 e7bd f061 ccbc 9bfd c6bd

enc_5.1.weight f4 [32, 16, 3, 3]
-0.050400633 -0.09346274 0.005606788 0.030378252 -0.053530812 0.027294291 0.024508778 -0.010551402
-0.08620583 0.048420556 0.07924608 0.0021223878 -0.09506708 0.059459887 -0.060943905 0.00040459787
0.07997554 0.024775751 0.07923119 0.055583715 0.066922456 -0.034822382 0.016757993 0.11889179
-0.067229584 0.0935098 -0.0062627345 0.021706814 0.07352436 -0.012146646 0.005654812 0.022817712
0.096097924 0.059106316 -0.04697181 -0.002286511 -0.0017022891 0.08096288 0.067405745 -0.09673818
-0.043242346 -0.090923086 -0.005795579 -0.00060760387 -0.02173462 0.07052232 0.09313193 0.07064152
-0.030596187 -0.059279267 -0.03273981 -0.0058851726 -0.083287425 -0.082556516 0.00074398913 -0.048823707
0.06169831 -0.10358094 0.051882446 -0.07643029 0.00072916324 -0.057697013 -0.064609215 0.08368803
-0.078166105 -0.08036078 0.018378967 -0.027904892 -0.051707834 -0.0705502 -0.049022693 -0.03134938
0.048056487 0.012355061 -0.031705584 -0.049606666 -0.048201684 -2.4483306e-05 -0.10954673 -0.05272777
-0.07678244 -0.016996965 0.017916614 0.03735906 -0.08364384 -0.02915158 -0.030600535 -0.0015992752
0.036165703 0.09301262 0.009812422 0.009206223 0.08394099 -0.019400535 0.054083467 0.09550912
0.056449946 -8.0412705e-05 -0.06898022 0.009949574 -0.07781816 -0.040924624 -0.02525402 0.008470303
-0.06251897 -0.0474974 0.002576458 0.07197534 0.02515494 0.021557238 -0.007063338 -0.032543905
0.11462638 0.065909036 -0.0630451 -0.04029392 -0.0005059215 -0.0551246 0.022876387 -0.10383101
-0.124757834 -0.055021994 -0.06870489 0.0613914 0.070742734 0.07561646 0.06328785 -0.0021002055
0.033723034 0.08254917 -0.011411078 -0.050907966 0.044203904 0.07972592 -0.021103887 -0.0040510115
-0.04926506 -0.05363494 0.021055324 0.058024418 -0.026322696 -0.055353694 0.08841669 -0.0147035485
-0.105595775 -0.1244127 -0.08979553 -0.033216268 0.00429391 -0.11911901 -0.005986599 0.009894754
-0.038858227 0.05974934 -0.01659318 0.046076603 0.045633882 -0.03997755 -0.04663942 0.017459001
-0.028966684 -0.06464781 -0.065972194 0.00037910047 0.036518797 -0.050134532 0.07584504 0.054459292
0.043484133 0.06746212 0.04412573 -0.07472529 0.036682922 -0.023018688 0.031025346 0.08915145
0.04950818 0.011530728 0.043390807 -0.0024723206 -0.020484371 -0.038843185 0.0027394656 -0.08206207
-0.045763995 0.025501987 -0.05084212 -0.019356117 -0.00124497 -0.0043939976 -0.01845686 -0.014903058
-0.1223472 -0.04322687 -0.08263901 0.044315126 0.021627702 -0.099194966 -0.107029766 -0.02771479
-0.0136420755 -0.011431773 0.02196006 -0.037069928 0.02309586 -0.010408091 -0.0074649537 -0.011850618
-0.070992954 -0.08576531 -0.060227368 -0.07776367 -0.1274925 -0.11237039 0.018763 -0.12271555
-0.11353057 -0.04172059 -0.03735727 0.020669175 -0.07546614 -0.07064116 -0.03457209 -0.04526438
0.009219396 -0.0018917149 -0.057793565 -0.06189024 -0.04295578 -0.0060176183 0.031054707 0.0009998372
-0.047735922 0.022289315 0.08398756 0.02753737 -0.013933 0.029734394 0.012519091 0.02341695
0.06290017 -0.056389697 -0.029421326 -0.08487897 -0.08120144 -0.1128072 -0.020741943 0.031964805
-0.026811251 0.022324039 0.010695009 -0.08337671 0.031996462 0.029060299 -0.051926654 0.051542345
00000000: e570 4ebd 6569 bfbd 26b9 b73b d0db f83c
00000010: 2043 5bbd 4798 df3c a2c6 c83c cadf 2cbc
00000020: af8c b0bd a254 463d c54b a23d c217 0b3b
00000030: 87b2 c2bd 368c 733d 51a0 79bd 3520 d439
00000040: 37ca a33d 84f6 ca3c f643 a23d c0ab 633d
00000050: a40e 893d eaa1 0ebd 0f48 893c 8a7d f33d
00000060: aaaf 89bd 1182 bf3d a037 cdbb 7dd2 b13c
00000070: f193 963d ba02 47bc 004c b93b 36ec ba3c
00000080: fdce c43d 7719 723d 8365 40bd 4ad9 15bb
00000090: 581f dfba decf a53d 060c 8a3d ab1e c6bd
000000a0: e31e 31bd e235 babd d7e8 bdbb 9b47 1fba
000000b0: cd0c b2bc 026e 903d f4bb be3d 80ac 903d
000000c0: dba4 fabc d1ce 72bd 2e1a 06bd 68d8 c0bb
000000d0: 9992 aabd 6413 a9bd 4408 433a 5efb 47bd
000000e0: 5eb7 7c3d 3e22 d4bd b082 543d 7c87 9cbd
000000f0: 5125 3f3a b453 6cbd d651 84bd a164 ab3d
00000100: 8d15 a0bd 3194 a4bd 7d8f 963c cd98 e4bc
00000110: 98cb 53bd a07c 90bd 05cc 48bd 3568 00bd
00000120: e1d6 443d e26c 4a3c b7dd 01bd 5c30 4bbd
00000130: 216f 45bd 8061 cdb7 095a e0bd 13f9 57bd
00000140: 1d40 9dbd 383d 8bbc ddc5 923c d005 193d
00000150: 764d abbd 4bcf eebc f9ad fabc c59e d1ba
00000160: 7d22 143d 677d be3d 48c4 203c b3d5 163c
00000170: 41e9 ab3d dfed 9ebc a086 5d3d 499a c33d
00000180: 0f38 673d 3ea3 a8b8 8045 8dbd 8a03 233c
00000190: 215f 9fbd 94a0 27bd 85e1 cebc 07c7 0a3c
000001a0: f209 80bd a28c 42bd cbd9 283b cf67 933d
000001b0: bc11 ce3c ce98 b03c 9373 e7bb c24c 05bd
000001c0: 3cc1 ea3d 51fb 863d ca1d 81bd 3d0b 25bd
000001d0: d19f 04ba 55ca 61bd 4367 bb3c 5aa5 d4bd
000001e0: 0981 ffbd be5e 61bd 26b5 8cbd 8c75 7b3d
000001f0: 91e1 903d cddc 9a3d 0f9d 813d 9aa3 09bb
00000200: 2a21 0a3d 8a0f a93d 88f5 3abc df84 50bd
00000210: 270f 353d 5847 a33d 0fe2 acbc 59be 84bb
00000220: 29ca 49bd 50b0 5bbd 377c ac3c 03ab 6d3d
00000230: b2a2 d7bc 8eba 62bd cf13 b53d 27e7 70bc
00000240: 9942 d8bd 16cc febd b8e6 b7bd c80d 08bd
00000250: eeb3 8c3b abf4 f3bd 3b2b c4bb 9b1d 223c
00000260: ce29 1fbd b9bb 743d 6cee 87bc d2ba 3c3d
00000270: 98ea 3a3d 80bf 23bd fa08 3fbd 2e06 8f3c
00000280: 8a4b edbc 1266 84bd 6e1c 87bd 01c2 c639
00000290: bc94 153d de59 4dbd a554 9b3d b510 5f3d
000002a0: 6b1c 323d 9429 8a3d 2ebd 343d 9309 99bd
000002b0: d540 163d b091 bcbc de28 fe3c 0995 b63d
000002c0: 17c9 4a3d 61eb 3c3c 8fba 313d a806 22bb
000002d0: d7ce a7bc 081a 1fbd 9b88 333b 2910 a8bd
000002e0: 0773 3bbd 8be9 d03c d43f 50bd b890 9ebc
000002f0: 432e a3ba 86fb 8fbb d732 97bc f52b 74bc
00000300: 2b91 fabd a90e 31bd a43e a9bd c783 353d
00000310: 942c b13c bb26 cbbd 6c32 dbbd 210a e3bc
00000320: 0383 5fbc 554c 3bbc 95e5 b33c a3d6 17bd
00000330: 8733 bd3c b386 2abc 929c f4bb 1829 42bc
00000340: c164 91bd b9a5 afbd f9b0 76bd 8f42 9fbd
00000350: 658d 02be 7222 e6bd ddb4 993c 4a52 fbbd
00000360: b782 e8bd 36e3 2abd f003 19bd 6752 a93c
00000370: fe8d 9abd 50ac 90bd 779b 0dbd 2467 39bd
00000380: f30c 173c 6bf3 f7ba f2b8 6cbd 9f80 7dbd
00000390: 66f2 2fbd 712f c5bb 7166 fe3c f80c 833a
000003a0: be86 43bd 1598 b63c ab01 ac3d 0d96 e13c
000003b0: 3d47 64bc 8b95 f33c e01c 4d3c e7d4 bf3c
000003c0: ced1 803d e2f8 66bd fe04 f1bc 07d5 adbd
000003d0: f14c a6bd 7607 e7bd 02eb a9bc 87ed 023d
000003e0: 45a3 dbbc e7e0 b63c 1e3a 2f3c 69c1 aabd
000003f0: b90e 033d dd0f ee3c 0bb1 54bd 111e 533d

enc_5.1.bias f4 [32]
0.15691087 -0.009379324 0.05017366 -0.082381345 -0.075530656 -0.18289307 0.031337697 -0.09016188
0.0018351288 -0.024194192 0.061446287 0.109907486 -0.12626797 -0.09140339 0.032168753 0.028975291
0.07975291 -0.04414497 0.16886555 0.07001312 -0.09512712 -0.12410769 0.0664896 -0.16999961
-0.19287571 0.103924595 -0.07113856 -0.08973962 0.02339541 0.16742988 -0.0020883696 0.061345316
00000000: 3ead 203e bcab 19bc e582 4d3d 8db7 a8bd
00000010: d1af 9abd 5248 3bbe f55b 003d cba6 b8bd
00000020: b488 f03a e632 c6bc 1aaf 7b3d 2d17 e13d
00000030: 644c 01be b331 bbbd 62c3 033d 975d ed3c
00000040: 7e55 a33d 5bd1 34bd 17eb 2c3e 0a63 8f3d
00000050: 02d2 c2bd 2c2c febd b32b 883d 6114 2ebe
00000060: 3681 45be 6bd6 d43d 18b1 91bd 68c9 b7bd
00000070: bba7 bf3c bd72 2b3e 07dd 08bb 3a45 7b3d

enc_5.2.weight f4 [32, 32, 3, 3]
0.013965288 -0.033518802 0.06323485 0.06313671 -0.027243057 0.03373496 -0.015103668 -0.008636241
0.028796302 0.049604345 0.067489125 -0.07160171 0.065542705 -0.030431533 0.009267495 0.019493308
-0.017684652 -0.012780626 0.09085204 0.010690941 0.022571826 -0.009340795 0.042598844 -0.0433396
-0.024308445 -0.0067796847 0.014473943 0.026144441 0.038683858 -0.032223236 -0.059787918 0.08584415
0.014823974 0.01620538 0.11662072 0.05562303 0.038618553 0.052008614 -0.10233282 -0.020991242
0.03909596 0.047593188 -0.033042528 0.06322527 0.040224858 -0.069770716 -0.018283095 0.065061584
0.014907642 -0.032129545 0.018010093 -0.032089118 0.032445457 -0.03679302 -0.0761504 -0.016333958
-0.064756654 -0.022325277 -0.028011458 0.011622207 -0.0869604 -0.02842435 0.049705185 -0.008263739
0.05695897 0.07165289 0.05445164 -0.03403349 0.05852114 0.041690506 -0.028650764 -0.051236615
-0.041541584 0.0010124192 -0.035080303 0.01033411 -0.017216796 -0.04877648 -0.09449698 -0.04328
-0.052158672 -0.013435279 0.0041790083 0.03331025 -0.03257192 -0.0036790983 0.015882518 0.045047317
-0.008903979 0.061104804 -0.0074075535 -0.009795009 -0.07155347 0.019312818 -0.047503024 0.113176644
-0.10065853 0.061690807 -0.0792093 -0.0043851985 0.010333251 0.060899418 0.031140665 0.03283009
-0.023681326 -0.014541875 -0.06626576 -0.037175477 0.08530617 -0.08423765 0.008507068 0.05996863
0.00627313 0.06919497 0.050831944 -0.048189502 -0.029815072 -0.041616254 0.025507038 0.0462278
-0.070852846 0.06781089 0.049870852 0.028485592 -0.11299346 -0.03418817 0.021720136 -0.046904102
-0.016315913 0.030210782 0.052536402 0.009367963 0.048251398 0.029865835 -0.02398407 -0.052111957
0.03297205 -0.047010683 0.011246233 -0.060691632 -0.042389408 0.03145588 0.022229975 0.04363428
0.08162911 0.02360273 -0.0055219987 0.05245987 -0.041976906 -0.10122959 -0.016787335 -0.0749424
0.044313252 -0.04089506 0.090696245 -0.05167015 -0.05596477 0.025756732 -0.03681539 -0.026144715
0.028481223 0.08945285 0.024032906 -0.016370654 0.0029973623 0.0056636003 -0.0034461655 -0.0956489
-0.018409302 0.051735558 -0.055768583 0.075908 0.0745577 0.107621476 -0.12392559 -0.07632078
-0.038492173 -0.065557085 -0.008913738 0.03873535 -0.019631358 -0.0037799831 0.08467606 -0.06820376
0.05485654 0.067046426 -0.0639072 -0.011902097 0.036200423 0.06773089 0.049641058 -0.03597029
0.0139874825 -0.07294232 -0.020071201 -0.03263612 0.035877414 0.059882596 -0.032765046 -0.012374835
-0.049802355 -0.039362296 -0.045293488 0.017253432 -0.067479804 -0.03738755 0.049067818 -0.05204586
-0.03278226 -0.009023096 -0.12826484 -0.09842827 -0.063306265 -0.011027132 -0.005982788 0.0049902857
-0.036999006 0.04562588 0.04181979 0.070400335 0.026810843 -0.058135737 0.04262336 -0.012375741
0.03812432 0.0034928706 0.06307832 0.09704038 0.03779796 0.055607654 -0.043192983 0.003951714
0.056704402 -0.096535526 0.02715579 0.104300834 0.0023528684 -0.018973561 -0.01515946 0.041082155
-0.020806028 -0.01170776 0.02591073 0.0324464 0.053521242 -0.04590046 0.072249845 -0.0037442346
-0.10918999 -0.015925618 -0.019178519 0.022728924 -0.0024034912 -0.0024894713 -0.12625606 0.04847994
00000000: aace 643c 034b 09bd 4681 813d d24d 813d
00000010: d52c dfbc ab2d 0a3d 6075 77bc 057f 0dbc
00000020: 39e6 eb3c ed2d 4b3d bd37 8a3d eba3 92bd
00000030: 413b 863d 8d4b f9bc b1d6 173c 6eb0 9f3c
00000040: 67df 90bc d565 51bc a210 ba3d 0e29 2f3c
00000050: 8de8 b83c 220a 19bc 207c 2e3d dd84 31bd
00000060: 8122 c7bc 1e28 debb 1e24 6d3c de2c d63c
00000070: f772 1e3d 83fc 03bd 2de4 74bd 0fcf af3d
00000080: 41e0 723c 25c1 843c d8d6 ee3d f9d4 633d
00000090: 7d2e 1e3d fc06 553d df93 d1bd d3f5 abbc
000000a0: 1623 203d 13f1 423d 9a57 07bd 407c 813d
000000b0: d2c2 243d f3e3 8ebd 6ec6 95bc 023f 853d
000000c0: 2f3f 743c 459a 03bd e789 933c e16f 03bd
000000d0: 87e5 043d 47b4 16bd bef4 9bbd cbce 85bc
000000e0: 239f 84bd 80e3 b6bc 4978 e5bc 126b 3e3c
000000f0: 4b18 b2bd 2fda e8bc aa97 4b3d a264 07bc
00000100: cf4d 693d c0be 923d af08 5f3d b366 0bbd
00000110: ddb3 6f3d aac3 2a3d 02b5 eabc 7cdd 51bd
00000120: 8227 2abd 27b3 843a 5db0 0fbd 6650 293c
00000130: 3d0a 8dbc d9c9 47bd a287 c1bd 5f46 31bd
00000140: 55a4 55bd a51f 5cbc 10f0 883b 5470 083d
00000150: 226a 05bd 071d 71bb 0e1c 823c 8983 383d
00000160: ffe1 11bc 0849 7a3d 10bb f2bb 3f7b 20bc
00000170: a08a 92bd ea35 9e3c 8892 42bd 28c9 e73d
00000180: 0f26 cebd 80af 7c3d 7c38 a2bd b6b1 8fbb
00000190: cc4c 293c ab71 793d b51a ff3c d878 063d
000001a0: 57ff c1bc 0b41 6ebc 58b6 87bd 5045 18bd
000001b0: 00b5 ae3d ca84 acbd 3b61 0b3c aba1 753d
000001c0: d48e cd3b 18b6 8d3d 2835 503d 5b62 45bd
000001d0: bd3e f4bc ce75 2abd 23f4 d03c 5d59 3d3d
000001e0: 4c1b 91bd 70e0 8a3d 6145 4c3d 9e5a e93c
000001f0: 1d69 e7bd e508 0cbd 6dee b13c 841e 40bd
00000200: f3a8 85bc 9a7c f73c 6930 573d 167c 193c
00000210: 42a3 453d 32a9 f43c 3e7a c4bc 5973 55bd
00000220: b30d 073d 468e 40bd 1f42 383c ca97 78bd
00000230: 84a0 2dbd e1d7 003d a31b b63c dcb9 323d
00000240: 2a2d a73d 835a c13c e2f1 b4bb 29e0 563d
00000250: faef 2bbd 7651 cfbd 9885 89bc 677b 99bd
00000260: d081 353d 9481 27bd f4be b93d 14a4 53bd
00000270: 513b 65bd c8ff d23c bccb 16bd 712d d6bc
00000280: 7451 e93c 0e33 b73d a8e0 c43c c01b 86bc
00000290: 656f 443b b995 b93b 10d9 61bb 92e3 c3bd
000002a0: 1bcf 96bc aae8 533d 996d 64bd a775 9b3d
000002b0: b5b1 983d a668 dc3d b3cc fdbd 124e 9cbd
000002c0: f8a9 1dbd cb42 86bd ed0a 12bc f5a8 1e3d
000002d0: f1d1 a0bc 98b9 77bb a46a ad3d 6aae 8bbd
000002e0: 40b1 603d a34f 893d c7e1 82bd 0301 43bc
000002f0: e546 143d 7eb6 8a3d 6c54 4b3d 9555 13bd
00000300: c12b 653c c862 95bd 5c6c a4bc 74ad 05bd
00000310: 32f4 123d 7447 753d a434 06bd d2bf 4abc
00000320: 8efd 4bbd 5c3a 21bd aa85 39bd 1257 8d3c
00000330: da32 8abd b023 19bd 56fb 483d 0a2e 55bd
00000340: b146 06bd 9cd5 13bc dc57 03be c394 c9bd
00000350: b7a6 81bd 25ab 34bc 430b c4bb 8d85 a33b
00000360: 458c 17bd 34e2 3a3d 3a4b 2b3d 0d2e 903d
00000370: 6aa2 db3c bd1f 6ebd d595 2e3d 9fc3 4abc
00000380: 3f28 1c3d a5e8 643b 352f 813d 1bbd c63d
00000390: 09d2 1a3d dac4 633d 20eb 30bd 617d 813b
000003a0: e042 683d 6bb4 c5bd d275 de3c ad9b d53d
000003b0: 9532 1a3b 716e 9bbc 625f 78bc c345 283d
000003c0: 6771 aabc e8d1 3fbc bd42 d43c 84e6 043d
000003d0: 1739 5b3d 1f02 3cbd baf7 933d d561 75bb
000003e0: 009f dfbd 7176 82bc 451c 9dbc 0232 ba3c
000003f0: e483 1dbb 6626 23bb 4549 01be e792 463d

enc_5.2.bias f4 [32]
-0.17227775 0.17202029 0.095794976 -0.059853923 -0.03359333 -0.1547534 -0.04657294 -0.024671257
-0.18229252 0.11582706 0.06945745 -0.07287221 0.0022383358 0.017864686 -0.11635879 0.04989
0.011909712 0.08108185 -0.14966238 0.06827195 -0.07618785 -0.042324603 0.060302783 -0.01734798
-0.13258499 0.15280995 0.06718153 -0.061699457 -0.008140462 -0.11746333 -0.21448277 -0.14196101
00000000: 9469 30be 1626 303e 2830 c43d 6329 75bd
00000010: 2999 09bd ad77 1ebe 44c3 3ebd 601b cabc
00000020: e4aa 3abe bd36 ed3d b53f 8e3d 063e 95bd
00000030: 0bb1 123b f658 923c 844d eebd 7559 4c3d
00000040: f420 433c 3e0e a63d 1841 19be 2ad2 8b3d
00000050: 6008 9cbd 905c 2dbd 0d00 773d 5a1d 8ebc
00000060: 5cc4 07be 367a 1c3e 7896 893d 92b8 7cbd
00000070: 935f 05bc 9d90 f0bd 5fa1 5bbe 3a5e 11be

enc_6.1.weight f4 [64, 32, 3, 3]
0.014917154 0.012662376 0.033832446 0.012971386 -0.008340602 0.030059867 0.033558812 0.07985608
0.08790979 -0.037982475 -0.025492152 0.003828807 -0.0908849 0.058613535 -0.061518494 0.003245813
0.03233393 -0.069786355 0.016694605 -0.017219529 -0.04318996 0.024486993 -0.028466025 0.027090767
-0.06766236 -0.057555497 0.040824737 2.6615016e-05 0.04785101 -0.008659424 -0.037711527 -0.01697753
0.014464706 -0.000993298 0.07399343 0.056556042 0.004561028 -0.059624974 0.052946866 0.038612373
0.022571292 0.033928204 -0.063207194 -0.07165358 -0.02198469 -0.005600722 0.06793628 -0.062691696
-0.019013898 0.05484929 -0.066984564 0.015161163 -0.022270596 0.005921041 -0.11130972 -0.022150965
0.02609864 -0.0693756 -0.021595562 0.0249171 -0.057007637 0.029765887 -0.0010718157 -0.017639304
0.0044721398 -0.054382794 -0.024051292 -0.040091272 -0.021484423 0.059486583 0.030682962 0.0014984761
0.012422721 -0.03405498 -0.026482534 -0.024356905 0.037507154 0.011471225 0.016737513 0.044223815
-0.0393718 -0.034575984 0.037906364 0.008767147 -0.036555294 -0.026842665 -0.034647208 0.0016645922
0.03347578 -0.04744615 0.05010208 0.0054844986 0.003070125 0.0062425407 0.0114428075 0.025735032
0.024698848 -0.04072049 -0.05224968 -0.02307618 0.052207638 -0.08259438 -0.06432808 0.049442314
0.002341926 -0.01588207 0.034475707 0.08399248 0.10067086 0.05946882 -0.031299695 0.029468892
0.035081916 -0.080682606 0.06641074 0.0060449326 0.027062122 -0.044364296 -0.0075346753 0.036408734
-0.041143972 -0.10098614 0.047128532 0.03497161 -0.031208696 -0.055820286 0.016382832 0.053852238
-0.023874387 -0.019823017 -0.031508595 0.048847526 0.018593904 0.04007933 0.002939913 -0.020345295
-0.017544694 0.03379592 0.05266693 0.009272991 0.015655601 0.11363555 -0.054414622 -0.0068822606
-0.049811486 0.047150545 0.030049765 0.03156856 -0.009760548 -0.028462254 0.03525766 0.04003669
0.02217725 0.0605567 -0.047370568 -0.12891254 0.059589293 -0.0171739 -0.063502066 0.02680305
-0.0010576476 0.016558824 -0.006699785 0.102586634 0.05784046 -0.04536389 0.016341684 -0.022926373
0.006229791 -0.014866502 0.046681136 0.06741908 -0.030400986 0.07689726 0.015316899 0.060902335
0.07635091 -0.06622953 -0.05451008 0.09336083 0.016759899 -0.04291878 0.019532062 -0.0008644003
-0.017552398 0.09193218 0.066802844 0.06852044 0.015571054 -0.044715896 0.0121738035 -0.09033598
-0.041406244 -0.048041776 0.019780464 -0.003085538 -0.05818843 0.07565361 -0.0010245659 0.023291068
0.040918566 0.021162875 0.030079475 -0.04606624 0.040133845 0.055023503 -0.04916636 -0.04152917
0.006150594 0.024302466 -0.051802814 -0.06245778 0.04839886 0.012064039 -0.014016606 0.035734713
-0.018638665 -0.03744936 0.016371254 -0.07965482 -0.013602351 -0.030146305 -0.070568405 -0.00018738714
-0.04373197 -0.02059493 0.0040880116 0.01746828 -0.028747553 0.047524016 0.02113247 0.027642058
-0.056653127 0.049811345 0.000970316 0.04687244 -0.022691192 -0.055161927 -0.005817659 0.047814753
-0.054438096 -0.0045734774 -0.012263428 0.04599826 -0.020414894 0.052829765 0.033129547 0.0016805097
-0.019850437 -0.03266324 -0.02898451 -0.01628077 0.08413957 -0.027404994 0.006642595 -0.060559656
00000000: 1467 743c db75 4f3c e493 0a3d f085 543c
00000010: 05a7 08bc 1c40 f63c f774 093d 968b a33d
00000020: 0c0a b43d 8393 1bbd ebd4 d0bc b9ec 7a3b
00000030: dd21 babd bf14 703d d1fa 7bbd b5b7 543b
00000040: 9570 043d 26ec 8ebd 20c3 883c f80f 8dbc
00000050: f5e7 30bd f298 c83c 9531 e9bc 75ed dd3c
00000060: 9092 8abd 50bf 6bbd d737 273d 5043 df37
00000070: 6cff 433d 42e0 0dbc 6777 1abd 7614 8bbc
00000080: 60fd 6c3c 8d31 82ba de89 973d 4fa7 673d
00000090: ad74 953b 5139 74bd d0de 583d 0228 1e3d
000000a0: 6ee7 b83c 4df8 0a3d c672 81bd 1dbf 92bd
000000b0: 3d19 b4bc 4386 b7bb 2d22 8b3d 8164 80bd
000000c0: 09c3 9bbc a6a9 603d 342f 89bd 8766 783c
000000d0: d370 b6bc 4b05 c23b 5af6 e3bd f175 b5bc
000000e0: d1cc d53c cb14 8ebd 2de9 b0bc f21e cc3c
000000f0: d780 69bd 97d7 f33c 2b7c 8cba 4d80 90bc
00000100: 078b 923b 7ec0 5ebd 3707 c5bc bf36 24bd
00000110: 1a00 b0bc 34a8 733d d65a fb3c 8468 c43a
00000120: ab88 4b3c 3c7d 0bbd e6f1 d8bc 2288 c7bc
00000130: 1aa1 193d cef1 3b3c 1c1d 893c 0824 353d
00000140: 5344 21bd 8c9f 0dbd b443 1b3d 14a4 0f3c
00000150: 01bb 15bd 26e5 dbbc 3bea 0dbd 722e da3a
00000160: e61d 093d e556 42bd d737 4d3d 4fb7 b33b
00000170: 2634 493b 3a8e cc3b 9d7a 3b3c 46d2 d23c
00000180: 3d55 ca3c 87ca 26bd c303 56bd 420a bdbc
00000190: add7 553d 3e27 a9bd 71be 83bd 0684 4a3d
000001a0: 007b 193b 1d1b 82bc 6636 0d3d 4004 ac3d
000001b0: 862c ce3d 9495 733d 1c34 00bd bf68 f13c
000001c0: 0eb2 0f3d ec3c a5bd 5b02 883d 9214 c63b
000001d0: 62b1 dd3c 56b7 35bd 70e5 f6bb 5321 153d
000001e0: 9586 28bd d2d1 cebd d909 413d 643e 0f3d
000001f0: 61a9 ffbc d0a3 64bd 4a35 863c 2a94 5c3d
00000200: 3894 c3bc e163 a2bc 280f 01bd 5814 483d
00000210: 3e52 983c 392a 243d 8eab 403b 2dab a6bc
00000220: e4b9 8fbc 976d 0a3d 47b9 573d beed 173c
00000230: 2d40 803c c1b9 e83d dee1 5ebd 9684 e1bb
00000240: 2107 4cbd ee20 413d ed2a f63c 094e 013d
00000250: b5ea 1fbc ac29 e9bc 566a 103d 83fd 233d
00000260: 10ad b53c 4d0a 783d a407 42bd a601 04be
00000270: e713 743d 47b0 8cbc 5f0d 82bd 1292 db3c
00000280: c4a0 8aba 5fa6 873c df89 dbbb f118 d23d
00000290: 1eea 6c3d 7ccf 39bd ffde 853c 17d0 bbbc
000002a0: 4623 cc3b a192 73bc b834 3f3d 0413 8a3d
000002b0: 7d0b f9bc 507c 9d3d bbf3 7a3c ba74 793d
000002c0: de5d 9c3d 59a3 87bd f645 5fbd f633 bf3d
000002d0: 0e4c 893c 9acb 2fbd b401 a03c ec98 62ba
000002e0: 0cca 8fbc f046 bc3d eecf 883d 7254 8c3d
000002f0: bc1d 7f3c 0428 37bd a274 473c 1202 b9bd
00000300: 9899 29bd 74c7 44bd a40a a23c bd36 4abb
00000310: fe56 6ebd 48f0 9a3d ba4a 86ba e9cc be3c
00000320: 3a9a 273d c45d ad3c 3b69 f63c f4af 3cbd
00000330: 6363 243d 5360 613d aa62 49bd 7e1a 2abd
00000340: ec8a c93b f715 c73c 302f 54bd bbd3 7fbd
00000350: e23d 463d 3fa8 453c e8a5 65bc 905e 123d
00000360: 1db0 98bc 8064 19bd 021d 863c 1122 a3bd
00000370: 65dc 5ebc 62f5 f6bc 2b86 90bd 5a7d 44b9
00000380: 4b20 33bd b3b6 a8bc baf4 853b a319 8f3c
00000390: fd7f ebbc 8ba8 423d 001e ad3c 9971 e23c
000003a0: 1c0d 68bd fb06 4c3d ce5c 7e3a 51fd 3f3d
000003b0: e1e2 b9bc 79f1 61bd 10a2 bebb 67d9 433d
000003c0: 7bfa 5ebd 1cdd 95bb 8cec 48bc ac68 3c3d
000003d0: 233d a7bc 0664 583d d9b2 073d 8c44 dc3a
000003e0: 629d a2bc e4c9 05bd ec70 edbc 405f 85bc
000003f0: 5e51 ac3d 7080 e0bc 20aa d93b 670d 78bd

enc_6.1.bias f4 [64]
0.08863061 -0.15610626 0.16251366 -0.009972999 -0.018110171 -0.017434377 -0.025903517 0.013949488
0.03770283 0.0048018256 0.014404941 0.12552884 0.009009897 -0.003969107 0.085062854 0.08897145
-0.046198715 0.012987957 -0.025103075 -0.17251223 0.08696025 0.116568916 0.017117618 -0.022262307
-0.09761757 -0.011572336 -0.1648171 0.17165057 0.021344012 0.069951214 0.07179485 -0.12520501
0.026654623 0.14713296 0.09870319 0.074709855 0.1446522 -0.08501455 0.071135886 -0.14780371
0.048049685 -0.029648008 -0.19003345 -0.13724256 -0.032808438 -0.034185834 0.08957755 -0.15091456
0.057513665 -0.048152156 0.046632033 0.17904787 -0.010030138 0.11303114 -0.070671506 0.052173752
0.05228168 0.16555469 -0.035297453 -0.1947257 -0.16198882 0.054023862 0.15725261 -0.03521646
00000000: f783 b53d 52da 1fbe fb69 263e ca65 23bc
00000010: c85b 94bc 8ad2 8ebc 9d33 d4bc 658c 643c
00000020: 486e 1a3d a258 9d3b b402 6c3c a28a 003e
00000030: 3f9e 133c 480f 82bb 6f35 ae3d aa36 b63d
00000040: dd3a 3dbd 71cb 543c f7a4 cdbc 0ca7 30be
00000050: 3718 b23d afbb ee3d 3f3a 8c3c 715f b6bc
00000060: b8eb c7bd e599 3dbc d0c5 28be 2bc5 2f3e
00000070: a3d9 ae3c 9542 8f3d 2e09 933d be35 00be
00000080: cc5a da3c 06aa 163e e624 ca3d 7b01 993d
00000090: b51f 143e 1c1c aebd b1af 913d db59 17be
000000a0: bfcf 443d 61e0 f2bc 2198 42be 5089 0cbe
000000b0: 2462 06bd 7206 0cbd 6f74 b73d 5989 1abe
000000c0: 7393 6b3d 323b 45bd 3b01 3f3d 5358 373e
000000d0: 7355 24bc df7c e73d 39bc 90bd 25b4 553d
000000e0: 5125 563d 2b87 293e 1094 10bd 2d66 47be
000000f0: 66e0 25be 2048 5d3d d406 213e 223f 10bd
