reconstruction.pth (torch, 716370 bytes, 56 tensors)

enc_1.0.weight f4 [3, 3, 3, 3]
0	0x3d9102d5	0.07080618
1	0xbcdb4758	-0.026767418
2	0x3db9c356	0.090704605
3	0x3c881a5a	0.016614128
4	0x3e211dc7	0.15734015
5	0x3d2c3e30	0.042051494
6	0x3e3358f1	0.17514397
7	0x3e3e0c52	0.18559387
8	0xbb8c3e83	-0.004279913
9	0xbd0ecf05	-0.034865398
10	0x3df84e2d	0.12124286
11	0x3df4ba18	0.11949557
12	0x3daa5c05	0.083183326
13	0xbbb69765	-0.005572247
14	0x3ddcb3ae	0.10776459
15	0xbd6c34b3	-0.057667445
16	0x3e464c39	0.19365014
17	0x3dcc4967	0.09974938
18	0xbcea37b0	-0.028591007
19	0x3bae94c3	0.0053277924
20	0xbe2ebda0	-0.17064524
21	0xbd342d6d	-0.043988634
22	0x3c9f09db	0.01941388
23	0x3d942290	0.07233155
24	0x3e6882d0	0.22706151
25	0x3e09e5d0	0.13466573
26	0xbddbe5b8	-0.10737175
27	0xbe777e49	-0.24169268
28	0x3c30e1aa	0.01079599
29	0xbe6b0be5	-0.22953756
30	0x3da816dc	0.08207485
31	0xbe258a4b	-0.16166036
32	0xbdb972f9	-0.090551324
33	0xbcf08558	-0.029360458
34	0x3dde7be7	0.10863476
35	0xbe347054	-0.17620975
36	0xbdee45a0	-0.11634374
37	0xbda7a7b9	-0.081862874
38	0xbd941d5c	-0.07232162
39	0xbc50f33c	-0.012753304
40	0x3d396341	0.04526067
41	0xbd26bbc7	-0.040706422
42	0xbdc5e73b	-0.09663244
43	0x3e655940	0.22397327
44	0xbdcefaf6	-0.10106461
45	0xbdfc9abe	-0.12334202
46	0xbdd303b7	-0.10303443
47	0x3da18372	0.07886399
48	0xbd977eb7	-0.07397216
49	0x3d960927	0.073259644
50	0x3dda022c	0.106449455
51	0x3e4280af	0.18994401
52	0x3e065d5b	0.1312155
53	0xbe4da1c2	-0.20081237
54	0x3d22163e	0.039571993
55	0xbe363e39	-0.17797174
56	0x3cf37542	0.029718999
57	0x3d84fe37	0.064938
58	0x3da8c62e	0.08240925
59	0x3de29834	0.11064187
60	0xbe0e22ef	-0.13880514
61	0xbe2c8262	-0.16846612
62	0xbd37f86b	-0.044914644
63	0xbe075130	-0.13214564
64	0x3e45f284	0.19330794
65	0xbe0f2115	-0.13977464
66	0xbda50a86	-0.08058648
67	0x3d187868	0.037224203
68	0x3cb374b9	0.021906244
69	0x3d6b6173	0.05746598
70	0x3dc3c78a	0.095595434
71	0x3da67e75	0.081295885
72	0x3e833524	0.2562648
73	0xbd9ef3cf	-0.077613465
74	0xbd8a70fb	-0.067598306
75	0x3e711bf2	0.23545817
76	0x3d642fcd	0.05570965
77	0x3ddc999c	0.10771486
78	0x3e171047	0.14752303
79	0xbe225cd5	-0.15855725
80	0x3cabfae7	0.020993663

enc_1.0.bias f4 [3]
0	0xbdfb7c10	-0.122795224
1	0x3d98a021	0.07452417
2	0x3e95ab24	0.29232132

enc_1.1.weight f4 [3, 3, 3, 3]
0	0x3d73942b	0.059467476
1	0x3dc059cc	0.093921274
2	0xbe03b3e9	-0.12861599
3	0xbb94b116	-0.004537712
4	0x3d50f9d1	0.051019493
5	0xbbc1025c	-0.005890174
6	0xbdecb444	-0.115578204
7	0x3daf3170	0.08554351
8	0xbe474626	-0.19460353
9	0x3e624d17	0.2209972
10	0xbd12261d	-0.03568088
11	0xbd133a89	-0.035944495
12	0x3dd2df37	0.10296481
13	0x3e4a582e	0.197602
14	0x3d0b3548	0.03398636
15	0xbe0ebe5e	-0.13939807
16	0x3e302126	0.17200145
17	0xbd8ea967	-0.06965905
18	0xbd8a756a	-0.06760676
19	0xbd91605c	-0.07098457
20	0x3e1c637a	0.15272322
21	0x3dd8c2f1	0.10584057
22	0x3e6b1453	0.22956972
23	0x3d6f1e00	0.05837822
24	0x3dd635a3	0.10459449
25	0x3e1a42a4	0.15064484
26	0x3e226ace	0.15861055
27	0x3c3c291a	0.011484409
28	0x3d4629bf	0.048379656
29	0x3de52478	0.111885965
30	0x3e338bcb	0.17533796
31	0x3d9e27a3	0.07722404
32	0x3e421b39	0.18955697
33	0xbc7d80e2	-0.015472623
34	0xbd7cc588	-0.061711818
35	0x3d8a5da9	0.067561455
36	0xbe241682	-0.16024211
37	0xbcff6a75	-0.031178692
38	0x3e2a07ed	0.16604586
39	0x3d856704	0.06513789
40	0xbe3cf77a	-0.1845378
41	0xbe3774ca	-0.17915645
42	0xbd9ccd18	-0.07656306
43	0x3e17bc57	0.1481794
44	0xbdab01c2	-0.08349945
45	0xbcc5efc5	-0.024162183
46	0x3d1d2113	0.03836162
47	0x3e28f740	0.16500568
48	0x3e366c6c	0.17814797
49	0x3d60459d	0.05475389
50	0x3e364e91	0.17803408
51	0x3d5ac76c	0.05341284
52	0x3c7b1c78	0.015326612
53	0x3df26464	0.11835554
54	0xbe5bb684	-0.21456343
55	0x3e25cedf	0.16192196
56	0x3ce35d3f	0.027754424
57	0xbde2bbea	-0.11070998
58	0x3d6d75e6	0.057973765
59	0x3d8d1642	0.06889011
60	0x3e10ebf0	0.14152503
61	0x3c485cb9	0.012229138
62	0xbdbffa83	-0.09373953
63	0xbe3b0cd0	-0.18266606
64	0x3d949ea5	0.072568215
65	0xbe28bf19	-0.16479148
66	0x3e239a9f	0.15976952
67	0xbdc9ce76	-0.098538324
68	0xbd2202ad	-0.039553333
69	0x3e93ba77	0.288532
70	0xbc85c13b	-0.016327491
71	0xbe641ad3	-0.22275858
72	0xbdd70a68	-0.10500032
73	0x3dca02e7	0.09863835
74	0x3df5c555	0.12000529
75	0xbe61d78b	-0.2205488
76	0x3e2ce00c	0.16882342
77	0x3ddade28	0.10686904
78	0xbd4d497d	-0.050118912
79	0xbc2c104a	-0.0105019305
80	0xbd99d939	-0.07512135

enc_1.1.bias f4 [3]
0	0x3ed14238	0.40870833
1	0xb9b8f678	-0.00035278848
2	0x3ee54c1a	0.44784623

enc_2.1.weight f4 [3, 3, 3, 3]
0	0xbe2709d3	-0.16312341
1	0xbd35ae16	-0.044355474
2	0xbd418e33	-0.047254752
3	0x3c1651f4	0.009174813
4	0xbd9c3e58	-0.076290786
5	0xbe11e8f8	-0.14249027
6	0x3d65e00c	0.05612187
7	0x3dc9e569	0.0985821
8	0x3e583a7e	0.21116063
9	0xbcfe5d07	-0.031050218
10	0x3d62a43c	0.055332407
11	0xbe221d0f	-0.15831397
12	0x3e2b339c	0.16718906
13	0x3e287bc2	0.1645346
14	0x3d82e57a	0.063914254
15	0x3df17fae	0.11791931
16	0xbd397caf	-0.045284923
17	0xbd97a7d7	-0.0740506
18	0x3e4bfc4a	0.1992046
19	0xbcd12af5	-0.025533179
20	0xbdaa12d4	-0.083043724
21	0xbd6d526a	-0.057939924
22	0xbdf9c034	-0.12194863
23	0x3c366e0c	0.011134636
24	0x3df9ff6a	0.122069195
25	0x3dfdbefa	0.123899415
26	0x3de7ffe6	0.11328106
27	0xbe07a3b2	-0.13246039
28	0xbe152393	-0.14564352
29	0xbd2c5c1e	-0.042080037
30	0x3c2ad665	0.010427092
31	0xbd907930	-0.07054365
32	0xbd925f7c	-0.071471184
33	0xbd4fa65d	-0.050695766
34	0x3bf7421c	0.0075457226
35	0xbe16f945	-0.14743526
36	0xbb9b5e00	-0.0047414303
37	0xbba658fa	-0.005076525
38	0xbd925234	-0.07144585
39	0xbc6a516a	-0.014301637
40	0xbe37c640	-0.1794672
41	0xbd329827	-0.043602135
42	0x3c8aa1ba	0.01692282
43	0x3e37fea7	0.17968236
44	0x3e3b3ac7	0.1828414
45	0xbe2e734d	-0.17036171
46	0xbcc4db97	-0.02403049
47	0xbdfdabfe	-0.123863205
48	0x3e0a02ba	0.13477603
49	0xbdddff1d	-0.108396746
50	0x3c9b1863	0.018932527
51	0xbe840068	-0.2578156
52	0xbe4e6643	-0.20156197
53	0xbd978488	-0.07398325
54	0xbc0742d5	-0.00825568
55	0xbe288134	-0.16455537
56	0xbe07b954	-0.13254291
57	0x3d91c3d5	0.0711743
58	0xbe232eb4	-0.15935785
59	0xbe395fd4	-0.18102962
60	0xbd3acc55	-0.045605022
61	0x3db0a154	0.08624521
62	0x3dd54465	0.10413436
63	0xbd0703de	-0.032962672
64	0xbe43f3ca	-0.19135967
65	0xbd176137	-0.036957946
66	0xbe3c8aff	-0.18412398
67	0xbe2e7ef1	-0.17040612
68	0x3dda3453	0.10654511
69	0xbe2713df	-0.16316174
70	0xbd3577f9	-0.044303868
71	0x3bbe6f42	0.005811603
72	0x3dd5ec31	0.104454406
73	0x3b26bebc	0.0025443276
74	0x3e3c9e1c	0.18419689
75	0x3d7db86d	0.06194346
76	0x3d52572b	0.05135266
77	0xbdc879d6	-0.09788863
78	0x3cf645da	0.030062605
79	0x3ddc5a9a	0.107594684
80	0x3dac2db7	0.08407157

enc_2.1.bias f4 [3]
0	0x3d51fabb	0.051264506
1	0x3d61ac25	0.05509581
2	0xbd15c779	-0.036567185

enc_2.2.weight f4 [3, 3, 3, 3]
0	0xbe185a8e	-0.14878294
1	0x3d832ad5	0.06404654
2	0x3da52402	0.080635086
3	0xbe42a856	-0.19009528
4	0x3d0ddebc	0.034636244
5	0x3e03008a	0.12793174
6	0xbe0ed390	-0.13947892
7	0x3e023f62	0.12719491
8	0xbd4e77f2	-0.050407358
9	0x3da05c19	0.07830066
10	0xbe0551fa	-0.13019553
11	0xbe4d0fa0	-0.20025492
12	0xbd918235	-0.07104913
13	0xbbea75dd	-0.0071551637
14	0xbdc00398	-0.093756855
15	0x3da5f29b	0.08102914
16	0xbb777b4a	-0.0037762695
17	0xbe4d766b	-0.20064704
18	0x3dde9750	0.10868704
19	0xbdd1151c	-0.102091044
20	0x3cb6b3dd	0.022302562
21	0x3dea254b	0.11432894
22	0x3e1f5881	0.15561105
23	0x3df48ee9	0.119413204
24	0x3dd2871f	0.102796786
25	0x3d4d6240	0.050142527
26	0x3db87b9a	0.0900795
27	0x3e14378d	0.14474316
28	0x3e3501f1	0.17676522
29	0xbd16a4f6	-0.036778413
30	0x3e515a32	0.20444563
31	0x3e5481ee	0.20752689
32	0x3c9882df	0.018617092
33	0x3e3d6450	0.18495297
34	0x3e2d44ba	0.16920748
35	0xbddda32e	-0.1082214
36	0x3df76329	0.1207946
37	0x3c8dda9d	0.017316157
38	0xbdd18621	-0.10230661
39	0xbe1ad0a8	-0.15118659
40	0x3e1ffd63	0.15624003
41	0x3ce57235	0.02800856
42	0xbdb1e944	-0.0868707
43	0xbd6e2440	-0.05814004
44	0x3c3d39be	0.011549411
45	0x3d411a11	0.047144
46	0xbc6068c4	-0.013696853
47	0xbe493041	-0.19647314
48	0x3cdb9f73	0.02680943
49	0xbe020956	-0.12698874
50	0x3d79527f	0.06086969
51	0x3d8ea6bb	0.06965395
52	0xbdf05582	-0.11735059
53	0xbd0b5053	-0.03401215
54	0x3cb32cdd	0.021871978
55	0x3dddb990	0.10826409
56	0x3e3f34c2	0.1867247
57	0xbe8075be	-0.2508983
58	0x3d029a05	0.031885166
59	0xbe089829	-0.13339294
60	0xbe01bce6	-0.12669715
61	0x3da0d249	0.07852609
62	0x3d87ebf6	0.06636803
63	0xbe2014a4	-0.15632874
64	0x3d8ebd2e	0.06969677
65	0xbe3b0656	-0.18264136
66	0x3cc3eab6	0.02391563
67	0x3e0c94bd	0.13728614
68	0x3e05655d	0.13026948
69	0x3e322e05	0.17400368
70	0xbd355ff2	-0.044280954
71	0xbca92947	-0.020649565
72	0xbe2b308a	-0.16717735
73	0x3c162440	0.009163916
74	0xbd9da166	-0.076968
75	0xbe21d9ba	-0.15805712
76	0x3e024747	0.12722503
77	0xbd9e120f	-0.07718288
78	0x3e070cc0	0.13188457
79	0x3e4b4d67	0.19853745
80	0x3d498a65	0.04920425

enc_2.2.bias f4 [3]
0	0xbd40606e	-0.046966963
1	0x3e6021c8	0.21887887
2	0xbdc4b049	-0.09603936

enc_3.1.weight f4 [3, 3, 3, 3]
0	0xbdcdd6f7	-0.10050767
1	0x3d9149ca	0.07094152
2	0x3c8f5720	0.0174976
3	0xbdd9e759	-0.10639829
4	0xbe33e04a	-0.17566028
5	0x3d8c74f9	0.06858248
6	0x3e2e0b01	0.16996385
7	0xbb3c5749	-0.002873855
8	0xbd9ffaa5	-0.078114785
9	0x3d25df18	0.040495962
10	0x3e5dfe85	0.21679123
11	0xbc18333e	-0.009289561
12	0x3d28f4a5	0.041248936
13	0x3da0978e	0.07841407
14	0x3dce9cd5	0.10088507
15	0x3de7fe6c	0.11327824
16	0x3d8310ec	0.06399712
17	0x3d571a12	0.052515097
18	0xbd8391a8	-0.06424266
19	0xbe4de1b2	-0.20105627
20	0xbda66eb0	-0.08126581
21	0x3e8314c7	0.2560179
22	0x3e12fac6	0.14353475
23	0x3cb6c6b6	0.02231155
24	0xbcff8169	-0.031189637
25	0x3e2c32f2	0.16816309
26	0xbd463f6b	-0.048400324
27	0x3d652e5d	0.05595242
28	0xbe34ca28	-0.17655241
29	0xbe16629b	-0.14686053
30	0x3dad7ee6	0.084714696
31	0xbdb78652	-0.089611664
32	0xbddf7014	-0.10910049
33	0xbe01b9f6	-0.12668595
34	0x3d238845	0.03992488
35	0x3e0aaf19	0.13543357
36	0x3cb577c3	0.022151833
37	0xbd8c13d0	-0.068397164
38	0x3dff92ba	0.12479158
39	0x3dde06b1	0.1084112
40	0xbda503ac	-0.08057341
41	0x3dd80ce1	0.105493315
42	0xbc182f36	-0.0092886
43	0xbe49b0fc	-0.1969642
44	0xbcc836b3	-0.024440145
45	0x3e7d3dc3	0.24730591
46	0xbe0153f4	-0.12629682
47	0x3e2118dc	0.1573214
48	0xbd9f63a8	-0.0778268
49	0xbd6216b7	-0.055197444
50	0x3ca97499	0.02068548
51	0x3e4810e4	0.19537693
52	0x3d171283	0.03688289
53	0xbdf9101b	-0.12161275
54	0xbe060bc3	-0.13090424
55	0x3d911042	0.07083179
56	0xbd9d8922	-0.07692172
57	0xbda54fcd	-0.080718614
58	0x3e164736	0.14675602
59	0xbe373282	-0.17890361
60	0xbd0f3537	-0.03496286
61	0xbd177ed4	-0.036986187
62	0x3d850fa4	0.06497124
63	0xbd867ca3	-0.06566741
64	0xbdd56026	-0.104187295
65	0xbdafc047	-0.08581596
66	0x3d4bae5d	0.049726833
67	0xbd5f43ec	-0.054508135
68	0xbc9652f5	-0.018350104
69	0x3e3264bd	0.17421241
70	0x3d842118	0.06451625
71	0xbd3a34e7	-0.045460608
72	0x3ca13428	0.01967819
73	0x3e45fe95	0.19335397
74	0xbd842356	-0.06452052
75	0xbe6a26fd	-0.22866435
76	0xbe489eac	-0.19591779
77	0xbe64cda4	-0.2234407
78	0x3b833fa1	0.004005388
79	0x3bbec5f5	0.005821938
80	0x3d3aa402	0.045566566

enc_3.1.bias f4 [3]
0	0x3e08e8c7	0.13370048
1	0x3d054fe9	0.03254691
2	0xbe8baf9a	-0.2728241

enc_3.2.weight f4 [3, 3, 3, 3]
0	0x3d57f6a3	0.052725445
1	0x3dd9980f	0.10624706
2	0x3b947f85	0.004531803
3	0x3e372953	0.17886858
4	0xbe1d9021	-0.15387012
5	0x3e2eac70	0.17057967
6	0x3e1a1647	0.1504756
7	0x3d1546e4	0.03644456
8	0x3c3bf3e9	0.011471727
9	0x3e007050	0.12542844
10	0xbdcb2ebd	-0.09921024
11	0x3da388da	0.07985087
12	0x3d804089	0.06262309
13	0x3e2aeb4e	0.16691324
14	0x3db4ddce	0.088313684
15	0x3da44118	0.08020228
16	0x3d9d50ac	0.076814026
17	0x3d12c155	0.035828907
18	0x3dcf2bc3	0.10115769
19	0xbccb2bb5	-0.024801115
20	0x3dcb8b1a	0.09938641
21	0xbd7fa6b3	-0.062414836
22	0x3d92cc94	0.071679264
23	0xbe059e19	-0.1304859
24	0x3c2fe6e1	0.010736198
25	0xbd1a8fc1	-0.03773475
26	0x3df11cec	0.117730945
27	0x3da34b43	0.079733394
28	0x3e28095a	0.16409817
29	0xbda1d347	-0.07901626
30	0xbe343234	-0.17597276
31	0xbe50cfc8	-0.20391762
32	0xbe4a20d2	-0.19739082
33	0xbe29a867	-0.16568147
34	0xbc2dff5e	-0.010619966
35	0xbe05026a	-0.12989202
36	0x3ddb82fe	0.10718344
37	0x3d467eca	0.04846076
38	0x3d93cd65	0.0721691
39	0xbc528ae9	-0.012850502
40	0x3e6e7284	0.23285872
41	0x3d87c4c2	0.066293254
42	0x3deae101	0.11468697
43	0x3d77cb2b	0.06049649
44	0x3ca538e2	0.020168725
45	0xbe12d180	-0.1433773
46	0x3c9463ca	0.01811399
47	0xbe4531a2	-0.19257215
48	0x3dfa46a9	0.122205086
49	0x3d46bf0b	0.048522037
50	0xbcfa6458	-0.030565426
51	0xbd1950a7	-0.03743043
52	0x3d33f2e1	0.0439328
53	0x3cb4737b	0.022027722
54	0xbdcc9496	-0.09989278
55	0xbd1ed60d	-0.038778353
56	0x3e13682a	0.14395204
57	0xbcf71ac9	-0.03016414
58	0x3d957ee4	0.07299593
59	0x3d68dc0e	0.056850486
60	0x3bbcddad	0.0057637305
61	0xbe2f9fb0	-0.1715076
62	0xbe25db46	-0.16196927
63	0x3d536e6b	0.051618975
64	0x3e25fe65	0.16210325
65	0x3da153f7	0.07877343
66	0x3d0eb522	0.03484071
67	0x3e3a4c78	0.18193233
68	0x3e2003db	0.1562647
69	0x3d71c4c8	0.059025556
70	0x3d98ee7d	0.07467363
71	0xbe131407	-0.14363109
72	0x3e003be6	0.1252285
73	0x3e859bf7	0.26095554
74	0x3e869c4a	0.26291114
75	0x3e4c14bd	0.19929786
76	0xbe62e3e5	-0.22157247
77	0xbd782901	-0.06058598
78	0x3e0f45b3	0.13991432
79	0x3df84f62	0.12124516
80	0xbd7b6a6c	-0.06138079

enc_3.2.bias f4 [3]
0	0x3e0ffdc2	0.14061645
1	0xbe04b793	-0.12960653
2	0xbdae9296	-0.08524053

enc_4.1.weight f4 [16, 3, 3, 3]
0	0xbe0ebba9	-0.13938774
1	0x3e313a81	0.17307474
2	0x3c765f61	0.015037389
3	0x3e4370f9	0.19086064
4	0xbdfe6258	-0.12421101
5	0xbdcdb368	-0.10043985
6	0xbda6083d	-0.0810704
7	0xbda95785	-0.08268646
8	0x3e342d04	0.17595297
9	0xbc589bbd	-0.013220725
10	0xbd39ca47	-0.045358922
11	0x3e3c0a69	0.18363346
12	0x3dad4b34	0.084616095
13	0xbe4f8b67	-0.20268022
14	0x3e627a1b	0.22116892
15	0xbde58cf6	-0.11208527
16	0xbc61a381	-0.0137718925
17	0x3cf5a8ab	0.029987654
18	0x3c33d34a	0.010975668
19	0x3dfde7fa	0.12397762
20	0xbdd614ee	-0.10453211
21	0x3c5c633d	0.013451395
22	0xbd3bdd52	-0.045865364
23	0x3e78405d	0.24243303
24	0x3e1b023d	0.15137573
25	0xbdde8a96	-0.10866277
26	0x3e333751	0.1750157
27	0x3d583737	0.052787032
28	0x3c602fab	0.01368324
29	0xbe0237f0	-0.12716651
30	0xbd2c2baa	-0.04203383
31	0x3e4a1176	0.19733223
32	0x3e2501d9	0.16113986
33	0xbda898f5	-0.08232299
34	0x3b6ecf7a	0.0036439584
35	0xbda9d353	-0.0829226
36	0xbcc8fcb7	-0.024534566
37	0x3d1b20bd	0.03787302
38	0xbe31db7c	-0.17368883
39	0x3e1bd0aa	0.15216318
40	0x3d96c143	0.073610805
41	0xbc9b280d	-0.018939996
42	0xbdc812f2	-0.097692385
43	0x3e5cf91b	0.21579401
44	0x3cd1dbca	0.025617499
45	0xbe60171c	-0.21883816
46	0x3d49f34f	0.049304303
47	0x3d0ef9a0	0.03490603
48	0x3d802eb3	0.06258907
49	0xbdfffee0	-0.124997854
50	0xbe128e9f	-0.14312218
51	0x3dcc8e2c	0.09988055
52	0x3e845052	0.2584253
53	0x3e1fd911	0.15610148
54	0xbd5d5033	-0.054031562
55	0x3d902c40	0.0703969
56	0xbde62bd2	-0.11238827
57	0x3e04f86d	0.12985392
58	0xbd4f249f	-0.050572034
59	0xbd9aeb39	-0.075643964
60	0xbe06f3e4	-0.13178974
61	0xbd358f89	-0.04432634
62	0xbe09d810	-0.13461328
63	0xbd90ac8d	-0.070641614
64	0xbe38d32b	-0.18049304
65	0x3dce6f22	0.10079791
66	0xbe27ae8a	-0.16375175
67	0xbe4071b6	-0.18793377
68	0x3d70351d	0.058644403
69	0xbe1d0f25	-0.15337808
70	0xbe181613	-0.1485217
71	0xbdd42d9c	-0.10360262
72	0xbd82df49	-0.063902445
73	0x3d85695a	0.06514235
74	0xbd8deb92	-0.06929697
75	0xbdbd3f95	-0.09240643
76	0xbc9ca371	-0.019120904
77	0x3dcb1f6f	0.09918105
78	0xbd7a3e34	-0.061094478
79	0xbcf1fc5c	-0.02953928
80	0xbdb3ca2d	-0.08778796
81	0x3daaad5e	0.083338484
82	0x3e0902d1	0.1337998
83	0xbe0f26f9	-0.1397971
84	0x3d9d9d8b	0.076960646
85	0x39e0747f	0.00042811406
86	0x3dc147e5	0.09437541
87	0x3e57bf75	0.21069129
88	0xbda4b7aa	-0.08042844
89	0xbe1fbcbb	-0.15599339
90	0x3e31958d	0.17342205
91	0xbe050c38	-0.12992942
92	0x3e15421b	0.14575998
93	0xbd969455	-0.07352511
94	0x3d02463a	0.031805255
95	0x3e4c2819	0.19937171
96	0x3cba59db	0.022747925
97	0x3caff14f	0.02147737
98	0x3d29d096	0.04145869
99	0x3d28bdda	0.04119668
100	0xbe12b776	-0.14327797
101	0x3dadcb37	0.08486026
102	0x3aaa23af	0.0012980605
103	0xbd1624fa	-0.036656357
104	0x3dcfc0ea	0.10144217
105	0xbe076a8c	-0.13224238
106	0x3e244f92	0.16045979
107	0xbe070a94	-0.13187629
108	0x3e1488c2	0.14505294
109	0xbe13f5b0	-0.14449191
110	0x3dafe0d9	0.08587808
111	0xbdf0bdd8	-0.1175496
112	0xbd12ee14	-0.03587158
113	0x3de15dd0	0.110042214
114	0x3e30271d	0.1720242
115	0xbc8441b9	-0.01614462
116	0x3d2383e0	0.039920688
117	0x3de9ae5c	0.114102095
118	0x3db39802	0.087692276
119	0x3e3011c7	0.17194282
120	0x3ba93a85	0.005164447
121	0x3d94ec65	0.07271651
122	0x3e67b5a3	0.22627883
123	0xbe263a24	-0.16233116
124	0x3e16290c	0.14664096
125	0x3df4edee	0.11959444
126	0x3d4b94d5	0.049702484
127	0xbe168af4	-0.14701444
128	0xbd08f3de	-0.033435695
129	0x3c886c94	0.016653337
130	0x3e4d62c0	0.20057201
131	0xbdabb056	-0.08383243
132	0x3b0a7051	0.0021124075
133	0x3e230034	0.15918046
134	0xbd833860	-0.06407237
135	0x3e292946	0.16519651
136	0x3cd6d0f6	0.026222687
137	0xb9e01003	-0.0004273654
138	0x3d984464	0.074349195
139	0x3d4d46c7	0.050116327
140	0xbdea90b6	-0.11453383
141	0xbd5d748f	-0.054066237
142	0xbe0f025d	-0.13965745
143	0x3d05197c	0.032495007
144	0x3e473ab3	0.19455986
145	0xbdbe00df	-0.0927751
146	0x3d999478	0.07499021
147	0x3d9a9b4f	0.07549154
148	0xbc080df3	-0.008304107
149	0xbe202e8c	-0.15642756
150	0xbe29a0bf	-0.16565226
151	0xbc41d48a	-0.011830458
152	0x3dd3fcc2	0.10350944
153	0x3e327d0d	0.17430516
154	0x3c20b9bf	0.00980991
155	0xbe3bc705	-0.18337639
156	0xbcd18a70	-0.025578707
157	0x3e3f0e5d	0.18657823
158	0xbe189005	-0.14898689
159	0xbe1a918a	-0.15094581
160	0x3e267e12	0.1625903
161	0xbe392145	-0.18079098
162	0x3dd69a1e	0.10478614
163	0xbe28bca1	-0.16478206
164	0x3cbcc25b	0.023041895
165	0xbca8d572	-0.020609591
166	0x3d699712	0.057028838
167	0x3d05bc1d	0.032650102
168	0xbcd73ef5	-0.026275137
169	0x3dc9998e	0.09843741
170	0x3ddf841d	0.109138705
171	0x3d7e1b8e	0.062037997
172	0x3e0d4038	0.13794029
173	0x3e0225bf	0.12709711
174	0x3e398c00	0.18119812
175	0x3e094b1e	0.13407561
176	0xbc73c8bd	-0.014879403
177	0xbe04e225	-0.12976892
178	0x3cca2aa1	0.02467853
179	0xbd9f8309	-0.07788665
180	0x3e1cc5d0	0.15309834
181	0x3e4c7e4a	0.1997005
182	0x3cc84d7f	0.024451016
183	0x3e021c3a	0.1270608
184	0xbdbd1f9b	-0.09234544
185	0x3d194020	0.03741467
186	0x3e18322c	0.14862889
187	0xbe1a51c3	-0.15070252
188	0x3d8ae026	0.06781034
189	0xbd8ae3ed	-0.06781755
190	0xbdb4083c	-0.08790633
191	0xbe1dbeac	-0.15404767
192	0xbce1e9f0	-0.02757737
193	0x3d385a64	0.04500808
194	0xbdc3feb7	-0.095700674
195	0xbc9a177c	-0.018810026
196	0x3e099941	0.13437368
197	0x3de6fed6	0.11279075
198	0xb9b44d41	-0.00034389834
199	0xbd192888	-0.03739217
200	0x3df35bee	0.118827686
201	0x3d75ee4f	0.060041722
202	0xbd8c4f66	-0.068510816
203	0xbe4b2e65	-0.19841917
204	0xbc3e3d3f	-0.011611282
205	0xbe3992b8	-0.18122375
206	0x3d80feaa	0.06298573
207	0x3aaeb51d	0.0013329122
208	0xbd85e834	-0.0653843
209	0x3db866dd	0.090039946
210	0xbb73705b	-0.0037145826
211	0xbdb62c83	-0.08895209
212	0x3b5d97e9	0.003381247
213	0xbd8548b3	-0.06508007
214	0xbd8c681f	-0.06855797
215	0x3e15ee8e	0.14641783
216	0x3d35b3ad	0.044360805
217	0xbdaef60a	-0.08543022
218	0xbcba04f6	-0.022707444
219	0xbdb19df0	-0.08672702
220	0x3cfb33dc	0.030664377
221	0xbdd6a6c2	-0.10481025
222	0x3df979f6	0.12181465
223	0xbccaef09	-0.024772184
224	0xbe1676a4	-0.14693695
225	0x3e018dbf	0.12651728
226	0x3cd78a85	0.026311168
227	0x3d249e58	0.04019007
228	0x3d843445	0.06455282
229	0x3d84cf19	0.06484813
230	0xbdf78637	-0.12086146
231	0x3e01f8cb	0.12692563
232	0x3e04c511	0.129658
233	0x3dd3b911	0.10338033
234	0x3e27d399	0.16389312
235	0x3dfe3301	0.12412072
236	0xbc189f6a	-0.009315351
237	0xbd9d3527	-0.07676154
238	0x3dd26eb7	0.102750234
239	0x3cee44e9	0.029085593
240	0x3dafd8b0	0.08586252
241	0x3dd3a5b7	0.10334342
242	0x3dd4b5d7	0.10386246
243	0x3c39d994	0.011343379
244	0x3d9edc1a	0.07756825
245	0x3e13adf2	0.14421824
246	0xbdb27265	-0.08713225
247	0x3db38e81	0.08767415
248	0xbe0fc809	-0.14041151
249	0x3db824e8	0.08991414
250	0xbe46347b	-0.19355957
251	0xbe581597	-0.21101986
252	0xbd9dddd8	-0.07708329
253	0xbe2f0300	-0.17090988
254	0x3df50f4e	0.1196581
255	0x3db5e250	0.08881056

enc_4.1.bias f4 [16]
0	0xbe359ca6	-0.17735538
1	0xbbf8f93f	-0.007598072
2	0xbe191b73	-0.14951877
3	0x3d074440	0.033024073
4	0xbe5deb0c	-0.21671695
5	0xbdabbc25	-0.08385495
6	0xbdc4562d	-0.09586749
7	0xbe356e5b	-0.17717879
8	0xbe5460c1	-0.20740034
9	0xbc70b952	-0.014692621
10	0xbdc5b33c	-0.09653327
11	0xbcafad5d	-0.02144497
12	0xbe87fe48	-0.2656119
13	0x3cb9e318	0.022691295
14	0x3c79a0ec	0.015236121
15	0xbb8bf2b6	-0.0042708768

enc_4.2.weight f4 [16, 16, 3, 3]
0	0x3d922bd1	0.071372636
1	0x3e08a13e	0.13342759
2	0x3d052b05	0.03251173
3	0xbd7b7f2e	-0.061400585
4	0x3d15d4dc	0.03657995
5	0xbcb05932	-0.021526907
6	0xbd04619a	-0.032319643
7	0xbd2a3196	-0.041551195
8	0xbd7ef3b4	-0.062244132
9	0xbd615fff	-0.05502319
10	0x3d4704fc	0.048588738
11	0x3e10a28f	0.14124511
12	0xbc393be8	-0.011305787
13	0xbdff635e	-0.12470125
14	0x3d45d289	0.048296485
15	0x3cc7123a	0.024300683
16	0xbd4257d0	-0.047447026
17	0x3cc01189	0.023445861
18	0xbcf8ba59	-0.030362295
19	0xbdb32520	-0.087473154
20	0xbdb8189a	-0.089890674
21	0x3d73149e	0.059345834
22	0x3cbfadbc	0.023398273
23	0xbd513212	-0.05107314
24	0x3d17e4c2	0.037083395
25	0x3cdaf529	0.02672823
26	0xba8e6775	-0.0010864573
27	0xbd2e9c55	-0.04262956
28	0xbc6fcf5e	-0.0146368425
29	0xbc51dcc4	-0.012808982
30	0x3cba11f3	0.022713637
31	0x3bd28358	0.006424349
32	0xbcd3e7c6	-0.025867354
33	0xbd8fc074	-0.070191294
34	0xbcdf1074	-0.027229525
35	0xbd8e65fc	-0.06953046
36	0xbc13c384	-0.0090187825
37	0x3e19e447	0.15028487
38	0x3d8cd00e	0.06875621
39	0xbcb3f73f	-0.021968482
40	0x3d0231df	0.031785842
41	0x3d1f121f	0.03883564
42	0x3cb0e0ba	0.021591533
43	0xbd1d80db	-0.038452964
44	0xbcb79a4f	-0.022412447
45	0xbc1fca99	-0.009752893
46	0xbd577a6d	-0.05260699
47	0xbcc86f50	-0.02446714
48	0xbd4b800a	-0.049682654
49	0x3d6de69d	0.058081258
50	0x3cac6ec4	0.02104891
51	0xba783fcd	-0.0009469956
52	0xbdcc6004	-0.09979251
53	0xbdf0d3ce	-0.117591485
54	0xbc8b3a52	-0.016995583
55	0x3d80940f	0.0627824
56	0x3de32b7c	0.11092278
57	0x3dacac31	0.084312804
58	0x3ca00c96	0.019537251
59	0x3d986b58	0.07442349
60	0xbb28b286	-0.0025741174
61	0xbda32404	-0.07965854
62	0xbd22f93e	-0.039788477
63	0x3d80bca7	0.062859826
64	0x3d440580	0.047856808
65	0x3b1ff343	0.002440647
66	0xbc9bbc34	-0.01901064
67	0x3ad911c4	0.0016561081
68	0xbd6c7ade	-0.057734363
69	0xbd7534cd	-0.059864808
70	0xbc9fc818	-0.019504592
71	0xbd8e2980	-0.06941509
72	0x3cf5021f	0.029908238
73	0x3b5f3e54	0.003406425
74	0xbd1b3ae2	-0.037897952
75	0x3dc5a6fa	0.09650989
76	0x3c23ad90	0.009990111
77	0xbd17f964	-0.03710307
78	0xbc09e519	-0.008416438
79	0x3d5ab482	0.053394802
80	0x3d43bd69	0.047788057
81	0x3dac5715	0.08415047
82	0x3e07e4dd	0.13270898
83	0xbd48e3a3	-0.049045216
84	0x3d266d8f	0.040631827
85	0xbc1f3d5e	-0.009719221
86	0xbe1041ae	-0.14087555
87	0xbd7ec22d	-0.0621969
88	0x3d884b90	0.066550374
89	0xbdeefc57	-0.11669224
90	0x3d9b547c	0.075844735
91	0xbd89b523	-0.06724002
92	0xbb21f0a6	-0.0024710088
93	0x3d843023	0.06454494
94	0xbbfc2164	-0.00769441
95	0xbd787844	-0.06066157
96	0xbb8c487e	-0.0042811027
97	0x3da4b6af	0.08042657
98	0xba9ea620	-0.0012103952
99	0x3c455c8a	0.012045989
100	0xbbd29f6e	-0.006427697
101	0xbb8476cc	-0.004042482
102	0xbd3dd9fb	-0.04635046
103	0xbcc7b140	-0.024376512
104	0xbc495bec	-0.012289982
105	0xbc1b616a	-0.009483675
106	0x3d912606	0.070873305
107	0x3d905e13	0.07049193
108	0xbc43a439	-0.011941009
109	0xbd5f96bd	-0.054587115
110	0x3c3e438f	0.011612787
111	0xbd97f239	-0.07419247
112	0x3d34c798	0.04413566
113	0xbdd972a7	-0.10617571
114	0x3cbfbfb5	0.023406843
115	0x3d743536	0.05962106
116	0xbcabbf75	-0.020965317
117	0xbcf513be	-0.02991664
118	0xbdb26daf	-0.08712327
119	0x3d604931	0.0547573
120	0xbcbca193	-0.023026263
121	0xbd2f599a	-0.04281006
122	0xbce07c33	-0.027402973
123	0xbd91a176	-0.07110874
124	0xbd2b909d	-0.04188596
125	0xbd5ab44e	-0.05339461
126	0x3dad2e48	0.08456093
127	0x3d13086d	0.035896707
128	0x3d495dcb	0.049161714
129	0x3ddbe6b2	0.10737361
130	0x3de00b18	0.10939616
131	0x3cfb7460	0.03069514
132	0x3d05c07b	0.032654267
133	0x3dd88946	0.10573058
134	0x3dd124e8	0.102121174
135	0x3d172d80	0.036908627
136	0x3d27fd06	0.041012786
137	0x3c166892	0.009180205
138	0xbd0072c6	-0.031359456
139	0x3d093b19	0.033503626
140	0x3d27dba2	0.040980943
141	0x3cc8e4c4	0.024523146
142	0x3db4b0ae	0.088227615
143	0xbd2798ee	-0.04091733
144	0x3b717205	0.0036841643
145	0x3be222ce	0.0069011217
146	0x3d8e693e	0.06953667
147	0x3b8c3a56	0.004279415
148	0x3d85da30	0.065357566
149	0xbc67126c	-0.014103513
150	0xbd976b34	-0.07393494
151	0xbcff6423	-0.031175679
152	0xbdf8f529	-0.121561356
153	0x3d414abe	0.04719042
154	0x3deb5226	0.11490278
155	0x3dbbe069	0.09173662
156	0xbe03aeed	-0.12859698
157	0xbdbeff10	-0.09325993
158	0x3cd636a9	0.02614911
159	0xbd55c8a1	-0.052193288
160	0x3c071b06	0.008246189
161	0x3cce52c5	0.025185952
162	0xbd1faa29	-0.038980637
163	0xbd8739da	-0.06602831
164	0xbdae6d9f	-0.08517002
165	0x3c39d6c2	0.011342706
166	0x3d864003	0.06555178
167	0xbd3597b4	-0.04433413
168	0x3d8a0842	0.06739856
169	0xbd761531	-0.060078803
170	0xbda03c31	-0.078239806
171	0x3cf0155a	0.029307056
172	0x3c5e9af4	0.013586748
173	0xbd856126	-0.0651267
174	0xbd128cde	-0.035778873
175	0xbc75e665	-0.015008544
176	0xbdedf00d	-0.11618052
177	0xbdd78911	-0.1052419
178	0xbd35aaf3	-0.044352483
179	0xbd5d211d	-0.053986657
180	0x3c8cdbff	0.017194746
181	0x3c3de589	0.01159037
182	0x3d841f33	0.06451263
183	0xbd006dfb	-0.031354886
184	0xbc93d0bf	-0.018043874
185	0x3dc047c5	0.09388689
186	0xbd76996f	-0.06020492
187	0xbce09f84	-0.027419813
188	0x3df13904	0.11778453
189	0xbd2f3edc	-0.042784557
190	0xbcee8ba7	-0.029119326
191	0xbbe6879a	-0.007035208
192	0x3c43d6e3	0.011953088
193	0x3d593088	0.0530248
194	0xbb6ea4b6	-0.0036414093
195	0xbcfdc087	-0.030975593
196	0x3d91bbd6	0.07115905
197	0xbd878944	-0.06617978
198	0x3d118470	0.035526693
199	0x3caec6c4	0.021335013
200	0x3c5e090a	0.01355196
201	0x3d9f52f8	0.07779497
202	0x3b4d4d29	0.0031326509
203	0x3d7ba5e4	0.061437503
204	0xbd25abbe	-0.04044699
205	0x3bb51854	0.005526582
206	0x3cc3b20e	0.023888614
207	0x3abf2b11	0.0014584978
208	0x3c4e73ea	0.012600878
209	0x3d8e4502	0.06946756
210	0xbd8b79a9	-0.06810314
211	0x3d0370d4	0.032090023
212	0xbd1d8f31	-0.038466636
213	0xbcfeb473	-0.031091904
214	0xbd236bc7	-0.039897706
215	0x3d4fcd96	0.05073317
216	0xbae8dd1d	-0.0017766092
217	0xbcb8b419	-0.022546815
218	0xbd94db32	-0.07268371
219	0x3d4b1e41	0.0495894
220	0x3dac49d7	0.08412521
221	0xbce368ef	-0.027759997
222	0x3d33207e	0.04373216
223	0x3d0cae7c	0.03434609
224	0xbd3e0a8d	-0.04639678
225	0xbca80c7e	-0.02051377
226	0x3b526067	0.0032100917
227	0xbd963f63	-0.07336309
228	0xbb892130	-0.0041848645
229	0xbb322ea2	-0.002718844
230	0xbd4d61b9	-0.050142024
231	0x3b9d6757	0.004803579
232	0xbd946134	-0.072451025
233	0xbdf99dec	-0.12188324
234	0x3d198def	0.037488874
235	0x3cafa987	0.021443142
236	0x3d0a9146	0.03382995
237	0x3d0a6958	0.03379187
238	0x3da3afe0	0.0799253
239	0x3c884d19	0.016638326
240	0xbd70fe8a	-0.058836497
241	0x3d12bfdd	0.035827506
242	0x3d40e29e	0.04709112
243	0xbd253488	-0.0403333
244	0x3d330a5e	0.04371106
245	0x3cbc94b7	0.023020132
246	0x3d846c79	0.06466002
247	0xbd95a648	-0.07307106
248	0xbda25d6c	-0.07927975
249	0x3d6313d6	0.05543884
250	0x3bf9decb	0.007625436
251	0x3cf69e29	0.030104714
252	0x3ddfe5a7	0.109324746
253	0x3e055110	0.13019204
254	0x3a129f58	0.0005593202
255	0xbccfe54a	-0.025377888

enc_4.2.bias f4 [16]
0	0xbe29c72b	-0.16579883
1	0xbdf97a6b	-0.121815525
2	0x3bb2b65e	0.005453869
3	0xbdc74344	-0.09729627
4	0xbcee9899	-0.029125499
5	0xbdbf59b6	-0.09343283
6	0xbd0a3099	-0.033737753
7	0xbe5a342f	-0.21308969
8	0xbca3f48d	-0.020014072
9	0xbcc5a925	-0.024128506
10	0x3e0147d2	0.12625054
11	0xbe129562	-0.14314798
12	0x3d0c3f63	0.034240138
13	0xbddab865	-0.10679702
14	0xbcbcfe6e	-0.02307054
15	0xbdc55bc1	-0.09636641

enc_5.1.weight f4 [32, 16, 3, 3]
0	0xbd255286	-0.040361904
1	0xbdc786a6	-0.09742479
2	0x3aa9ccbf	0.0012954696
3	0x3d18470c	0.03717713
4	0xbd59a7cf	-0.05313855
5	0x3cd2abbe	0.025716659
6	0x3cc3f65b	0.023921182
7	0xbc6ca936	-0.01444464
8	0xbdb2745f	-0.08713602
9	0x3d3caeec	0.046065256
10	0x3da11028	0.0786441
11	0x3a4f3c27	0.0007905387
12	0xbdc495a9	-0.09598858
13	0x3d6d494e	0.057931237
14	0xbd78d4f2	-0.060749955
15	0xbb9416db	-0.004519326
16	0x3d9ffc23	0.07811763
17	0x3cd1d957	0.025616331
18	0x3d93954f	0.07206213
19	0x3d57de0b	0.05270199
20	0x3d8df4a7	0.06931429
21	0xbd1ce343	-0.03830267
22	0x3c332e5b	0.010936345
23	0x3deebe7e	0.11657427
24	0xbd8b9e6d	-0.06817327
25	0x3db87ce8	0.09008199
26	0xbbe2d3d3	-0.006922224
27	0x3c8bd384	0.017068632
28	0x3d8bbf5f	0.068236105
29	0xbc36db1a	-0.011160636
30	0x3bf320b2	0.007419669
31	0x3cda3859	0.026638197
32	0x3dbc0dbd	0.09182308
33	0x3d2434d4	0.040089443
34	0xbd59bdfe	-0.053159706
35	0xbbe3bc71	-0.006949954
36	0xba6e741a	-0.000909628
37	0x3da288dd	0.07936261
38	0x3d87d9f1	0.06633366
39	0xbdc37230	-0.09543264
40	0xbd3157d8	-0.043296665
41	0xbdb158ac	-0.08659491
42	0x3a21cb6e	0.0006171976
43	0x3a8266ad	0.0009948813
44	0xbca36d15	-0.019949475
45	0x3d92e285	0.071721114
46	0x3dc5411c	0.09631559
47	0x3d937fbc	0.07202098
48	0xbccb0c6b	-0.024786195
49	0xbd6d25f1	-0.057897512
50	0xbd0e252f	-0.03470343
51	0xbb93f548	-0.004515324
52	0xbdab1e24	-0.08355358
53	0xbdb21daf	-0.08697068
54	0xbbc8463c	-0.006111888
55	0xbd52f1f0	-0.05150026
56	0x3d7af548	0.061269075
57	0xbdd396aa	-0.10331471
58	0x3d4fed49	0.050763402
59	0xbd97221e	-0.07379554
60	0x3b1b0d0e	0.0023658904
61	0xbd6a8fb6	-0.05726596
62	0xbd7df1ae	-0.06199806
63	0x3d93d331	0.07218016
64	0xbdac7cfb	-0.08422276
65	0xbdad40f6	-0.08459656
66	0x3c857906	0.01629306
67	0xbd01ace2	-0.031659015
68	0xbd4fea89	-0.05076078
69	0xbd8b5bba	-0.06804605
70	0xbd424e3e	-0.0474379
71	0xbcd91e90	-0.026503831
72	0x3d347a67	0.044062044
73	0x3c15dfeb	0.0091476245
74	0xbd04ddea	-0.032438196
75	0xbd5b0e72	-0.053480573
76	0xbd522374	-0.051303342
77	0x3ab4ada6	0.0013784661
78	0xbdddef2f	-0.10836636
79	0xbd5bfa76	-0.053705655
80	0xbd9b9d14	-0.0759832
81	0xbc405405	-0.011738782
82	0x3c96bb8e	0.01839998
83	0x3d1a225f	0.037630435
84	0xbda5713c	-0.08078238
85	0xbd00034c	-0.031253144
86	0xbd01eb5c	-0.031718597
87	0xbbac8e9d	-0.0052660243
88	0x3d04b442	0.03239847
89	0x3db888b3	0.09010448
90	0x3c89cf46	0.016822468
91	0x3c867818	0.016414687
92	0x3dbb06d0	0.09132159
93	0xbca6243c	-0.02028095
94	0x3d5e9ae1	0.054346923
95	0x3dbccffe	0.09219359
96	0x3d6453a3	0.055743825
97	0xba3c3107	-0.00071789365
98	0xbd8d248a	-0.06891735
99	0x3c4cd28e	0.012501372
100	0xbd9cad4d	-0.07650242
101	0xbd19f51d	-0.037587274
102	0xbcde7ca8	-0.02715905
103	0x3c5117e4	0.012762044
104	0xbd70ac6b	-0.05875818
105	0xbd4e6a7d	-0.050394524
106	0x3b816e9a	0.0039499523
107	0x3d966aef	0.07344615
108	0x3cb25c2c	0.021772467
109	0x3c849bda	0.016187597
110	0xbc3b3fbd	-0.011428771
111	0xbd181647	-0.03713062
112	0x3ddccbf9	0.10781092
113	0x3d8328ce	0.06404267
114	0xbd8f3236	-0.06991999
115	0xbd326672	-0.04355473
116	0xb91bfd78	-0.00014876376
117	0xbd8412a0	-0.06448865
118	0x3caf4896	0.021396916
119	0xbdd4d3d7	-0.10391968
120	0xbe0950ac	-0.1340968
121	0xbd750cb7	-0.05982658
122	0xbd9228ef	-0.07136714
123	0x3d7597f5	0.05995937
124	0x3d8e1ebd	0.069394566
125	0x3d9ab1ef	0.075534694
126	0x3d77fd3a	0.06054423
127	0xbb138558	-0.00225099
128	0x3d0a18d7	0.033715095
129	0x3da62bf2	0.08113851
130	0xbc207e43	-0.009795728
131	0xbd4965e6	-0.049169444
132	0x3d13d43f	0.036091086
133	0x3d9a5888	0.07536417
134	0xbcb0a7c2	-0.021564368
135	0xbb9bf33e	-0.0047592213
136	0xbd4b3c45	-0.049618024
137	0xbd5e6be4	-0.05430211
138	0x3c84edc5	0.016226659
139	0x3d57d08e	0.052689128
140	0xbcdc6dcf	-0.02690783
141	0xbd75d84c	-0.06002073
142	0x3da308a6	0.07960634
143	0xbc5f5699	-0.013631486
144	0xbdd1480c	-0.1021882
145	0xbe01701b	-0.12640421
146	0xbdb3ad84	-0.0877333
147	0xbcddf9a2	-0.027096573
148	0x3b8e67ed	0.004345885
149	0xbdefb0f2	-0.117036715
150	0x3bf20549	0.007385884
151	0x3c680c50	0.014163092
152	0xbd0d6f76	-0.034530126
153	0x3d8202ba	0.06348176
154	0xbc78554c	-0.015157055
155	0x3d471735	0.048606116
156	0x3d5ba0e7	0.053620245
157	0xbd175e20	-0.036955
158	0xbd34073c	-0.04395221
159	0x3cec4215	0.028840104
160	0xbcd4c669	-0.025973516
161	0xbd8bc71a	-0.06825085
162	0xbd8cb9b7	-0.0687136
163	0xbaee553a	-0.0018183358
164	0x3d174c8d	0.03693824
165	0xbd568f91	-0.05238301
166	0x3d966e93	0.07345309
167	0x3d531bde	0.051540248
168	0x3d43ac40	0.047771692
169	0x3d870242	0.065922275
170	0x3d209908	0.039208442
171	0xbd8c2eaa	-0.06844838
172	0x3d13b1c3	0.0360582
173	0xbce9f08c	-0.028557085
174	0x3d015995	0.031579573
175	0x3db69eca	0.08917005
176	0x3d41bac8	0.04729727
177	0x3b871380	0.0041221976
178	0x3d22ffad	0.039794613
179	0xbb2f35c5	-0.002673493
180	0xbcab4e36	-0.020911317
181	0xbd1f8c75	-0.03895231
182	0x3c1c9672	0.009557353
183	0xbda3830e	-0.07983981
184	0xbd36fb7d	-0.04467343
185	0x3d1fc637	0.03900739
186	0xbd49d3d4	-0.04927428
187	0xbc9501c5	-0.01818932
188	0x399be9f3	0.0002973821
189	0x3bd4f814	0.0064993
190	0xbc0e0cd5	-0.008670052
191	0xbc9a417d	-0.018830055
192	0xbdeb0f4a	-0.114775255
193	0xbd15e517	-0.03659543
194	0xbdb172f0	-0.08664501
195	0x3d3dd69b	0.04634724
196	0x3cde31f0	0.027123421
197	0xbdd1eb79	-0.10249991
198	0xbdd9fac8	-0.10643536
199	0xbcda9274	-0.026681162
200	0xbc520b56	-0.0128200855
201	0xbbf39511	-0.0074335416
202	0x3ccc1592	0.02491263
203	0xbd0e0aea	-0.034678377
204	0x3cd36fc8	0.025810137
205	0xbbfa2945	-0.0076343142
206	0xbbdd05c4	-0.006745072
207	0xbc2b5c0a	-0.010458956
208	0xbd8a6ff0	-0.06759632
209	0xbdaba986	-0.083819434
210	0xbd5aaea4	-0.053389207
211	0xbd92da05	-0.0717049
212	0xbdf74860	-0.12074351
213	0xbdd73736	-0.105085775
214	0x3ce078cc	0.02740135
215	0xbde11aed	-0.10991464
216	0xbde9ee3f	-0.11422395
217	0xbd321498	-0.04347667
218	0xbd1b498c	-0.037911937
219	0x3caf9c08	0.021436706
220	0xbd9afe0c	-0.07567987
221	0xbd969eb1	-0.07354487
222	0xbd0a128b	-0.03370909
223	0xbd32da7d	-0.043665398
224	0x3bffe12c	0.007808825
225	0x3aa3f7a4	0.0012509716
226	0xbd6ab5b8	-0.057302207
227	0xbd7a1e18	-0.061063856
228	0xbd2a481c	-0.041572675
229	0xbc130369	-0.008972981
230	0x3ce598bc	0.028026931
231	0x3bccf462	0.0062547186
232	0xbd37ae55	-0.04484399
233	0x3ca2f92d	0.019894207
234	0x3db38923	0.08766391
235	0x3cf64a5c	0.030064754
236	0xbc6dccdd	-0.014514175
237	0x3d150079	0.036377404
238	0x3c757e51	0.014983729
239	0x3cab626f	0.02092096
240	0x3d897ebf	0.06713628
241	0xbd5be3f2	-0.053684182
242	0xbcf88d3d	-0.030340785
243	0xbda935d4	-0.0826222
244	0xbda0a45a	-0.078438476
245	0xbdd9850c	-0.1062108
246	0xbcada92b	-0.02119883
247	0x3cf4a217	0.029862447
248	0xbcd1b2de	-0.025597986
249	0x3c9ff76c	0.01952716
250	0x3bd5ee3e	0.006528645
251	0xbdafdee8	-0.08587438
252	0x3d02b1a7	0.031907704
253	0x3cd94d8d	0.026526237
254	0xbd5cf0bb	-0.053940516
255	0x3d44dc40	0.04806161

enc_5.1.bias f4 [32]
0	0x3e176135	0.14783175
1	0xbcaf2036	-0.021377664
2	0x3d2a7d0f	0.04162317
3	0xbd9cf3af	-0.076636665
4	0xbd21fe79	-0.039549325
5	0xbe2df3f3	-0.1698759
6	0x3cb9d447	0.02268423
7	0xbd8fc831	-0.07020605
8	0x3b80f7e8	0.0039358027
9	0xbc8fe66f	-0.017565934
10	0x3d72a85b	0.059242588
11	0x3df1baef	0.11803233
12	0xbdf38256	-0.11890094
13	0xbdaea764	-0.08528021
14	0x3d04875c	0.03235565
15	0x3cf5082b	0.029911121
16	0x3d9ec900	0.077531815
17	0xbd3928c2	-0.045204885
18	0x3e293ee0	0.16527891
19	0x3d9704c6	0.07373957
20	0xbdb6dcaa	-0.08928807
21	0xbdfae262	-0.1225021
22	0x3d928247	0.07153755
23	0xbe1e0c01	-0.15434267
24	0xbe403d01	-0.18773271
25	0x3dbf32ac	0.09335837
26	0xbd8c74f5	-0.06858245
27	0xbdbe019a	-0.09277649
28	0x3ce96218	0.028489158
29	0x3e28da97	0.16489635
30	0x3c349f83	0.011024359
31	0x3d676a0f	0.05649763

enc_5.2.weight f4 [32, 32, 3, 3]
0	0xbaf67adf	-0.0018804929
1	0xbd273690	-0.04082352
2	0x3d7e2235	0.06204434
3	0x3d48c194	0.049012735
4	0xbcdbb0ba	-0.026817668
5	0x3d073038	0.03300497
6	0xbcdacce0	-0.02670902
7	0xbcd80a9d	-0.026372248
8	0x3c8d6d47	0.017264022
9	0x3d21af37	0.03947374
10	0x3d84de48	0.06487709
11	0xbd972bea	-0.07381423
12	0x3d4c504f	0.049881276
13	0xbcc39d01	-0.023878576
14	0x3c48506c	0.012226205
15	0x3c0f912a	0.008762637
16	0xbca69143	-0.020332938
17	0xbc055f05	-0.00814033
18	0x3da9b266	0.0828598
19	0x3bffa177	0.0078012305
20	0x3c6538e2	0.013990613
21	0xba66f000	-0.00088095665
22	0x3cddf239	0.02709304
23	0xbcfb5dea	-0.03068443
24	0xbce8d08d	-0.028419757
25	0xbc8f206d	-0.017471517
26	0x3c84afa1	0.016197028
27	0x3cc392c7	0.0238737
28	0x3d3d1540	0.046162844
29	0xbcbbeed2	-0.022941027
30	0xbd7d6dc2	-0.06187225
31	0x3da6af65	0.081389226
32	0x3cb83da1	0.022490324
33	0x3c9b7a77	0.018979294
34	0x3dfaa3e2	0.122382894
35	0x3d7b0ff6	0.06129452
36	0x3d594f85	0.05305435
37	0x3d34bc83	0.04412509
38	0xbdab332d	-0.083593704
39	0xbbbe5b0a	-0.0058091925
40	0x3cf32ffb	0.029685965
41	0x3d50a389	0.05093721
42	0xbc54e75a	-0.012994612
43	0x3d87b8ad	0.06627021
44	0x3d03aa5e	0.032144897
45	0xbd9e1bad	-0.077201225
46	0xbc67e7c3	-0.014154377
47	0x3d8c87eb	0.06861862
48	0x3d059e24	0.032621518
49	0xbcc04588	-0.023470655
50	0x3c948c31	0.018133255
51	0xbcb7b4b9	-0.022425042
52	0x3d1a32b9	0.03764603
53	0xbd226b95	-0.03965338
54	0xbd76755a	-0.06017051
55	0xbc1bdd4f	-0.009513213
56	0xbd278a98	-0.040903658
57	0xbccff747	-0.025386466
58	0xbd1ce91a	-0.03830824
59	0x3c0fdfff	0.008781432
60	0xbd9112e2	-0.0708368
61	0xbc873c31	-0.016508194
62	0x3d7785c6	0.06043031
63	0xbcb08084	-0.021545656
64	0x3d4c3c05	0.049861927
65	0x3db1fd75	0.08690921
66	0x3d0925e7	0.033483412
67	0xbd1e6406	-0.03866961
68	0x3d2e85d1	0.042608086
69	0x3cd0fc9c	0.025511079
70	0xbceeb662	-0.029139701
71	0xbd721dae	-0.059110336
72	0xbc87de55	-0.016585508
73	0xbbf8a405	-0.007587912
74	0xbc2f1a6d	-0.010687453
75	0x3cfb71d5	0.030693928
76	0xbb7ca224	-0.0038548792
77	0xbbeb1777	-0.007174428
78	0xbda07aca	-0.0783592
79	0xbd5b6c88	-0.0535703
80	0xbd3d99bb	-0.046289187
81	0xbab8888f	-0.0014078784
82	0x3c9406e6	0.018069696
83	0x3d4d33a7	0.050098088
84	0xbd27a845	-0.04093196
85	0xbbf5fc89	-0.007506911
86	0x3cc75c59	0.024336027
87	0x3d5b540d	0.053546954
88	0xbc1a9bae	-0.009436531
89	0x3d5b6a0f	0.053567942
90	0x3c07466e	0.008256538
91	0xbbe615af	-0.007021628
92	0xbd94c098	-0.07263297
93	0x3ce1db1e	0.027570304
94	0xbd438a2a	-0.047739185
95	0x3dbc8e58	0.092068374
96	0xbdbaf55c	-0.0912883
97	0x3d80fea8	0.06298572
98	0xbd978f9b	-0.074004374
99	0xbba6a856	-0.005085985
100	0x3c587a96	0.0132128205
101	0x3d587442	0.052845247
102	0x3ce50ceb	0.027960261
103	0x3d2c21a3	0.042024266
104	0xbc957eeb	-0.018248996
105	0xbc18c05b	-0.009323205
106	0xbd77717b	-0.060410958
107	0xbd1a4271	-0.03766102
108	0x3dc389b5	0.0954775
109	0xbd83fea8	-0.06445056
110	0x3b1fd017	0.0024385506
111	0x3d79fa18	0.061029524
112	0x3c2612f7	0.0101363575
113	0x3d979aee	0.07402597
114	0x3d7b5bc2	0.061366804
115	0xbd080ef9	-0.033217404
116	0xbc7b318e	-0.015331639
117	0xbd6fa680	-0.058508396
118	0x3d0b24e2	0.03397072
119	0x3d5726d2	0.052527256
120	0xbd981789	-0.07426364
121	0x3d85e09d	0.06536982
122	0x3d76a080	0.06021166
123	0x3c99c838	0.01877223
124	0xbde4a34d	-0.1116396
125	0xbca52c2f	-0.02016267
126	0x3ccaef83	0.024772411
127	0xbd37105b	-0.044693332
128	0xbcadfd39	-0.02123891
129	0x3d01178f	0.031516608
130	0x3d3f6873	0.04673047
131	0xb9303316	-0.00016803699
132	0x3d3c48e1	0.04596794
133	0x3c612eae	0.013744039
134	0xbcec99e3	-0.028881973
135	0xbd4628d3	-0.048378777
136	0x3cc40b92	0.023931298
137	0xbd4516f8	-0.048117608
138	0x3c9cbecb	0.019133946
139	0xbd889c25	-0.06670407
140	0xbd3d71ed	-0.046251226
141	0x3cfa9c02	0.030591968
142	0x3c8f174e	0.017467167
143	0x3d3b5e93	0.04574449
144	0x3da557e1	0.08073402
145	0x3c8f050e	0.017458465
146	0x3b95ef5f	0.0045756544
147	0x3d760db4	0.060071662
148	0xbd4489f9	-0.047983143
149	0xbdb6c14e	-0.08923589
150	0xbcc14754	-0.023593582
151	0xbd98541c	-0.074379176
152	0x3d32319f	0.043504354
153	0xbc81dab5	-0.015851358
154	0x3da4e243	0.080509685
155	0xbd0a0ef3	-0.033705663
156	0xbd57e273	-0.052706193
157	0x3c6d2c05	0.014475827
158	0xbcbd6185	-0.02311779
159	0xbc5fc537	-0.0136578595
160	0x3d13f3a2	0.03612102
161	0x3db9d325	0.09073476
162	0x3cfb1d45	0.030653605
163	0xbb55a984	-0.003260226
164	0xbb9ef25c	-0.004850669
165	0x3c3ddc18	0.011588119
166	0x3b0c98ee	0.0021453458
167	0xbdc6ed62	-0.09713246
168	0xbc76332e	-0.015026851
169	0x3d1d29ee	0.038370065
170	0xbd6ed467	-0.05830803
171	0x3d8382b9	0.06421418
172	0x3d929d46	0.07158904
173	0x3dda303e	0.10653733
174	0xbdecde71	-0.11565865
175	0xbd82efe9	-0.063934155
176	0xbcbb180f	-0.02283862
177	0xbd7cf83f	-0.061760183
178	0xbccae672	-0.024768088
179	0x3c87861c	0.01654344
180	0xbcfcda7e	-0.030865904
181	0x3884430a	6.3067375e-05
182	0x3dbb7e10	0.09154904
183	0xbd91d34d	-0.071203806
184	0x3d5f7229	0.05455223
185	0x3d8e57df	0.06950354
186	0xbd85d4ff	-0.065347664
187	0xbc8415a8	-0.016123608
188	0x3d14fcb3	0.036373805
189	0x3d43de5b	0.047819477
190	0x3d6f63ed	0.058444906
191	0xbd1a384b	-0.03765134
192	0x3c451753	0.012029487
193	0xbd9c5f16	-0.07635324
194	0xbcc00c43	-0.023443347
195	0xbcf67853	-0.030086672
196	0x3d0571be	0.032579176
197	0x3d648766	0.05579319
198	0xbd105b8a	-0.03524355
199	0x39eae2be	0.00044800894
200	0xbd465bee	-0.048427515
201	0xbce2cd70	-0.02768585
202	0xbd02fbbd	-0.031978358
203	0x3c8c8675	0.017153958
204	0xbd885a1e	-0.066578135
205	0xbd478b2d	-0.048716713
206	0x3d2b6a7c	0.0418496
207	0xbd5baa80	-0.0536294
208	0xbca7a3d9	-0.02046387
209	0xbbd33951	-0.0064460416
210	0xbdfa5c61	-0.12224651
211	0xbdc454af	-0.095864646
212	0xbd8e46f4	-0.06947127
213	0xbbe6e3f3	-0.0070462166
214	0xbc0d1cd0	-0.0086128265
215	0x3bb731d9	0.005590659
216	0xbd092341	-0.033480886
217	0x3d137a13	0.03600509
218	0x3d1ae1c0	0.03781295
219	0x3d909a41	0.070606716
220	0x3cb77f86	0.022399675
221	0xbd2223c9	-0.03958491
222	0x3d61a679	0.0550904
223	0xbbbf3ede	-0.005836352
224	0x3d31a39d	0.043368924
225	0xbc47ad1d	-0.0121872695
226	0x3d6a2140	0.057160616
227	0x3da6e167	0.08148461
228	0x3d1ac557	0.037785854
229	0x3d2a047d	0.041508187
230	0xbd4b5a65	-0.049646754
231	0xbc0bf1e0	-0.008541554
232	0x3d0abb4d	0.03387003
233	0xbdcd9805	-0.10038761
234	0x3c65a9eb	0.014017562
235	0x3dd73d1a	0.10509701
236	0x3bd9881d	0.0066385404
237	0xbcddb201	-0.027062418
238	0xbc1510e2	-0.009098263
239	0x3d32f063	0.043686282
240	0xbc90d634	-0.017680265
241	0xbc813542	-0.015772466
242	0x3d20295b	0.03910194
243	0x3d120fe1	0.035659675
244	0x3d501e84	0.050810352
245	0xbd3d460f	-0.04620939
246	0x3d784423	0.060611855
247	0xbc3d50bb	-0.011554892
248	0xbdcac50a	-0.099008635
249	0xbc0af31f	-0.008480816
250	0xbc2e68a8	-0.010645069
251	0x3cc38404	0.02386666
252	0x3b97db2a	0.0046342807
253	0xbb45d185	-0.0030184698
254	0xbdf1ca0d	-0.11806116
255	0x3d589457	0.052875843

enc_5.2.bias f4 [32]
0	0xbe2b97dc	-0.16757149
1	0x3e16cca0	0.14726496
2	0x3d9e881e	0.07740806
3	0xbd55bcfa	-0.052182175
4	0xbccedf6e	-0.025253024
5	0xbe12787f	-0.14303778
6	0xbd7094fc	-0.058735833
7	0xbcdbb08c	-0.026817583
8	0xbe2d6436	-0.16932759
9	0x3dd6e3a3	0.10492637
10	0x3d87a75c	0.06623718
11	0xbd93a17a	-0.072085336
12	0x3ad257cb	0.0016047893
13	0x3bdf76cd	0.006819582
14	0xbdd98485	-0.10620979
15	0x3d1b0174	0.037843183
16	0x3c75602d	0.014976543
17	0x3db244a1	0.08704496
18	0xbe106b45	-0.1410342
19	0x3d7acfa7	0.06123319
20	0xbd88eda2	-0.0668595
21	0xbd1c98c3	-0.038231622
22	0x3d6706c8	0.05640295
23	0xbca83df7	-0.02053736
24	0xbdff6c7f	-0.12471866
25	0x3e15c87b	0.14627258
26	0x3d7eef15	0.062239725
27	0xbd80e879	-0.06294341
28	0xbaa9c870	-0.0012953412
29	0xbdc583ce	-0.096442804
30	0xbe54421f	-0.20728348
31	0xbe063446	-0.13105878

enc_6.1.weight f4 [64, 32, 3, 3]
0	0x3ca3279f	0.019916354
1	0x3bf09c31	0.007342838
2	0x3d332425	0.043735642
3	0x3c514188	0.0127719715
4	0xbb437ef5	-0.002983031
5	0x3cd59d2c	0.026075922
6	0x3d141178	0.036149472
7	0x3dc79800	0.097457886
8	0x3d9db871	0.07701195
9	0xbd073eec	-0.03301899
10	0xbcac0685	-0.020999203
11	0x3ca1ba7d	0.019742245
12	0xbd9c76dc	-0.07639858
13	0x3d62734c	0.055285737
14	0xbcf12a3d	-0.029439086
15	0x3c4350b8	0.0119211
16	0x3d27910b	0.040909808
17	0xbd60bcd4	-0.05486758
18	0x3ccb20a1	0.024795832
19	0xbc197ed3	-0.009368616
20	0xbd13a2c6	-0.036043905
21	0x3cde7fde	0.027160581
22	0xbcf58a18	-0.029973075
23	0x3d292e7c	0.041304097
24	0xbd4daa51	-0.050211255
25	0xbd06bb0a	-0.032893218
26	0x3d1fb915	0.038994867
27	0x3c6b8ebf	0.014377295
28	0x3d56d58e	0.052449755
29	0xbc57dd6a	-0.013175348
30	0xbce51133	-0.027962303
31	0xbc3500ae	-0.011047525
32	0x3ce5f078	0.028068766
33	0x3bd38d6a	0.006456067
34	0x3db246fe	0.08704947
35	0x3d975042	0.07388355
36	0x3ab53251	0.00138242
37	0xbd48f10f	-0.049058016
38	0x3d5dda9c	0.05416356
39	0x3cf6a8e2	0.030109826
40	0x3cdd9949	0.027050631
41	0x3d58e5cb	0.052953523
42	0xbd4db740	-0.05022359
43	0xbd823e20	-0.06359506
44	0x3b131e27	0.0022448392
45	0xbc1e9cc5	-0.009680931
46	0x3d83b483	0.06430914
47	0xbd89a14c	-0.06720218
48	0xbc95606b	-0.018234452
49	0x3d5142cf	0.051089104
50	0xbd8c86a0	-0.06861615
51	0x3c6afcda	0.014342511
52	0xbcb36069	-0.021896558
53	0x3be81e3b	0.007083682
54	0xbde71ce6	-0.11284809
55	0xbd02c60d	-0.031927157
56	0x3c8379be	0.016049262
57	0xbd89f20f	-0.06735622
58	0xbcc88041	-0.024475219
59	0x3ca0254d	0.019549036
60	0xbd6583f3	-0.05603404
61	0x3cfe7dd9	0.031065868
62	0xb9ffb397	-0.00048771195
63	0xbc583db1	-0.013198302
64	0x3bcd909b	0.006273342
65	0xbd11444d	-0.035465527
66	0xbcaa9677	-0.0208237
67	0xbc86931e	-0.016427573
68	0xbcd4fea3	-0.026000326
69	0x3d6b16d5	0.05739482
70	0x3d644061	0.05572546
71	0x3996e2a4	0.0002877909
72	0x3af7e68d	0.0018913314
73	0xbcbd79c4	-0.023129351
74	0xbc787119	-0.015163683
75	0xbce328ec	-0.027729474
76	0x3d0525ce	0.032506756
77	0x3b553257	0.0032531226
78	0x3c4cb2b9	0.012493783
79	0x3d230d2e	0.03980749
80	0xbd4b43b6	-0.04962512
81	0xbcc1e574	-0.023668982
82	0x3d469e25	0.048490662
83	0x3c8eee83	0.017447716
84	0xbd1737b4	-0.036918357
85	0xbcb88d97	-0.022528453
86	0xbd0a5ef1	-0.03378195
87	0x3a9effe5	0.0012130706
88	0x3d4fe1a9	0.050752316
89	0xbd0b8b27	-0.034068253
90	0x3d6502f8	0.055911034
91	0x3cab5ffa	0.020919789
92	0x3cd70b52	0.026250515
93	0x3c058519	0.008149409
94	0x3cbbead5	0.022939125
95	0x3d2c60ff	0.04208469
96	0x3cca12f6	0.024667244
97	0xbcc94577	-0.024569256
98	0xbd24aef1	-0.0402059
99	0xbce18239	-0.027527915
100	0x3d404a5a	0.046945907
101	0xbd5c089a	-0.05371914
102	0xbd5dba51	-0.054132763
103	0x3d4636e3	0.048392188
104	0x3a351bce	0.0006908745
105	0xbb9333ad	-0.004492244
106	0x3d41a343	0.04727484
107	0x3daa3874	0.08311549
108	0x3da25eaa	0.07928212
109	0x3d579a67	0.052637484
110	0xbce97be9	-0.028501468
111	0x3d0f68c3	0.035012018
112	0x3cb1932d	0.021676624
113	0xbd87916a	-0.066195324
114	0x3d959fe4	0.07305887
115	0x3b21ef46	0.0024709268
116	0x3d00e2a6	0.03146615
117	0xbd3c137d	-0.045917023
118	0x3af119f8	0.001839458
119	0x3d06d27e	0.032915585
120	0xbd1416a1	-0.036154393
121	0xbdb0f2d6	-0.08640067
122	0x3d4adf5e	0.049529426
123	0x3cd0b3e7	0.02547641
124	0xbcd4988b	-0.025951644
125	0xbd394391	-0.045230452
126	0x3c80af92	0.015708718
127	0x3d6fff30	0.058592975
128	0xbcc3081e	-0.023807582
129	0xbc83da0b	-0.016095182
130	0xbcbe4acd	-0.023229027
131	0x3d6c0f9c	0.057632074
132	0x3c652453	0.013985711
133	0x3d4e37c1	0.05034614
134	0x3c73c1e4	0.01487777
135	0xbcc11e33	-0.02357397
136	0xbc791daa	-0.015204826
137	0x3d04b407	0.03239825
138	0x3d50d8de	0.05098807
139	0x3cbd6a90	0.023122102
140	0x3c350d56	0.011050543
141	0x3ddd15e7	0.10795193
142	0xbd543f3f	-0.05181813
143	0xbc3d3a0a	-0.011549482
144	0xbd4ce399	-0.05002174
145	0x3d579885	0.05263569
146	0x3ce6036e	0.028077807
147	0x3cec8861	0.028873624
148	0xbbd196ef	-0.0063961665
149	0xbceb22de	-0.02870315
150	0x3d1af98b	0.03783564
151	0x3d431687	0.047628906
152	0x3c25cabd	0.010119137
153	0x3d4a9013	0.049453806
154	0xbd0dfeae	-0.03466671
155	0xbd996298	-0.074895084
156	0x3d6d7500	0.057972908
157	0xbc3a8e5d	-0.011386481
158	0xbd1b425b	-0.03790508
159	0x3cbc41b1	0.022980543
160	0x3c0ccbde	0.008593528
161	0x3cc9c9d6	0.024632376
162	0xbc56deb7	-0.013114623
163	0x3dd55c15	0.10417954
164	0x3d90bf2b	0.070677124
165	0xbd31b7a3	-0.04338802
166	0x3c87d3a8	0.016580418
167	0xbcb0ba45	-0.021573195
168	0xbb3cff8f	-0.0028838848
169	0xbc93bd52	-0.01803461
170	0x3d6a84d2	0.057255574
171	0x3d932400	0.07184601
172	0xbcd3de51	-0.025862845
173	0x3d982ad9	0.074300475
174	0x3c5f6435	0.013634731
175	0x3d84abf4	0.0647811
176	0x3d74d09f	0.05976927
177	0xbd8791aa	-0.0661958
178	0xbd57ee6d	-0.052717615
179	0x3da2dd0d	0.07952318
180	0x3cd36813	0.025806462
181	0xbd141e62	-0.036161788
182	0x3cd5b060	0.026085079
183	0x3c351b80	0.01105392
184	0xbc454e35	-0.012042572
185	0x3dc708df	0.09718489
186	0x3d8dda59	0.06926412
187	0x3d932dd1	0.07186473
188	0x3ceca52c	0.028887354
189	0xbd30ae35	-0.043134887
190	0x3c908a26	0.017644
191	0xbd979db2	-0.07403125
192	0xbd0ac105	-0.033875484
193	0xbd09a683	-0.033606064
194	0x3cd0e3bd	0.02549922
195	0xbae0bb18	-0.0017145602
196	0xbd31d251	-0.043413464
197	0x3da3d891	0.08000291
198	0xbac60ce2	-0.001511004
199	0x3ce3321b	0.027733853
200	0x3d0afde7	0.033933546
201	0x3ce3d6f7	0.027812464
202	0x3d112012	0.035430975
203	0xbd215ccb	-0.039395135
204	0x3d64b782	0.05583907
205	0x3da0430b	0.078252874
206	0xbd1e726b	-0.038683336
207	0xbd15b2b6	-0.036547385
208	0x3c18e8bf	0.009332835
209	0x3d08f274	0.033434346
210	0xbd12ea03	-0.035867702
211	0xbd6306ee	-0.05542653
212	0x3d527be8	0.051387697
213	0x3c8f46a3	0.017489737
214	0xbc36e7a0	-0.011163622
215	0x3d1287b7	0.03577396
216	0xbc2eb9e5	-0.010664438
217	0xbd009e31	-0.031400863
218	0x3d0cf753	0.034415554
219	0xbd952fef	-0.07284533
220	0x3ba0e2ed	0.004909864
221	0x3b445436	0.002995742
222	0xbd75f76b	-0.06005041
223	0x3c1dd845	0.009634082
224	0xbc98ff5d	-0.018676454
225	0xbc945bea	-0.018110234
226	0x3c0acf2a	0.008472243
227	0x3d022fba	0.031783797
228	0xbcdbc19b	-0.026825717
229	0x3d3cb6de	0.046072833
230	0x3cc04349	0.023469584
231	0x3ca2e392	0.019883905
232	0xbd622831	-0.05521411
233	0x3d1e0e59	0.0385879
234	0xbc47f560	-0.012204498
235	0x3d345561	0.044026736
236	0x3b6180b9	0.0034409
237	0xbd5d70e2	-0.05406273
238	0xbb25c52d	-0.0025294528
239	0x3d7b518e	0.061357073
240	0xbd3c1a3e	-0.045923464
241	0xbba1ac47	-0.004933867
242	0x3c1c1179	0.00952565
243	0x3d001b20	0.03127587
244	0xbce0b518	-0.027430102
245	0x3d76bca2	0.060238488
246	0x3d079710	0.03310305
247	0xbbed6ad8	-0.007245403
248	0xba304e61	-0.00067255466
249	0xbcbc437e	-0.022981402
250	0xbcc3668a	-0.023852605
251	0xbb8e31af	-0.004339419
252	0x3da33f94	0.07971111
253	0xbcc43fc0	-0.02395618
254	0x3c9cec2e	0.019155588
255	0xbd5cfe5d	-0.053953517
